Pretrained/BiTran_10.pt (torch, 455484 bytes, 34 tensors)

embed_layer.0.weight f4 [64, 64]
000000 a9 31 b7 3e 5f ec 43 be c3 90 d9 3e 1b 9a 80 be
       0.35780075 -0.19133137 0.42493257 -0.25117573
000010 50 4b 96 3f 13 32 90 be 54 19 11 3f 67 b2 a8 be
       1.1741734 -0.28163204 0.5667927 -0.3294861
000020 38 ec ea 3e f8 18 2d be a5 19 d7 3e f1 d5 fa bd
       0.45883346 -0.16904056 0.42011753 -0.12247837
000030 93 d1 f2 3e 23 4c 44 be d5 f3 97 3d dc d6 88 be
       0.47425517 -0.19169669 0.07419554 -0.26726425
000040 d8 40 89 3e d7 5d ae bd 7a 88 08 3d c6 03 4e be
       0.26807284 -0.08513992 0.03333328 -0.20118627
000050 31 30 23 3d 0c 3a 9b be 3c 41 d1 3e 94 2a 86 be
       0.03984088 -0.30317724 0.40870082 -0.2620436
000060 68 25 35 3e 67 8d ee bd 95 3b 52 bd d3 85 a8 be
       0.1769005 -0.11648064 -0.051326353 -0.329146
000070 ff 8c a3 3e 32 46 cb bd 38 c9 06 3e 3a e6 fc bd
       0.3194351 -0.09925498 0.13162696 -0.123486
000080 55 72 48 3f c6 35 97 be 2a 2a 0a 3e 66 ab 65 be
       0.78299457 -0.29533213 0.13492647 -0.22428665
000090 ff 0f fc 3d fc 8d 5c be f4 3d d4 3e 4c 5a 2b be
       0.123077385 -0.21538538 0.41453516 -0.16733664
0000a0 ca 72 47 3e f2 26 8b be ea 45 1a be 79 46 2d be
       0.19477382 -0.2717815 -0.15065733 -0.16921414
0000b0 88 e4 db 3e af 59 a5 3f c6 fd a6 bd f6 d2 1e 3f
       0.42947793 1.2917994 -0.08153872 0.6204065
0000c0 14 57 9d 3f 60 56 9f 3c 58 dd 15 bf 69 42 16 bf
       1.2292199 0.019450366 -0.5854087 -0.58695084
0000d0 98 e7 cf be 4b 71 04 bf 60 61 24 3f 65 d6 8d 3e
       -0.4060638 -0.5173537 0.6421108 0.27702633
0000e0 da b0 9d 3e e7 b4 44 3f 62 66 5d 3e 93 1f 90 3f
       0.3079899 0.76838535 0.21621087 1.1259636
0000f0 22 5a e9 bd 14 ed 95 3f 9c 7a d1 3c 98 92 bd b6
       -0.113941446 1.1712976 0.02557116 -5.6497047e-06
000100 71 e4 a8 be 02 7a 08 3e 3a 5a c3 3d 53 e3 8c 3e
       -0.32986787 0.13327792 0.09538694 0.27517185
000110 69 63 a9 bd 98 bf 51 3e 85 09 9c 3f c1 c3 49 3e
       -0.08270914 0.20483243 1.2190405 0.1970358
000120 5a c0 38 3f e7 89 1b 3e 3c 9b 16 3f 65 65 7c 3e
       0.72168505 0.15189324 0.5883062 0.24648054
000130 52 e7 8d 3e 5a 00 70 3e e7 38 bb 3e 71 c1 3c 3e
       0.27715546 0.23437634 0.3656685 0.18433167
000140 d8 96 6c 3e d3 1d 04 3e 73 d4 14 3f 7b a8 40 3e
       0.23104417 0.12902002 0.5813667 0.1881427
000150 33 d2 e1 3d a4 d2 5c 3e 94 d8 31 3e 50 cc 0a 3e
       0.110264204 0.21564728 0.17367774 0.13554502
000160 d9 72 c0 3c 86 9c 51 3e 5c b7 0d 3f 05 c7 bf 3d
       0.023492264 0.20469865 0.5535791 0.09364132
000170 f3 4a 9a 3e f9 2c 80 3e 48 f7 42 3f 9f 39 8b 3d
       0.30135307 0.2503431 0.7615857 0.067981
000180 03 63 8a 3e b7 81 03 3e a7 a3 31 3f 35 41 9b 3d
       0.27028665 0.12842451 0.6939034 0.07580797
000190 8f 0b eb 3e 63 91 4d 3e b6 67 b8 3e 1e 98 17 3e
       0.45907256 0.20074992 0.36016625 0.14804122
0001a0 9c d3 90 3e 39 56 1b 3e 7f e0 1f 3e 9e d7 a2 bd
       0.28286445 0.1516961 0.15612982 -0.07951282
0001b0 2d 1b 1d 3f a8 07 1c 3e 6e 44 c1 bd 23 29 15 3f
       0.6136959 0.15237296 -0.0943688 0.58265895
0001c0 a0 e9 8b 3e 80 be 11 3b a7 4e 16 3f 47 8a b7 3e
       0.2732668 0.002223879 0.58713764 0.35847685
0001d0 ca f0 00 3f be 34 05 3e ac f6 49 3e fa 71 6d bd
       0.50367415 0.13008401 0.19723004 -0.057970025
0001e0 c7 74 f2 be 89 c9 a7 be 2d c7 aa 3e c5 ec 19 bf
       -0.4735472 -0.32770947 0.33355084 -0.60126907
0001f0 d8 f1 b7 3e 51 96 08 bf ad 79 05 bd 7e 86 e4 be
       0.359267 -0.53354365 -0.032586742 -0.4463386
000200 35 74 de bd 79 f9 a4 bd e4 ff 13 bf e6 a5 3e 3d
       -0.108620085 -0.08055396 -0.57812333 0.04654493
000210 fe eb 2d 3e 47 fe 8a bd b0 78 3b 3f f5 f6 a9 bd
       0.16984555 -0.06786781 0.7323103 -0.082990564
000220 43 64 2a 3f a4 20 ef 3c 09 cd c5 3e da a7 9f bd
       0.6655924 0.029190369 0.38632992 -0.07795687
000230 14 3d 1d 3f 49 5e 49 3d b6 61 c0 3c c9 49 10 3c
       0.6142132 0.049162183 0.023484092 0.008806654
000240 4e 9b 16 3e eb 2e a1 bd fb fe b7 bd 8e 1e 06 bd
       0.14707682 -0.07870277 -0.089841805 -0.032743983
000250 87 45 d0 3d 3d 24 ee bd 30 e3 ad 3d d1 03 94 bd
       0.10169511 -0.11628006 0.08490598 -0.072272904
000260 6a d2 95 3e f7 40 95 bd dd ef 8e be 98 1c 0e be
       0.29262096 -0.07287782 -0.27917376 -0.13878095
000270 f2 e5 82 3e b3 2d 60 3d b5 4b 27 3e 17 08 a0 bd
       0.2556606 0.054731082 0.16337474 -0.07814043
000280 eb 5a 9d bd f1 ab de bc fd 5b 0a bf 13 f7 29 be
       -0.07683357 -0.027181597 -0.5404661 -0.16598158
000290 39 cb 8f 3e 1f 54 16 be 0c 7f 5f bd cd ce 71 3d
       0.28084734 -0.14680527 -0.05456452 0.05903511
0002a0 42 3e 9f 3e 67 76 44 be ac 6f 24 be bd 76 46 3e
       0.31102186 -0.19185792 -0.16058224 0.19381233
0002b0 f8 4b 49 be bc e7 fe 3e 2e c1 dd bd fe 6f 4e be
       -0.19657886 0.49786174 -0.10827862 -0.20159909
0002c0 ba b8 0c 3f 20 26 3d 3c b7 e5 1b bf c8 93 80 be
       0.5496937 0.011544734 -0.6089739 -0.25112748
0002d0 94 f9 9b be e0 7c b7 be ee 12 3f 3f 86 38 e7 3e
       -0.3046385 -0.3583746 0.7463826 0.4516031
0002e0 92 ff 70 bf 56 b2 60 3f 30 ec 9a 3d c8 f4 94 3f
       -0.9413997 0.8777212 0.075645804 1.1637201
0002f0 33 9f 72 3d 1a a5 90 3f 05 14 b2 bd 3c bb 2e bf
       0.059233855 1.1300385 -0.08695225 -0.68254447
000300 9b 52 32 3f 0a 95 31 bd 70 42 92 3e e9 b3 e0 bd
       0.69657296 -0.043355025 0.28566313 -0.10971815
000310 21 b8 b9 3e 71 58 a3 bd b2 97 27 be e3 01 30 be
       0.36273292 -0.07975853 -0.16366461 -0.1718822
000320 b7 29 b1 be 74 f1 46 bd f1 43 91 3e f7 db ea 3c
       -0.34602138 -0.04857011 0.28372148 0.02866934
000330 90 84 33 be 14 40 b6 bd f0 61 10 3e 43 9c c4 3c
       -0.17531037 -0.08898941 0.1409986 0.024000293
000340 79 e5 09 3f 80 51 4d be 5d 31 93 be f6 7e f7 bd
       0.5386577 -0.20050621 -0.287486 -0.12084763
000350 5d e7 5c 3e 1b 1f ba bc 06 e3 65 3d 36 3d 31 be
       0.21572633 -0.02271991 0.05612471 -0.17308506
000360 8b 25 00 3f 3c 27 2c be 06 40 11 be 6a cf 3c 3b
       0.50057286 -0.16811842 -0.14184579 0.0028810152
000370 4a 4f 0e 3f 47 bb cf bc 7f 52 54 bd ad 6c 88 3c
       0.55589736 -0.025357855 -0.051836487 0.016653383
000380 9d cd 57 3c 7b 94 2a bd 29 86 8a bd 8f be c5 3c
       0.013171581 -0.04164551 -0.0676387 0.024138717
000390 ac dc 6c 3d 00 c1 1e be e4 a3 4c 3e 43 ab 0b be
       0.057827637 -0.15503311 0.19984394 -0.1363955
0003a0 c7 5b fc 3e 8e 89 17 bd a4 40 40 bd 5b 3c d0 3e
       0.4928877 -0.036996417 -0.046936646 0.40671048
0003b0 3a 97 69 3e 9c 99 de 3e 30 8a 38 bd a0 b2 54 3e
       0.22811595 0.4347657 -0.04505366 0.20771265
0003c0 d8 64 68 3e d4 56 d2 bd b2 eb 90 be 74 36 c1 bd
       0.22694719 -0.102704674 -0.2830482 -0.09434214
0003d0 10 3b 8a bd 53 96 74 be 04 18 e1 3e 5f c9 14 3f
       -0.067495465 -0.23885469 0.43963635 0.5811977
0003e0 ab 20 62 3e 19 4a 5a 3f cf 57 88 be c1 99 aa 3f
       0.22082774 0.85269314 -0.26629493 1.3328172
0003f0 3b 1b 08 bf c3 64 c2 3f cf 9a 8c be 6a f2 29 3f
       -0.5316655 1.5187 -0.2746186 0.6638552

embed_layer.0.bias f4 [64]
000000 6f e8 63 3e 6d 2e d7 bf 9a 46 c1 be e7 98 a4 3e
       0.22256635 -1.6811043 -0.37749177 0.32147905
000010 61 5d 15 bf fc fa 89 3f 11 78 9e 3f 9c 28 07 3f
       -0.5834561 1.0779719 1.2380391 0.5279634
000020 f0 1c 78 3f 67 98 d8 3f cb 42 fb be b8 48 0b bf
       0.96919155 1.692151 -0.49074396 -0.54407835
000030 14 b2 a7 3f 8d fd 32 3f 56 ed 78 bf 77 65 3d be
       1.310122 0.6991814 -0.97237146 -0.18495737
000040 f2 bd 3b bf e2 5f 88 bd f9 a7 9d bf 0d 54 6c 3f
       -0.7333671 -0.06658913 -1.2316886 0.9231575
000050 98 14 4b 3f f3 68 c6 bf 3f 19 01 3e 2f 7d 55 be
       0.793283 -1.5500778 0.12607287 -0.20848535
000060 e9 f4 48 bf 3b f6 07 bf 1f b3 77 3f a2 fc b0 bf
       -0.78498703 -0.5311009 0.9675769 -1.3827097
000070 c7 9d fd bd e0 c7 92 be 48 36 20 3f 95 84 16 bf
       -0.12383609 -0.28668118 0.62582827 -0.58796054
000080 e5 12 ca bd 9d 7c 92 3f 49 8f 70 3f 9e 8d 01 3f
       -0.09866885 1.1444279 0.93968636 0.50606716
000090 eb af 98 be c3 43 9e bf 80 bc 53 bd 4e c0 1d bf
       -0.29821715 -1.2364429 -0.05169344 -0.6162156
0000a0 98 ab cc 3f 20 10 e4 3f 53 b8 b9 bf 6b 50 d9 bc
       1.5989866 1.7817421 -1.4509376 -0.026527604
0000b0 4d 5d 44 3f da b9 87 3f 29 2d 95 bf 07 9e a8 3f
       0.76704866 1.0603592 -1.1654407 1.3173226
0000c0 e2 a6 59 3f a8 87 4f bd d0 57 ec 3f 1a 64 3e 3f
       0.8502027 -0.05066648 1.8464298 0.7437149
0000d0 af 3a 61 3f c4 bf 17 be b0 f5 3a bf f3 df a8 bf
       0.8798017 -0.14819247 -0.7303114 -1.3193344
0000e0 a9 b3 8b 3e 53 27 04 3f b4 f5 bf 3f fc cd bd 3e
       0.27285507 0.51622504 1.4996858 0.37071216
0000f0 68 ed 38 bf 26 ae 69 bf 14 c2 97 3f 67 e7 7d 3f
       -0.72237253 -0.91281354 1.1856103 0.99181217

embed_layer.1.weight f4 [64]
000000 45 57 76 3f 77 32 ba 3f 4b af a8 3f 07 92 8c 3f
       0.9622691 1.4546651 1.3178495 1.0982064
000010 07 30 74 3f a2 e8 7c 3f 67 29 8f 3f d2 bd 89 3f
       0.95385784 0.9879247 1.118451 1.0761054
000020 c1 63 ab 3f a1 61 5f 3f 7a 51 78 3f 15 dc 8d 3f
       1.3389817 0.87258345 0.96999323 1.1082789
000030 43 be 9d 3f d7 9d 16 3f 83 5b c9 3f 54 61 c2 3f
       1.2323688 0.58834594 1.5731052 1.5185952
000040 15 3c 6a 3f 76 e6 9a 3f f2 92 8f 3f 23 88 af 3f
       0.9149793 1.2101581 1.1216719 1.3713421
000050 14 df 41 3f 86 84 83 3f 5f 43 84 3f 40 61 12 3f
       0.75731015 1.0274818 1.033306 0.5717964
000060 7b c7 ad 3f a7 8f 83 3f 8d 53 03 40 93 b8 1e 3f
       1.3576502 1.0278214 2.0519745 0.6200039
000070 46 7c 60 3f db e0 8a 3f 18 fa 93 3e d8 56 8a 3f
       0.87689626 1.084987 0.28901744 1.0807753
000080 a8 b0 38 3f c8 8c 73 3f f7 d9 ab 3f 5e e3 b0 3f
       0.72144556 0.9513669 1.3425893 1.3819387
000090 cb 7b 14 3f 14 76 13 40 9f 78 83 3f c1 b1 0a 3f
       0.58001393 2.304082 1.0271186 0.5417748
0000a0 20 b2 9c 3f 73 3f d4 3f 72 ca ad 3f a6 48 67 3f
       1.224186 1.6581863 1.3577406 0.9034523
0000b0 9c d0 9c 3f a3 d2 71 3f 1d 9e 03 40 97 ef 69 3f
       1.2251163 0.9446203 2.0565255 0.9138121
0000c0 03 0e 3b 3f d0 f6 a8 3f e8 c9 75 3f 5f 20 93 3f
       0.73068255 1.3200321 0.9601121 1.1494254
0000d0 35 81 72 3e b2 07 8b 3f c1 e2 8d 3f fa 68 0e 40
       0.23682101 1.0861723 1.1084825 2.2251573
0000e0 ad 13 06 3f 3a ff 77 3f 94 82 aa 3f 9e 05 88 3f
       0.5237377 0.9687382 1.3321099 1.0626714
0000f0 a6 da 50 3f ae 00 39 3f 1b eb 9b 3f 1f 96 de 3f
       0.8158363 0.7226666 1.2181123 1.7389563

embed_layer.1.bias f4 [64]
000000 44 8c d2 be 40 e2 06 3f bb 72 aa bc b2 b5 26 be
       -0.4112264 0.5268898 -0.02080666 -0.16280249
000010 36 9c 34 3d 71 86 71 be 44 00 a9 be 80 ce 60 be
       0.044094287 -0.23586442 -0.33008015 -0.21953773
000020 1e b4 87 3e 91 70 f8 bd 1b 89 08 3f f3 ff c9 be
       0.26504606 -0.12130845 0.53334206 -0.39453086
000030 88 dc 85 bd 3d 8b fe bd a2 5f 92 be 3c cb c3 3d
       -0.065362036 -0.12428901 -0.28588587 0.09560248
000040 cd 32 7f 3c e8 2e f4 bc 1b 6b 4c 3e eb 64 28 3e
       0.015576077 -0.029807523 0.19962732 0.16444747
000050 7a d3 a6 bc dc 0f f7 3e f4 00 cc be 62 32 a9 bd
       -0.020364512 0.48254287 -0.39844477 -0.08261563
000060 7b 13 b2 3e 5b dc 4e 3d 7c 77 15 3f a5 5d af bb
       0.34780487 0.050503116 0.58385444 -0.0053517395
000070 eb 37 40 be 3e 1d 14 3c e2 ca 50 be 43 c5 7b be
       -0.18771331 0.009040175 -0.20389894 -0.24586968
000080 81 b3 91 3e 01 b2 89 be df 10 e0 3d 66 a4 e8 3e
       0.28457263 -0.2689362 0.10940718 0.45437926
000090 a3 f9 92 3d 37 c1 c0 be 79 e5 0c 3e 15 30 1b 3c
       0.07176521 -0.3764741 0.13759412 0.009471913
0000a0 7b ce 0c be 00 02 b0 bd 1a a1 4b 3e d6 54 28 3e
       -0.13750641 -0.085941315 0.19885674 0.16438612
0000b0 37 4d 56 be 52 19 7d bc ab 5f e5 be 9a 44 dc be
       -0.20927893 -0.015447931 -0.4479955 -0.4302109
0000c0 14 ba 40 be 7b e4 e7 bd c4 24 14 be cd 8a 4f be
       -0.18820983 -0.11322876 -0.1446715 -0.20267792
0000d0 5e 61 fa 3d 9d db ca 3c b0 eb df 3e 53 aa b8 be
       0.122256026 0.024762923 0.43734503 -0.36067447
0000e0 eb d2 31 3d c2 83 9f 3e fa 8e 69 bd 4b 53 06 bd
       0.043414038 0.3115521 -0.05702112 -0.032794278
0000f0 9d 01 c1 3d 46 42 ef bd 1f 39 77 3e a2 11 f4 3e
       0.09424136 -0.116825625 0.24142884 0.47669703

positional_encoder.feature_projection.weight f4 [64, 64]
000000 50 65 28 be 4f 5d ea be 70 4b 11 3e 24 c9 de 3d
       -0.16444898 -0.45774314 0.14188933 0.10878208
000010 d3 a7 91 3d aa 2b 8b bd e3 1b 1e be f8 b4 18 3c
       0.07112088 -0.06795438 -0.15440325 0.00932049
000020 01 31 93 bd 00 10 00 3d bf 59 ca 3e 9f d4 cf bd
       -0.07187081 0.03126526 0.39521596 -0.10147976
000030 7b 33 2b bf 14 a4 b2 3c 70 81 b6 3e 90 bf 0d 3e
       -0.6687543 0.021806754 0.35645628 0.13842607
000040 2c 75 51 bd 65 25 94 3d 64 96 bf 3e 85 f6 23 3f
       -0.051137134 0.07233695 0.37419426 0.64048034
000050 0f 78 55 be 4d a1 ed be ee 6c 03 bf 35 e4 9b 3c
       -0.2084658 -0.46412125 -0.5133809 0.019029716
000060 4c 44 fa 3d 1b 77 48 be 61 3c 15 bd 27 7a 81 3c
       0.12220058 -0.19576685 -0.036434535 0.015805317
000070 62 4c 52 bc 7f 32 d3 bd 41 2d 46 3e 17 ba 09 be
       -0.012835594 -0.10312366 0.193532 -0.13449894
000080 23 82 5c be ca a1 93 3e 44 25 46 be 3d 84 a4 be
       -0.21534018 0.28834373 -0.19350153 -0.3213214
000090 97 7f 2f bd 19 c4 ad be 5b 76 31 3f bf bd 57 3e
       -0.04284629 -0.33938673 0.6932122 0.21068476
0000a0 f3 f4 ff bc 67 12 27 bd 00 53 7b 3d 19 6a 36 bc
       -0.03124473 -0.040789034 0.06135845 -0.011133694
0000b0 60 c1 1a 3e ec 91 37 3e 59 98 0f be eb 79 c7 be
       0.15112829 0.17926759 -0.1402296 -0.38960204
0000c0 88 d5 c9 be d2 4c 02 be 7f 32 85 3e 5a f3 81 3e
       -0.39420724 -0.12724617 0.26015088 0.25380975
0000d0 90 4a 35 3e 2b 04 a2 be b7 e5 c4 3e c2 f7 41 3e
       0.17704225 -0.31643805 0.3845651 0.18942168
0000e0 df 36 01 be e6 80 ab bd f8 54 82 3d 0c d8 29 3e
       -0.12618588 -0.08374195 0.06363863 0.16586322
0000f0 61 12 1e 3e 34 35 cd bd ab 7d b6 3d 77 bc 73 bb
       0.15436698 -0.10019913 0.08910688 -0.0037191191
000100 e6 ec 71 be b3 8f 0d bf 75 bd a3 bc b5 cc 33 3e
       -0.23625526 -0.5529739 -0.019987801 0.17558558
000110 e2 22 d9 3d c6 00 ef bd 9c 1f 84 3b ee 2c b4 3e
       0.106023565 -0.116700694 0.0040320884 0.3519053
000120 3f 9e 44 bf 8a 08 a9 be f8 4d ad bd 68 72 38 3f
       -0.76803964 -0.33014327 -0.08462137 0.7204957
000130 50 7a d9 3e 71 bd bd bd 01 3c 54 3f ea 73 89 be
       0.4247613 -0.09264649 0.8290406 -0.26846248
000140 9a b0 07 3e 38 57 c3 bd c8 8c 01 be 9c 1a 10 3e
       0.13250962 -0.0953812 -0.1265136 0.1407265
000150 0c 2e 92 3e 4f 96 25 3e 05 92 fe 3d d1 54 da 3e
       0.28550756 0.1617062 0.12430195 0.42642835
000160 a4 fb 4d 3e 22 99 99 3d 27 15 8c bf c6 6c 83 3e
       0.20115525 0.07499911 -1.0943955 0.25668925
000170 5d 9f 3c bd 99 76 db bd 1a 2f 7e bc ee 89 37 3f
       -0.04605042 -0.1071598 -0.01551416 0.7169484
000180 e5 e7 8e be fa d2 34 3e d8 92 a3 3b d2 97 26 bf
       -0.27911296 0.17658606 0.0049918704 -0.6507541
000190 88 ea 61 3d 9f bd 99 3f 41 90 1d be a8 52 02 3f
       0.055155307 1.2010993 -0.1538706 0.50907373
0001a0 59 09 8c be 40 9b 0c be 8b 1d d2 3d 0f 81 7b 3c
       -0.27350882 -0.13731098 0.10259541 0.015350594
0001b0 34 48 82 3d 83 7d 9c 3d 03 fb 7f 3f 4e a8 83 3e
       0.06361428 0.07641127 0.9999239 0.25714344
0001c0 3a 59 ab be 12 6e 90 3e d8 33 42 3e 2d d0 2d be
       -0.33466512 0.28208977 0.1896509 -0.16973944
0001d0 d1 df c3 be 07 b2 94 bd 9e b2 9a be e4 32 5c 3f
       -0.38256696 -0.072605185 -0.302144 0.8601515
0001e0 f0 e9 ad 3b ca 26 26 bf 82 cc b0 be f0 71 e7 be
       0.0053074285 -0.6490294 -0.34531027 -0.45204115
0001f0 f6 60 84 bc 0f 1f 37 3e 8d 35 8a bf ab 7f a8 bf
       -0.016159516 0.17882942 -1.0797592 -1.3163961
000200 47 66 95 be 25 b5 96 be 56 22 b0 3e 4c ac 86 3d
       -0.29179594 -0.29435077 0.34401196 0.06575832
000210 6e 9c 8c 3d f8 9b 08 bf 82 e4 6b bd 65 de 39 bd
       0.06865774 -0.5336299 -0.05759097 -0.045378108
000220 91 e1 9c 3e 06 05 03 be 7a 6c ad bd 6e 7f 2d bd
       0.30640844 -0.12794885 -0.08467956 -0.042357855
000230 d4 51 e0 3c 36 39 8b 3e 3e 0a be 3d 30 d1 5a bf
       0.027382769 0.27192086 0.09279297 -0.85475445
000240 ae fe ab 3e 66 3c b0 bd d5 c3 05 bf ed 03 83 3e
       0.33592743 -0.0860527 -0.5225194 0.25588933
000250 88 55 93 bd bc 6e 52 be a1 98 fd be 7c a0 84 3e
       -0.07194048 -0.20550054 -0.4953051 0.2590369
000260 73 22 16 3f e5 c6 9c be 0a c8 8d bd 7a 12 14 bf
       0.58646315 -0.30620494 -0.0692292 -0.57840693
000270 dc 51 df 3e df f5 2d 3d d5 3e f7 3e 75 5e 29 3e
       0.4361714 0.04247081 0.48290125 0.16539939
000280 57 6c e5 3e e7 8b 1e bb 5e 46 6b 3f 4c 82 12 be
       0.4480922 -0.0024192275 0.91904247 -0.14307517
000290 9a d6 f4 3e c7 4c 4c 3e 1d 4d ed be 47 fd c3 be
       0.47819978 0.19951163 -0.46347895 -0.38279173
0002a0 2d 42 22 bf 9b 52 af be da 79 05 bf 38 7c b8 bd
       -0.63382226 -0.3424271 -0.52139056 -0.09008068
0002b0 f3 f8 3e 3f ea 65 2f 3f ea fa a1 3e 0e c6 9a be
       0.74598616 0.68514884 0.31636745 -0.3022923
0002c0 68 51 8b be c1 28 11 3f 68 24 15 3e 28 c6 31 3f
       -0.27210546 0.5670281 0.14564669 0.6944299
0002d0 61 ab ac bd 0b 0b 38 bf b4 a9 09 bf 9d 17 82 bd
       -0.084311254 -0.7189185 -0.5377457 -0.0635216
0002e0 6e 5c f3 3e 7f c1 50 bd e5 ed ab be b6 36 69 3e
       0.47531456 -0.050965782 -0.33579937 0.22774777
0002f0 82 9f 36 3d 90 1a 43 3e 1c f6 91 ba 63 f8 a2 3d
       0.044585712 0.19053102 -0.0011135968 0.07957532
000300 01 4a cc be a3 cb 83 3e a3 8c a5 3e b6 2d d4 3d
       -0.3990021 0.257413 0.3233386 0.10360281
000310 a8 cb e3 bb 0f 3e 4e be 59 8d 89 3d 5c 1f 85 3c
       -0.006951768 -0.20140861 0.06716413 0.016250305
000320 a0 82 52 3e af 1c 2a be 02 fb c6 be 4a bc ec be
       0.20557642 -0.16612504 -0.3886338 -0.46237403
000330 d8 75 a6 be b9 d0 cb be 59 6c ee bd 96 ec 04 be
       -0.32511783 -0.3980768 -0.116417594 -0.12980875
000340 d0 f8 82 3e b8 69 63 be 86 c3 66 be 88 1e 08 bf
       0.25580454 -0.22208297 -0.22535524 -0.53171587
000350 f8 90 e3 bc 6b 61 1b 3f 94 0c 2b be 3d 54 74 be
       -0.027779087 0.60695523 -0.16704017 -0.2386026
000360 62 bf b5 bd 5b 5b e1 be 28 6e c9 3e d1 36 a1 bb
       -0.08874394 -0.4401501 0.39341855 -0.0049198647
000370 b2 c3 f8 be 6f 1e 0a 3e 92 e1 91 3d c6 ea 39 be
       -0.48586804 0.13488172 0.07123102 -0.18155965
000380 ed 9c 14 bd 1a 85 59 be b1 27 a0 3e 24 3a fb 3e
       -0.03628247 -0.2124218 0.31280282 0.49067795
000390 88 4e 63 3e b7 55 14 bd 92 e4 02 3f 18 57 1d be
       0.22197926 -0.036214557 0.5113002 -0.15365255
0003a0 52 a7 3a bd 0d 98 b9 be 19 29 6a 3f 6c e2 69 3e
       -0.045569725 -0.36248818 0.9146896 0.2284028
0003b0 af 1b d3 3e b4 8c 01 be c0 cd b8 bd cc e2 e0 bd
       0.41232058 -0.1265133 -0.09023619 -0.10980758
0003c0 d9 1c d2 3d 81 3b 99 bd a9 6f 9e be 63 84 da 3e
       0.102594085 -0.074820526 -0.30944565 0.42679128
0003d0 4b 08 23 3e d3 78 fc 3e b1 f5 68 3c 3e fa 90 be
       0.15921132 0.49310932 0.014218734 -0.2831592
0003e0 17 23 c7 3d 2d 21 0f 3e 8b 96 54 be bc 61 0e be
       0.0972349 0.139775 -0.20760553 -0.1390447
0003f0 2f a2 da 3e 51 bc b0 be 5b 26 39 bd 5a 9e d4 3c
       0.4270186 -0.34518674 -0.045202594 0.025954414

positional_encoder.feature_projection.bias f4 [64]
000000 48 07 48 3d 99 1b bc be 3d 6d 12 3e b1 57 2d 3f
       0.04883507 -0.36739805 0.14299484 0.6771193
000010 c0 36 ac be f2 df bf bd 1c 46 8d be 20 8b a5 3e
       -0.3363552 -0.09368886 -0.27592552 0.32332706
000020 86 06 ca be 35 f9 a4 3e 52 c6 88 3d 53 30 47 3e
       -0.39458102 0.3222138 0.066784516 0.19452028
000030 cc e5 74 be a0 0c f0 be 23 31 48 3e af b6 70 bd
       -0.23915786 -0.46884632 0.19549994 -0.05876797
000040 c1 8a 34 be d3 54 dc 3e 88 db 45 bf 1b 41 6e be
       -0.17631055 0.43033466 -0.77288103 -0.23267023
000050 16 7b 34 be fb 7f 14 3c 21 1e 56 bc c7 18 8f be
       -0.17625079 0.009063716 -0.013068707 -0.2794859
000060 12 7d 01 bf 0a 13 84 3d cb 6a e4 be 07 30 1d be
       -0.5058147 0.06448944 -0.44612727 -0.15350352
000070 b0 c8 33 bd d7 93 82 3d 49 de b8 3d 5d 9f c9 3e
       -0.043892562 0.063758545 0.090267725 0.39379397
000080 21 80 eb 3e 00 69 1a be 5d 89 41 be 91 e2 f6 3e
       0.45996192 -0.15079117 -0.18900056 0.4821973
000090 b7 f6 b4 bc da a6 8a be f3 a5 ad bd 97 fe 36 bd
       -0.022090299 -0.27080423 -0.08478918 -0.04467639
0000a0 45 0c 85 be e2 7c 0b bf dd ca 6e be df 46 d1 be
       -0.25985923 -0.5448743 -0.23319574 -0.40874383
0000b0 f5 b8 7a be e1 0b 15 bd 51 c6 60 be fa e7 5b bd
       -0.24484618 -0.03638828 -0.21950652 -0.053688027
0000c0 22 ed 40 bd 5f a3 27 3e a1 82 75 be 8d e9 83 be
       -0.047101147 0.16370915 -0.23975612 -0.25764123
0000d0 84 79 5b 3e 8d 2c a1 be 8d e3 41 bf fe bb 81 be
       0.21433073 -0.31479302 -0.7573784 -0.2533874
0000e0 06 de 06 3e 19 a4 fb 3d 60 ec 85 3b 9b 4f 80 be
       0.13170633 0.122871585 0.004087016 -0.25060734
0000f0 0a 50 c5 3d 7d 3c 3f be 3b 31 a3 3e 3f 3d b9 3e
       0.09634407 -0.18675418 0.31873497 0.3617954

transformer_encoder.layers.0.self_attn.in_proj_weight f4 [192, 64]
000000 d8 ad e0 bc d1 2e 1e 3c 81 cf b0 3d ce 89 8f 3d
       -0.027426645 0.009654717 0.08633328 0.07008706
000010 2c b6 b9 3e 9e 94 f3 bc f4 0e ff 3d 71 23 88 be
       0.362718 -0.029733952 0.12454024 -0.2658954
000020 b1 8e a3 3d 39 3d c0 3e 04 ee 69 3e 2c b2 12 3e
       0.079862006 0.3754671 0.22844702 0.1432578
000030 de 35 4b be 4b 58 82 be 1a e4 01 bc b3 f0 c8 bd
       -0.19844767 -0.25457987 -0.007927919 -0.09811535
000040 9e d1 2d 3e a7 de 9e be e5 4d 60 be 8a 1a 91 3d
       0.16974494 -0.31029245 -0.21904714 0.0708514
000050 51 76 7c 3e 51 49 2c 3e e7 73 07 3f 89 36 00 3f
       0.24654509 0.16824843 0.5291123 0.50083214
000060 72 73 2d bf 69 1a 9b 3c c9 37 a8 3c 18 4a 6f 3d
       -0.6775428 0.018933492 0.020534413 0.05842027
000070 e0 c6 7b 3e 14 29 e1 3e f4 6b cf 3e 15 f3 bb be
       0.24587584 0.43976653 0.4051205 -0.36708894
000080 88 27 58 3d df e0 4c 3d e7 df ca be 37 6a 08 3e
       0.052772075 0.05001914 -0.3962395 0.13321768
000090 9a 5e a9 3d 32 68 44 3e 01 db 24 3e 3e 2b 18 be
       0.08269997 0.19180372 0.16099168 -0.14860246
0000a0 bd dc 7c be a5 85 47 bd 75 42 24 be 9d c7 1a 3f
       -0.2469358 -0.048711438 -0.16040976 0.60460836
0000b0 e5 02 42 3e da 14 e3 bc 70 65 82 3c 32 d3 de 3d
       0.18946417 -0.027719904 0.01591751 0.10880126
0000c0 e8 bb 0c 3f b7 25 76 be cc e6 f7 3d ff 17 9d 3d
       0.5497422 -0.24037825 0.12104568 0.076705925
0000d0 99 8d 27 3e f7 e3 a9 3e ed 0b 2e 3f 63 2f 05 3e
       0.16362609 0.33181736 0.6798695 0.13006358
0000e0 56 49 67 3e 7c 73 83 be d6 3a b7 be 70 8d b5 3d
       0.22586569 -0.25674045 -0.35787076 0.08864868
0000f0 f7 1d 94 3d 92 6d 5d 3c fa ca 16 be 99 28 49 be
       0.07232278 0.013514893 -0.14725867 -0.19644393
000100 d9 eb 0d be 3d d6 4b 3e b6 1d 8b 3e 39 16 d5 be
       -0.138595 0.19905944 0.27171105 -0.41618517
000110 93 fe bf be d9 52 7f 3e 85 c8 c4 bd 8d 9c 3e 3f
       -0.37498912 0.24933948 -0.096085586 0.7445763
000120 3f 1b b2 3f 06 96 9a 3e b6 a1 4a be 45 bb 3a 3e
       1.3914565 0.30192584 -0.1978825 0.182355
000130 9b 89 10 3f 4c c6 09 be 13 e7 3f bf 09 e3 0d 3f
       0.5645997 -0.1345455 -0.74961966 0.55424553
000140 67 7e 9f 3f 60 17 ad 3e dd 7b a1 3d b7 88 b6 be
       1.246045 0.33806896 0.07884953 -0.3565118
000150 06 8a 89 3e 9b be 0e 3f 39 a8 82 3e 1b c1 11 3f
       0.26863116 0.5575959 0.2551897 0.5693528
000160 ef 4f 0a bf 70 e1 c3 3e a5 58 91 3f 12 1b ba be
       -0.5402822 0.38257933 1.1355177 -0.36348778
000170 2c 0b 3c be f0 00 ab be ed fc 42 bf dd b2 40 3e
       -0.18363637 -0.33399153 -0.76167184 0.18818231
000180 d1 45 dd 3d 74 dc 30 3e 55 17 df 3e 0c 54 00 3f
       0.10804332 0.17271596 0.43572488 0.50128245
000190 22 6d 97 3e e7 59 33 be 12 e2 19 be 8b 0c 5b 3e
       0.2957545 -0.17514764 -0.15027645 0.21391504
0001a0 6e c8 63 be 5e 94 d5 be 93 a9 4a 3f c8 07 07 3f
       -0.22244427 -0.41714758 0.79165 0.5274625
0001b0 2a 0d 0f bf 3b f2 95 bf a4 d5 4c be 79 db 02 bf
       -0.5587946 -1.1714548 -0.20003372 -0.5111614
0001c0 56 13 a7 3f a3 e2 0d bf e6 4e 76 3f 78 07 8b be
       1.3052776 -0.55423945 0.9621414 -0.27154136
0001d0 0e 17 de 3e 2c 3e 77 3f 95 67 13 3e 96 cd 44 bf
       0.43376964 0.9657924 0.14394982 -0.768762
0001e0 f2 0c 2e bf 17 6d 02 be c4 23 84 3d 44 bc 64 be
       -0.679885 -0.12736927 0.06452134 -0.22337443
0001f0 3d 88 31 3f cd 67 0b 3f e1 80 80 bd cf 1a 5a bf
       0.6934851 0.5445526 -0.06274582 -0.85197157
000200 e2 9c fa 3c d1 74 fb 3d da 50 f3 3e b0 66 0a bf
       0.030592386 0.1227814 0.47522622 -0.5406294
000210 a6 01 40 be 0d 76 e9 3e 73 b1 9d be 2f ab 27 3f
       -0.18750629 0.45597878 -0.30799446 0.6549558
000220 23 4a a6 3f bc 13 db 3e 32 ba 27 be 17 ef 16 3c
       1.2991375 0.42788494 -0.16379622 0.009212277
000230 f8 10 26 3f 91 f7 b5 bd 0c c9 64 bf 2b ca 9f 3e
       0.6486964 -0.0888511 -0.89369273 0.3120893
000240 11 92 89 3f 1e b3 71 3e c1 f3 1e be c8 3e ba be
       1.0747701 0.23603484 -0.15522672 -0.36376023
000250 95 e2 bf 3e a1 ef 6e 3e 2f 3d c2 3e eb f2 25 3f
       0.37477556 0.23333599 0.37937304 0.6482379
000260 6c 6a e2 be f4 db ff 3e a8 20 7f 3f 28 4a 1a bf
       -0.44221818 0.49972498 0.99659204 -0.60269403
000270 e0 ed df 3d 86 ac 31 be ec 0f 72 bf 61 19 e3 bd
       0.10934043 -0.17350969 -0.94555545 -0.11088825
000280 16 5f 40 be 2e 3c 84 3e 6e 4e 11 3f e0 12 de 3d
       -0.18786272 0.25827163 0.567603 0.10843444
000290 9f fa 99 3e ad 86 fc be 13 87 0a bf 01 8d 87 3e
       0.3007402 -0.493215 -0.54112357 0.26474765
0002a0 08 70 55 be ca aa 43 be 95 f4 32 3f 6e 35 34 3f
       -0.20843518 -0.1910812 0.6990445 0.7039403
0002b0 42 95 2d bf af 98 7a bf 58 56 7b be 2f 48 88 be
       -0.67805874 -0.97889227 -0.24544656 -0.26617572
0002c0 49 cb b0 3f a4 a1 00 bf e2 5d 73 3f 30 9e b1 3d
       1.3812038 -0.50246644 0.9506513 0.0867275
0002d0 a0 34 17 3e 19 f2 90 3f 55 2c 05 3e b1 d4 2f bf
       0.14766169 1.1323882 0.13005193 -0.68683916
0002e0 c1 f0 fa be a3 03 af bd 72 11 f6 3e ee 1a b6 be
       -0.49011806 -0.085456155 0.48060185 -0.3556742
0002f0 ef 66 d7 3e e3 4b d1 3e e6 14 b9 be e4 12 4d bf
       0.4207072 0.4087821 -0.36148757 -0.8010695
000300 e2 2a 31 be 86 c6 bf bd 89 10 4e be 89 dc 99 bd
       -0.17301515 -0.09364037 -0.20123495 -0.07512767
000310 ff e1 f6 be 71 c0 34 bc 17 d0 81 be d1 68 e8 3e
       -0.48219296 -0.01103221 -0.25354072 0.4539247
000320 c8 07 6f 3f e9 23 bf 3c 1e 19 f8 3d 8b 6d b5 be
       0.9337125 0.023332553 0.12114166 -0.35435137
000330 d4 ce c4 3e dc 13 7b be 59 a1 b8 be a5 51 d0 3e
       0.38439047 -0.24519295 -0.36060598 0.4068729
000340 ae 4d 54 3e 82 87 47 3e bf 29 64 3e 50 19 db 3d
       0.20732757 0.19485286 0.2228155 0.10698187
000350 21 cf bc 3e 61 b4 de 3d 96 1a 09 bf d7 9d 3e 3f
       0.36876777 0.10874248 -0.5355619 0.74459594
000360 ad 98 08 bf 0a 28 88 3e 7b c8 58 3f 21 e6 de be
       -0.53357965 0.26593047 0.8468091 -0.4353495
000370 13 48 49 be de 21 2b bf 96 b1 8c bd 6e c3 c3 3d
       -0.196564 -0.6684855 -0.06869809 0.0955876
000380 02 f0 4f 3d 21 52 2c be 15 1d c6 3d 4e 27 dc 3e
       0.050766 -0.16828205 0.09673516 0.42998737
000390 f2 00 78 3e 10 42 a3 3e ec 3c f0 bd a9 69 62 3e
       0.2421911 0.3188634 -0.1173037 0.22110619
0003a0 5b d1 84 bd 11 3a 1e bf 48 b3 29 3f 86 ed b4 3d
       -0.06485244 -0.6180735 0.66289186 0.088343665
0003b0 d2 a0 32 be f0 a2 8e bf cd 0a b5 be 94 d6 79 be
       -0.1744416 -1.1143475 -0.35359803 -0.24398261
0003c0 2f 44 0e 3f 1e 36 43 be 09 29 11 3f cb 3b 4b bd
       0.5557279 -0.19063613 0.5670324 -0.04961757
0003d0 f5 39 61 3f 87 ce 2b 3f d6 5e d1 3d 51 5f 82 be
       0.8797906 0.6711201 0.10223167 -0.25463346
0003e0 e1 a3 80 be 48 ef 6b 3d 13 ee 09 3d a0 9c a2 be
       -0.2512503 0.057601243 0.03367431 -0.3176012
0003f0 9b d0 0f 3f 42 7f 0b 3e 92 ca 25 3f 09 34 1a be
       0.5617768 0.13622764 0.6476222 -0.15058912

transformer_encoder.layers.0.self_attn.in_proj_bias f4 [192]
000000 ad 70 87 3c db 53 24 3e 2e 74 46 3d 77 35 29 3e
       0.01653322 0.16047613 0.04845064 0.16524301
000010 34 67 d9 3d e1 6c 2f be 30 0b 40 3e ac 6e 44 bb
       0.106153876 -0.17131378 0.18754268 -0.0029973192
000020 a7 e5 2e 3d 4f ac ca 3d a5 f3 e0 3d 28 3d 03 3e
       0.042699482 0.098961465 0.109839715 0.12816298
000030 0b 4f 86 3e 49 67 01 3e 17 7e 62 3e 6e 74 bd bd
       0.2623218 0.12637056 0.22118412 -0.09250723
000040 9c 4e 30 3f c9 b0 a3 3d 76 65 22 bf 49 75 cd be
       0.6886995 0.079927035 -0.6343607 -0.40128544
000050 31 0d 8b be 9f e1 57 be 06 8e 89 3e 14 25 99 3e
       -0.27158502 -0.21082161 0.26866168 0.299111
000060 2c 91 60 3e 65 fc 29 bf 8c d5 09 3f 90 8d 36 3f
       0.21930379 -0.6640075 0.5384147 0.7130976
000070 02 89 40 bf b2 97 c9 3d bb 62 ee be 50 36 7f 3e
       -0.7520906 0.09843387 -0.465597 0.24923062
000080 31 f8 a1 be 68 b0 d5 3e 89 c4 88 3d 38 89 39 bf
       -0.31634668 0.4173615 0.06678111 -0.72475004
000090 79 b2 de 3d 84 61 40 3e 4c d0 9b be 71 38 d6 3d
       0.10873885 0.187872 -0.30432355 0.10459984
0000a0 d3 da 19 3f 5e 94 d4 3e 9f 9a 8f be 88 e8 9a be
       0.60099524 0.41519445 -0.28047654 -0.30255532
0000b0 2e 4b ca be ca 64 78 be ae 80 ce 3e 33 54 c8 bd
       -0.39510483 -0.24257198 0.4033255 -0.09781685
0000c0 20 d7 36 3f 80 e7 a2 be c6 1d 2d bf e5 fe 9d be
       0.71422005 -0.31817245 -0.67623556 -0.30858532
0000d0 cc 20 0d 3f 33 8a 97 be ff f9 20 3f ff 3c 3d 3f
       0.5512817 -0.29597625 0.62881464 0.739212
0000e0 ec 5a 0c 3e 8e e1 3c 3f cb 75 6b ba a5 97 c1 be
       0.13706559 0.7378167 -0.0008982091 -0.37811008
0000f0 0d 7a bc bd aa fd b7 be a4 61 d5 3c 0e 83 b5 3d
       -0.09202967 -0.35935718 0.026047535 0.08862887
000100 97 1f 24 3d ee 7a 3c c0 7c c1 53 c0 d4 38 90 bf
       0.04006919 -2.945003 -3.3086843 -1.1267343
000110 64 c3 d7 bf 31 df ad be 48 9a 93 bf 44 b9 05 c0
       -1.6856503 -0.33959344 -1.1531458 -2.0894327
000120 bf 63 04 c0 f1 51 c5 bf 88 4b af 3f 76 f3 97 bf
       -2.068588 -1.5415632 1.3694925 -1.1871173
000130 68 3d 01 c0 23 30 89 bf c8 4d 8e bf 75 52 17 40
       -2.019373 -1.0717815 -1.1117487 2.3644078
000140 b9 59 48 bf 19 7d ee be 8d ec b5 3f fa 09 ba 3f
       -0.78261906 -0.46579817 1.4212815 1.4534295
000150 4e 0d 8d 3f 8a 84 eb be 76 7f 6a bf f2 bc 93 be
       1.1019685 -0.45999557 -0.9160074 -0.2885509
000160 c8 2e d1 bf 7b 33 c6 3f 36 0d da bf f8 36 c3 bf
       -1.6342402 1.548446 -1.7035282 -1.525115
000170 94 a9 07 bf 96 0d b8 3f 62 a5 0e 40 e9 41 03 c0
       -0.5299313 1.4379146 2.2288442 -2.0508978
000180 96 0d 75 3e 8a 71 f0 bf 39 fe 9d 3d f7 d4 af bf
       0.23930964 -1.8784649 0.07714505 -1.3736867
000190 9d f3 11 40 20 08 dd 3f c8 f2 b8 bf 6e c1 12 c0
       2.280494 1.7268105 -1.4449091 -2.293056
0001a0 30 85 6e bf d1 ba e0 bf 4c 27 09 c0 7a 7d 20 40
       -0.9317198 -1.7557012 -2.1430235 2.5076585
0001b0 f2 4b ef 3f 59 97 65 3f 28 89 bf bf 58 7f 14 3f
       1.8695052 0.89684063 -1.4963732 0.5800681
0001c0 57 4b 02 bf 39 98 52 3f dc d7 4b 3f 26 ef 7e bb
       -0.5089621 0.82263523 0.7962625 -0.0038899868
0001d0 76 68 da bf 1c 3a bc 3f 5b e1 37 bf 1b 11 b0 bf
       -1.7063129 1.4705234 -0.7182824 -1.375522
0001e0 b0 3b 48 40 67 f0 e0 3f 87 c4 05 40 41 13 02 c0
       3.128643 1.7573365 2.09012 -2.0324252
0001f0 ed 7c 40 c0 d9 ac 18 c0 88 d2 36 c0 60 0d 25 c0
       -3.0076249 -2.3855498 -2.8565998 -2.5789413
000200 67 08 c3 3d af c2 ae 3d ca 93 a5 3d 7b e7 83 3d
       0.09523087 0.08533227 0.08084829 0.06440636
000210 3a 05 41 3d 8c 9c 05 be fc 5b da 3d e1 2c c3 bd
       0.047124125 -0.13047999 0.10662076 -0.09530044
000220 0c a0 11 bd bf 48 f4 bb 70 a2 d3 bc 56 6d 1d be
       -0.035553023 -0.007454961 -0.025834292 -0.1537374
000230 86 e2 d4 bd 83 f5 b2 3d 94 9a 88 be a1 7e 14 be
       -0.103947684 0.08738234 -0.26680434 -0.1450143
000240 82 35 ab 3d 61 32 c6 3d a7 b8 85 3d 91 af f3 3c
       0.08359815 0.09677578 0.0652936 0.029746803
000250 6d 6c 07 be d4 81 13 3e 0d 4e 30 3d 2a 9f df 3c
       -0.13224955 0.14404994 0.043043185 0.027297575
000260 b5 e4 ca 3d 04 a1 98 3d 46 99 6c bc 92 06 17 3e
       0.09906904 0.07452586 -0.01444084 0.147486
000270 17 db 81 be 1f ce 43 3e 4b 48 38 3e 96 f7 dc 3d
       -0.25362465 0.19121598 0.17996328 0.10789411
000280 26 12 04 3e ea d1 6f bd 43 1a c5 bb 44 51 10 3e
       0.12897548 -0.0585498 -0.0060150935 0.140935
000290 65 ed 02 be 13 cf b2 3d b1 05 34 be 1c 62 5c 3e
       -0.12785871 0.087309025 -0.17580296 0.21521801
0002a0 10 d9 f9 3d b3 83 98 3a 10 53 2b 3e 76 15 08 3e
       0.121996045 0.0011635929 0.16730905 0.13289437
0002b0 46 52 98 bd bc fd 2b be 78 e8 0b 3f 0d f8 87 3b
       -0.074375674 -0.1679601 0.54651594 0.004149443
0002c0 12 69 02 be 2e 21 ca bd d1 06 a5 bc 6f 11 2b 3c
       -0.12735394 -0.0986961 -0.020144852 0.010441168
0002d0 ba 9e a1 3d c8 05 7c bd 3a 81 43 be 0b f5 21 3c
       0.07891603 -0.06152895 -0.19092265 0.009885083
0002e0 a4 4e 2d bc 3a 27 e8 3d 25 e0 32 be 2e 64 e2 3d
       -0.010577831 0.11335607 -0.17468317 0.11054264
0002f0 d8 b8 52 3d f3 65 f0 3c f8 6b 48 ba c1 a9 1a 3d
       0.051445812 0.029345488 -0.0007645483 0.037759546

transformer_encoder.layers.0.self_attn.out_proj.weight f4 [64, 64]
000000 9b b1 a3 be 6b 7d fa bb 4f 6e 3e 3e 4a df 59 3e
       -0.3197144 -0.0076443455 0.18596767 0.21276584
000010 fe 3e 78 3b a9 de 52 3c 38 01 86 be 8a 7b c7 bd
       0.0037879343 0.012870469 -0.26172805 -0.0974036
000020 8d 70 02 3e 5e 0c 02 bc 63 3a 9d 3d af e4 e9 bd
       0.12738247 -0.007937519 0.07677152 -0.11420571
000030 7e 27 3c 3e ea ba fb bb 31 23 4c 3d 22 60 8d bd
       0.1837444 -0.007682194 0.04983825 -0.069031015
000040 21 fc 2b be 4a ea e8 bc 08 fd 3e be b2 cf 33 bd
       -0.16795398 -0.02843203 -0.18651211 -0.043899246
000050 1d a9 f6 3c a4 aa 98 3e b8 e1 2d bd 4e 7f 73 3e
       0.030109936 0.29817688 -0.04245159 0.23779032
000060 68 ea 81 be 65 eb 19 3c 1e 34 f7 bc e8 c1 14 bc
       -0.2537415 0.009394501 -0.030176219 -0.009079434
000070 3d b8 d9 be e5 fe 20 3e 4b 71 cf 3d b7 8d 0d 3d
       -0.42523375 0.15722235 0.10129031 0.034558978
000080 f5 36 c5 3d 82 7e 89 3e 49 37 0a be 9b ab a9 bd
       0.09629623 0.2685433 -0.13497652 -0.08284684
000090 2a 49 27 bd 25 62 8b 3d 62 d4 2c 3e 65 08 f3 bd
       -0.04084126 0.06805829 0.16877893 -0.118668355
0000a0 45 7a 34 be 45 c7 a4 bd 99 25 9a 39 bd 40 81 bd
       -0.17624767 -0.0804582 0.0002940118 -0.06311176
0000b0 5f 3d 48 3d 80 bd 17 3e f8 8f a6 be c1 54 49 bd
       0.048886653 0.14818382 -0.32531714 -0.049153093
0000c0 6c dc 9c be eb d1 23 3c d7 4c 3a 3d 13 df d5 bd
       -0.3063692 0.009998779 0.045483436 -0.10442939
0000d0 d0 46 d8 3c 19 66 09 be 75 82 ce be 01 55 74 be
       0.026400954 -0.13417853 -0.40333906 -0.23860551
0000e0 a3 5b 0b 3e fc 3c 22 3e 5c b7 d0 3c fb 71 8b be
       0.13609175 0.15843576 0.025478058 -0.27235398
0000f0 c4 96 80 bd 71 ae 63 3e 6d 80 ea 3d a1 bd d5 bd
       -0.06278756 0.22234513 0.114502765 -0.104365595
000100 d8 04 0e bd c1 d5 56 bd b1 60 ba bd cd 2d 02 3e
       -0.034672588 -0.052449945 -0.09100474 0.12712784
000110 1f 0e c6 bd 66 a7 86 bd fd 8d c6 3d 0d 6a e4 3c
       -0.09670662 -0.065748975 0.09695051 0.0278826
000120 13 6f e5 bc a1 f9 ab bd e0 42 52 3c 60 6f 2f 3c
       -0.028007066 -0.08397222 0.012833327 0.010707706
000130 05 79 49 3c 28 ff 1e bd b7 99 36 3b ad 1c 06 3d
       0.01229692 -0.038817555 0.0027862617 0.03274219
000140 dc 7b 41 3d 96 4e ca 3d 94 24 46 bd 10 92 7f 3d
       0.047237262 0.0987827 -0.048374727 0.062395155
000150 02 68 15 3d 4c 42 76 3d 45 b1 3a bd 74 57 f0 bd
       0.036476143 0.06012182 -0.045579214 -0.1173543
000160 73 be 95 3d 42 bb c5 3b 97 8b db 3c d6 01 19 bd
       0.07311716 0.0060342858 0.02679996 -0.037355267
000170 b5 c3 f7 bb 50 b6 01 3d 8e 0f b6 bd 0e f7 71 bc
       -0.007561172 0.031668007 -0.088896856 -0.014768375
000180 0e 67 e2 bc d9 cd aa 3d 13 16 ca 3d 06 b1 89 bc
       -0.02763703 0.083400436 0.098674916 -0.016808044
000190 48 ea b4 bd 6d 78 bd 3d 14 02 a9 bb ca b7 48 3d
       -0.08833748 0.09251485 -0.0051577184 0.0490034
0001a0 61 9d d7 bb c3 07 50 3d af 9a 3c bc 5d f5 44 bd
       -0.0065800403 0.050788652 -0.011511489 -0.04808556
0001b0 ef 04 b7 bd 00 ba 7c bd a5 34 e4 bc 0a ea 25 bd
       -0.08936488 -0.06170082 -0.027857134 -0.0405064
0001c0 90 cf e3 3b 15 91 71 bd 81 cd 33 bb fb 1f 89 3a
       0.0069522336 -0.05897625 -0.0027435722 0.0010461801
0001d0 b8 ae 16 3e 26 9f 43 bd d8 47 32 be df 9c 99 bd
       0.14715087 -0.047759198 -0.17410219 -0.07500624
0001e0 c8 e2 d8 bd 09 48 e2 3d 76 5e 8b 3d 87 d8 da 3c
       -0.1059013 0.11048896 0.06805126 0.026714576
0001f0 ad 14 3e 3d 09 03 5e 3d d4 2f cf bc cb b2 10 bd
       0.046406437 0.054202113 -0.02529136 -0.03532676
000200 fb 9f 04 3c 72 0b 95 be a2 ba 4b bd 28 8c 83 3e
       0.008094783 -0.29110295 -0.049738534 0.25692868
000210 d2 62 ae bd 3d 56 22 3e 94 0f 0b 3d a8 cb 23 be
       -0.08514942 0.1585321 0.033950403 -0.15995657
000220 f4 f9 48 be 3c 5e 73 be 34 5e ee 3d 4f d3 55 be
       -0.196266 -0.23766416 0.116390616 -0.20881389
000230 f7 2f 24 3e 16 f9 29 39 5d 23 0f be 28 ed 47 be
       0.16033922 0.00016209888 -0.13978334 -0.19524062
000240 48 5f 49 be 75 fd c3 3d 29 94 38 bd 6f 5a a9 bd
       -0.19665253 0.095698275 -0.04506317 -0.08269202
000250 d9 23 7d 3d f5 68 b5 3d 75 bd db bd d3 64 34 bd
       0.061801765 0.088579096 -0.107294954 -0.044041466
000260 b7 dd 85 bd 6d db 86 bc 17 b3 f0 3d 28 02 4b 3e
       -0.065364294 -0.016462052 0.11752909 0.19825041
000270 bd 0c b1 bd ae bd 82 3c 87 99 a7 3d 35 eb a3 3c
       -0.08645008 0.015959587 0.0818358 0.020009616
000280 45 19 f6 bd 8d b3 1f be 6e dc 03 3e 01 00 65 be
       -0.120165385 -0.15595837 0.12877056 -0.22363283
000290 a9 51 8f 3d 1d 1f 0a 3d 8a 14 90 bd 76 ea 4b 3c
       0.06997997 0.03372108 -0.070351675 0.012446037
0002a0 f0 5e 0f 3e be 63 33 bc ad e3 0f 3e b9 55 62 bc
       0.1400106 -0.010949073 0.14051695 -0.013814383
0002b0 38 5d 32 3d 60 a5 6b 3e 97 56 d3 bb 08 66 95 3d
       0.04354593 0.23012304 -0.0064495313 0.072948515
0002c0 fc 21 64 3d 56 aa e8 3d b9 b4 36 bd 31 af 78 bd
       0.055696473 0.11360614 -0.044605944 -0.06071395
0002d0 ce 07 a3 bc e7 78 23 3d ab 6c 7b 3d cc b5 cd bd
       -0.019901183 0.039910223 0.06138293 -0.100444406
0002e0 50 d4 23 bd 35 7e 88 3c be 41 b6 bd 56 c0 0a 3e
       -0.0399974 0.016661743 -0.08899258 0.13549933
0002f0 09 08 1b 3d fe 1b 4c bd 4b d8 51 bc 54 06 b6 bd
       0.03784946 -0.049831383 -0.012807916 -0.08887926
000300 03 78 9f 3d e9 8d 1e 3d c1 ff bd 3d 03 aa 61 be
       0.07786562 0.038709555 0.09277297 -0.2203751
000310 4a db fd bd 9d fa 8b 3e 56 66 b2 bb c9 d1 4b bd
       -0.12395342 0.2733964 -0.0054443283 -0.049760614
000320 42 d6 d4 3c 1d 4d 14 3d d7 6c bb bd d1 9b 3a 3e
       0.025981072 0.036206353 -0.09151619 0.18223502
000330 47 46 a2 3d 6f 5e a7 3c 63 04 52 3e 56 45 d1 bd
       0.079235606 0.020430772 0.20509486 -0.10218303
000340 dd f2 12 be 4b d0 8c 3d 22 c2 4a be ca 99 d8 bd
       -0.14350457 0.06875666 -0.19800618 -0.10576208
000350 34 af d5 bc 58 b8 e5 3d f3 ac 33 be 65 14 05 be
       -0.02608452 0.112168014 -0.17546444 -0.12996061
000360 7b a1 d0 3d c4 00 aa 3c 44 36 fc bd c0 90 05 be
       0.1018705 0.020752318 -0.12315038 -0.13043499
000370 69 39 ca bd fa 26 d9 bd 78 d0 0b 3e f2 ed 37 bd
       -0.09874231 -0.10603137 0.13653743 -0.044904657
000380 24 47 2d 3e 27 bc 9a ba 8b 82 a6 bd cf cb 0a 3d
       0.16921669 -0.0011805341 -0.08130368 0.033885773
000390 08 32 b2 bd 49 fa ac 3d e5 7d d6 3c d2 a8 1b bc
       -0.08700949 0.084461756 0.026183078 -0.009500699
0003a0 d0 8c 7e bd b8 a9 99 bd 26 a7 0f be eb 68 41 3e
       -0.062146008 -0.075030744 -0.14028606 0.1888768
0003b0 c3 8c 57 3d 01 46 76 bd 90 c3 b2 bd e9 c1 cb 3d
       0.052624475 -0.060125355 -0.08728707 0.09949095
0003c0 ff 74 2e bd 6a 7b 0d bd 2c 81 98 3c 33 aa ef bc
       -0.042592045 -0.034541525 0.018616281 -0.029255962
0003d0 65 75 f0 3d 01 3b be bd 4a 7c 25 bc bb ed 57 bd
       0.11741141 -0.09288598 -0.010100434 -0.05271695
0003e0 a9 ac 1a 3d 69 8a 8a 3a d6 a4 67 bd 04 1c 1e be
       0.037762318 0.0010569814 -0.056553684 -0.15440375
0003f0 eb 74 6d 3d be f5 e2 3b 32 c6 82 3e a4 70 ca bd
       0.05797283 0.0069262674 0.25541836 -0.09884766

transformer_encoder.layers.0.self_attn.out_proj.bias f4 [64]
000000 c8 f7 fd 3e ba d0 5f 3e 78 1f 8e bf e7 e5 99 3f
       0.49603105 0.21856967 -1.1103354 1.2023286
000010 08 2c e9 3e 83 d5 b8 bd 08 5b 17 3d 71 1c bf 3e
       0.45541406 -0.09025099 0.03695205 0.37326387
000020 9c b1 79 bf c1 4e 29 3e 08 94 b5 3e 7a 60 71 3e
       -0.97536635 0.16533948 0.354645 0.23571959
000030 85 a2 1c bf ea 5f c9 be bb 05 21 3f 5a bf a7 be
       -0.61185485 -0.3933099 0.6289937 -0.32763177
000040 39 e8 eb bf 01 b3 60 3f c7 46 c2 be 39 50 ae bf
       -1.8430244 0.8777314 -0.37944624 -1.3618232
000050 f8 06 e8 3e db ad 36 bf d3 20 b8 be a7 1f 74 bf
       0.45317817 -0.7135903 -0.35962543 -0.953608
000060 3b 88 73 3e d6 87 98 be bc b6 9f 3f ec 74 96 3d
       0.23782437 -0.29791135 1.2477641 0.0734652
000070 15 cd 89 3e ce fd 13 bf 45 ee 8e bd ed ad 7a be
       0.26914278 -0.5780915 -0.0697904 -0.2448041
000080 4a f5 65 3c 23 6c dd be 5f da 5d be d9 4e f9 3e
       0.014035532 -0.43246564 -0.21665333 0.48692968
000090 89 22 3e be ef ac 20 3f 9b 63 8d 3e 21 fd 1d 3f
       -0.18567862 0.62763876 0.27615055 0.6171437
0000a0 40 ff 0c bf a2 e1 fe 3c a6 09 b5 be ea 94 85 3f
       -0.5507698 0.03111345 -0.35358924 1.043607
0000b0 2b 2d 2f 3f 6c bf 97 3f 0a 5c bd 3d e5 07 20 3f
       0.68428296 1.1855292 0.09246071 0.62512046
0000c0 8f eb 88 be 72 30 b4 3e 2e b0 ba 3e c0 d7 83 3f
       -0.26742217 0.3519321 0.3646254 1.0300217
0000d0 fc a7 24 bf 0e 43 26 be 15 92 a2 bf 15 23 77 3f
       -0.64318824 -0.16236517 -1.2700831 0.96537906
0000e0 90 9c 05 bf 25 82 4c 3e fd 34 99 be fb 49 79 3f
       -0.5219202 0.19971521 -0.2992324 0.9737851
0000f0 0b ed 52 3e a9 0b da 3d 2b 2e 1e 3f 9e 15 1b 40
       0.20598237 0.10646755 0.61789197 2.4231944

transformer_encoder.layers.0.linear1.weight f4 [256, 64]
000000 9c 27 ab bd 82 58 c2 3f da 16 77 3e b0 88 77 3e
       -0.08357164 1.518326 0.24129811 0.24173236
000010 cd 15 9e bf ca 0f 62 bf 7b af d8 3e a4 75 61 3e
       -1.2350403 -0.8830534 0.4232138 0.22017533
000020 bb c1 3d 3d 61 f8 69 be f4 23 22 3f ab 43 52 be
       0.046327334 -0.22848655 0.6333611 -0.20533626
000030 71 46 d3 bd b4 3a 2d be a8 81 14 be 90 3d bd bf
       -0.1031617 -0.16916925 -0.14502585 -1.4784412
000040 e1 f6 47 3e b1 4c fb 3c 8d ba 1f bf 76 45 a3 3e
       0.1952777 0.030676218 -0.6239403 0.31888932
000050 f3 07 b6 bc 17 32 9f 3e a6 4e 2c 3e 54 03 9c be
       -0.022220587 0.31092903 0.16826877 -0.3047129
000060 4f dd 84 3e e3 f2 7f be cf 6c 74 be 0c e9 9a 3e
       0.25950095 -0.24994998 -0.23869632 0.30255926
000070 06 7d 31 be 4b 3c 6d 3e 92 6b 28 3f 3c e9 2d 3e
       -0.17332849 0.23167531 0.6578914 0.16983503
000080 9c 60 fa be 7f 92 17 3e 02 b6 cc bf 57 fb ef bb
       -0.48901832 0.14801978 -1.5993044 -0.007323663
000090 ae 7f 25 3e 94 38 93 3d 04 e3 b2 3f 0c 12 6b bf
       0.16161987 0.07188526 1.397553 -0.9182441
0000a0 9c 64 bc 3e 28 fb 99 3e f6 f5 0c bf 54 97 95 be
       0.3679551 0.3007443 -0.55062807 -0.29217017
0000b0 15 bc 06 3f 19 64 e4 bd 3c 69 f1 3f e9 22 c9 be
       0.5263074 -0.111519046 1.886024 -0.39284447
0000c0 16 f4 09 3e a5 40 06 3f 0e 65 b9 be 03 a7 8f be
       0.13472018 0.5244239 -0.3620991 -0.28057107
0000d0 a5 e6 de 3e ea af ea 3d d3 f8 44 3f a7 81 85 be
       0.43535343 0.11459334 0.76942176 -0.2607548
0000e0 ce 27 2e 3d 47 02 a2 3d 4a b4 d0 bf ef cb 20 bc
       0.04251843 0.079105906 -1.630502 -0.009814247
0000f0 7a 81 f9 bd e1 c0 c0 bd 7c b1 8c bc 6a d3 f7 bd
       -0.12182899 -0.09411789 -0.017174475 -0.12100871
000100 e9 c0 23 be bb d9 59 3f 11 b7 ce 3d 96 66 ca 3e
       -0.15991558 0.85097855 0.10093511 0.39531392
000110 d5 47 8c bf 8f 03 4c bf 78 d1 d7 3e 60 81 3e 3e
       -1.0959421 -0.7969293 0.42152 0.1860404
000120 8e fa 7a 3e 79 44 c2 be d7 a6 3f 3f 70 64 14 bf
       0.24509642 -0.37942865 0.7486395 -0.57965755
000130 9e 4d 01 be e3 37 56 be 0c d4 c1 be 6d 63 9d bf
       -0.12627265 -0.20919757 -0.3785709 -1.2295967
000140 fc 52 84 3d b9 4b ac bd c0 fc 56 bf 9d ee 25 3f
       0.064611405 -0.084128805 -0.83979416 0.6481722
000150 2d a6 b6 3b cf 18 8e 3e 59 b4 b2 3e 6d 08 73 bc
       0.005574009 0.27753302 0.3490322 -0.014833552
000160 40 75 13 3f 93 28 f4 bc e5 93 23 bf 24 e0 fa 3d
       0.57600784 -0.029804504 -0.63897544 0.12249783
000170 36 a4 63 be a2 34 5b be 7e cc 8a 3f b5 14 c0 3d
       -0.2223061 -0.21406797 1.0843656 0.093789496
000180 45 1a dc be 1d 3a a4 be 61 a1 8c bf 4d 5c 57 be
       -0.42988792 -0.32075587 -1.0986749 -0.21031304
000190 ad 6c 0a 3e 2f 6d 9b 3e 8d 51 9f 3f ac a4 7f bf
       0.13518019 0.30356738 1.2446762 -0.99860644
0001a0 c8 e3 8c 3e a3 ab 80 be a7 39 37 bf 55 e0 9f be
       0.27517533 -0.25130948 -0.71572345 -0.3122584
0001b0 15 b2 26 3f aa a3 69 bc c8 02 e3 3f 91 19 cb bc
       0.6511548 -0.014260212 1.7735224 -0.024792464
0001c0 db b2 84 3e 13 6c 01 3f 27 93 66 bf 19 18 0d bf
       0.25917706 0.50555533 -0.90068287 -0.55114895
0001d0 f9 a1 9b 3e af cf 83 bd ed d0 44 3f 69 af 85 3d
       0.30397013 -0.06436097 0.76881295 0.065275975
0001e0 eb d0 17 bd 83 79 d9 3d e2 e1 a9 bf 15 0b 90 3e
       -0.037064474 0.1061888 -1.3272059 0.28133455
0001f0 54 a8 5a 3e d1 a6 17 bf 3d aa 6b 3e 87 e4 2f 3e
       0.21353275 -0.59238917 0.2301416 0.1717702
000200 cd ba a6 be 0c 20 1f 3e f4 18 14 bf de 83 5d bd
       -0.32564393 0.15539569 -0.57850575 -0.054080836
000210 db 52 91 bf b0 ce 86 3e bc 0d 15 3e a5 0b a1 3d
       -1.135341 0.26329565 0.1455602 0.07863549
000220 20 7b 0f bf 3e f0 0c bf 1c 84 06 3f 0f a5 8a be
       -0.5604725 -0.5505408 0.5254533 -0.27079055
000230 30 05 b7 be 7e ae 3a be f9 e6 81 3e f9 01 b6 be
       -0.35746145 -0.18230626 0.2537153 -0.3554838
000240 2f a3 21 be 78 d3 bb 3e 34 37 56 bd b8 14 1b be
       -0.15784906 0.36684775 -0.05229874 -0.15144622
000250 83 c5 87 bf 9a 94 0f 3e 62 d0 dc 3c b3 52 56 3d
       -1.0607151 0.14021531 0.026954833 0.052324962
000260 33 cb 9e 3f eb af 3a be 9a f6 35 be db 93 0d 3e
       1.2405761 -0.1823117 -0.17769852 0.13825934
000270 a6 42 6f be 9d f8 b3 3d 00 4d dd 3d b6 ef 87 3e
       -0.23365268 0.087876536 0.10805702 0.26550072
000280 19 ba 54 3e 4a 0e 88 3e 70 3f 5c bf 10 4d a4 bd
       0.20774116 0.26573402 -0.860343 -0.08022511
000290 91 75 73 bd 50 6e 78 be d4 33 a9 3f 36 75 ae 3e
       -0.059438292 -0.24260831 1.3218942 0.340738
0002a0 c5 e3 01 3f b8 d6 fa 3c 7a 64 eb be cc 9f 67 bd
       0.50738174 0.030619964 -0.45975095 -0.05654888
0002b0 9c 09 fa 3e eb e6 d1 3e dc f8 3d 3f 3d 67 8f 3e
       0.48835456 0.4099649 0.74207854 0.28008452
0002c0 b1 48 4b 3d b6 73 f4 3c 2b d2 65 bf f8 bf 1d bf
       0.04962987 0.029840332 -0.89773816 -0.61621046
0002d0 fc bc ab be 9f 74 15 3e c2 e3 c3 bd 86 c6 16 3d
       -0.3354262 0.14595269 -0.09564926 0.03681042
0002e0 90 7e ba 3e bb 98 f6 3b 80 89 6a bf 64 f0 67 3e
       0.36424685 0.007525531 -0.9161606 0.22650295
0002f0 1c f9 ca 3c 82 9f 23 bf aa 73 bc be be 57 94 3e
       0.024776988 -0.63915265 -0.36806995 0.28973192
000300 bf 06 ee be 2e 7e 55 3f 5a 6b dd 3e c4 02 57 be
       -0.46489522 0.8339566 0.43245965 -0.20997149
000310 f7 21 35 bf 7f fe 82 bf b4 87 de 3e 0f 73 b0 3e
       -0.7075495 -1.0233916 0.43462908 0.34462783
000320 ca df eb 3e 13 75 45 bf 7c c2 a4 3d be 33 9c bd
       0.46069175 -0.77131766 0.080449075 -0.076270565
000330 10 7d 6c 3e 49 61 6a be df 5d 85 be 01 22 03 bf
       0.23094583 -0.22888674 -0.2604818 -0.5122376
000340 73 96 f6 3e 12 cd 4e 3e a2 dc cf be 5d 30 52 3f
       0.4816166 0.20195416 -0.40598017 0.82105047
000350 bd 99 f2 3e 7d 8e 2d 3f 16 af f2 3d 3b 1a 07 3e
       0.47382918 0.67795545 0.11849801 0.131936
000360 bf cd 16 3f 20 b5 0c 3e d4 db 9d be 26 0b 29 3f
       0.58907694 0.13740969 -0.30831778 0.66032636
000370 a2 0b f5 be b0 e7 9c 3e 15 0e f5 3e d4 03 2b be
       -0.47860438 0.30645514 0.47862306 -0.16700679
000380 44 60 f5 be b6 96 85 be bf 8f 25 bf 7a e4 9f 3e
       -0.47925007 -0.26091546 -0.64672464 0.31229
000390 00 38 30 be d5 51 08 bc bb 61 38 3f e4 c7 43 bf
       -0.17208862 -0.0083202915 0.72024125 -0.76476884
0003a0 cf f0 20 3e 62 97 ef 3e f7 a6 07 be f6 86 32 bf
       0.15716861 0.46795183 -0.13247286 -0.69737184
0003b0 1b a4 ae 3e 01 f9 50 bf 5d 1e 96 3f c3 8b 0c bf
       0.34109578 -0.8162995 1.1728016 -0.5490076
0003c0 f1 83 04 3f fb 90 f6 3d 09 44 f2 bc 0f a5 1a bf
       0.51763827 0.120393716 -0.029573457 -0.6040811
0003d0 7a 4c 7e 3f c8 3b 1a be b5 79 1e 3f a7 a9 e2 be
       0.99335444 -0.15061867 0.6190446 -0.4427006
0003e0 2d 7a c1 3e 8e da 0e bf 2f c3 3a bf 13 50 ac be
       0.37788525 -0.5580224 -0.72954077 -0.33654842
0003f0 ce 38 a0 3d b6 ae d0 be 02 13 c3 bd b3 b5 92 be
       0.07823335 -0.40758294 -0.0952511 -0.2865425
