Pretrained/model/Transformer/BiTran_100.pt (torch, 455522 bytes, 34 tensors)

embed_layer.0.weight f4 [64, 64]
0	0xbdce7c12	-0.10082258
1	0x3d66958b	0.05629496
2	0xbe049339	-0.12946786
3	0x3e2e3174	0.17011052
4	0xbea2ed51	-0.31821683
5	0x3e095fb8	0.1341542
6	0x3e3e9f18	0.18615377
7	0x3e25faa4	0.16208893
8	0x3dee400b	0.11633309
9	0x3e2ae482	0.16688731
10	0x3cf2136f	0.029550282
11	0x3d9ca440	0.07648516
12	0xbd2b79b2	-0.041864105
13	0xbcde00fa	-0.027100075
14	0x3e26b674	0.16280538
15	0x3add7e64	0.0016898629
16	0x3d6ed747	0.058310773
17	0x3e104a64	0.14090878
18	0x3e83b619	0.25724867
19	0x3db102e5	0.0864313
20	0x3e0c73e8	0.1371609
21	0xbc9186d8	-0.017764494
22	0x3ea752c2	0.32680327
23	0xbd0c1ff4	-0.03421016
24	0x3d3b7f2b	0.045775574
25	0x3e04f202	0.12982944
26	0x3e33641c	0.17518657
27	0x3b404312	0.0029336852
28	0x3b9eba97	0.0048440206
29	0x3cda2027	0.02662666
30	0xbd2b8742	-0.04187704
31	0x3c5794b7	0.013158015
32	0x3bee4c8f	0.00727231
33	0x3dd94b21	0.10610033
34	0x3db89cab	0.09014257
35	0x3db38d3a	0.08767171
36	0xbdb8cd0d	-0.09023485
37	0xbbb5b29a	-0.0055449726
38	0x3d8f7776	0.07005207
39	0x3e1e6f4a	0.15472141
40	0xbcaea8f9	-0.021320807
41	0x3e04a878	0.1295489
42	0x3e381d0b	0.17979829
43	0x3dd6971c	0.104780406
44	0xbe0bba64	-0.13645321
45	0xbd9c22ee	-0.0762385
46	0xbd6cb01c	-0.05778514
47	0x3e701218	0.23444402
48	0x3d4a3f05	0.049376506
49	0x3db1e8b2	0.08686961
50	0x3f4ddf5f	0.8041896
51	0x3f222e80	0.63352203
52	0x3ed47fa2	0.41503626
53	0xbc8b026a	-0.016968925
54	0x3d9723d0	0.073798776
55	0x3d7e952e	0.062153988
56	0x3ded5e39	0.11590237
57	0xbce50bc0	-0.027959704
58	0xbd1a1926	-0.03762164
59	0xbea64df2	-0.32481343
60	0x3f37e2ee	0.7183064
61	0xbf55c090	-0.8349695
62	0x3d98a104	0.07452586
63	0xbdb82ac2	-0.089925304
64	0x3b12d75c	0.0022406196
65	0xbea37376	-0.31924027
66	0xbc88ac4b	-0.016683718
67	0xbed3ee56	-0.41392773
68	0x3dd47141	0.10373164
69	0xbe316203	-0.17322545
70	0x3c7b373f	0.015332996
71	0xbe751868	-0.23935091
72	0x3d4f8f73	0.050673913
73	0xbe5a7105	-0.21332176
74	0x3c198036	0.009368947
75	0xbe096ab5	-0.13419612
76	0x3b710bff	0.0036780832
77	0xbe08e25c	-0.13367599
78	0xbc6fcccc	-0.01463623
79	0xbe171691	-0.14754702
80	0x3cd587fd	0.02606582
81	0xbe51a5f6	-0.20473465
82	0x3cfacb1e	0.030614432
83	0xbe059b78	-0.13047588
84	0x3ccfd190	0.025368482
85	0xbe44a6cc	-0.19204253
86	0x3be6e188	0.0070459284
87	0xbd7b5ff0	-0.06137079
88	0x3c953a63	0.018216318
89	0x3d845586	0.06461625
90	0x3cb30deb	0.021857223
91	0xbce6d645	-0.028178344
92	0x3bb35c34	0.005473638
93	0xbdf9a8ad	-0.121903755
94	0x3c9f70b7	0.019462926
95	0xbe1160a6	-0.14197025
96	0x3cb27488	0.021784082
97	0xbdcaa3df	-0.09894537
98	0x3c89d74a	0.01682629
99	0xbd866566	-0.06562309
100	0x391adf40	0.00014769752
101	0x3dd0ddda	0.10198565
102	0xbbdfbe8a	-0.006828134
103	0xbe01f848	-0.12692368
104	0xbc87dc95	-0.016584674
105	0xbecac66f	-0.39604518
106	0xbe4a34af	-0.1974666
107	0xbba4e985	-0.0050327205
108	0x3d49dc2f	0.04928225
109	0xbda670e8	-0.08127004
110	0xbbd40140	-0.0064698756
111	0xbd35fcb2	-0.044430442
112	0xbd9d9bac	-0.07695708
113	0xbd7d1800	-0.061790466
114	0xbd807190	-0.0627166
115	0x3d12b9aa	0.035821594
116	0xbca82b5c	-0.020528488
117	0x3cbf7478	0.023370966
118	0xbc638ce4	-0.013888571
119	0xbe9f7207	-0.31141683
120	0x3b70cfb4	0.0036744894
121	0xbe5a727e	-0.21332738
122	0x3d0898ae	0.03334873
123	0x3f00856b	0.5020358
124	0x3d073566	0.03300991
125	0x40549467	3.3215578
126	0xbc7159e4	-0.014730904
127	0x3bdb43eb	0.006691446
128	0xbda5e7f0	-0.08100879
129	0x3d03e651	0.03220207
130	0xbf002fce	-0.50072944
131	0x3c589cab	0.013220946
132	0xbdeb56ff	-0.114912026
133	0x3c3b945d	0.011448947
134	0x3d930cdd	0.07180188
135	0xbe033d23	-0.1281629
136	0x3d856592	0.065135136
137	0xbe03f2c6	-0.1288558
138	0xbe04d5f3	-0.1297224
139	0xbc068d60	-0.008212417
140	0x3df8cf54	0.1214892
141	0xbe19a372	-0.15003756
142	0xbc7593c8	-0.014988847
143	0xbd2aabe6	-0.04166784
144	0x3b73a8cb	0.0037179466
145	0x3d0abf76	0.033873998
146	0x3e63cee1	0.22246887
147	0xbd3c49aa	-0.04596869
148	0x3ccbf35f	0.024896322
149	0xbe30d30c	-0.17268008
150	0x3e3cf0e5	0.18451269
151	0xbe4343ac	-0.19068784
152	0x3e6efbf1	0.23338296
153	0xbd1b4e94	-0.037916735
154	0xbd71fc63	-0.059078585
155	0x3c546124	0.012962613
156	0x3dbab145	0.09115843
157	0xbdcb546d	-0.09928212
158	0x3d95bf92	0.0731193
159	0x3bc42114	0.0059853885
160	0xbcd23dc8	-0.025664225
161	0xbe1081b1	-0.14111973
162	0xbd0bf044	-0.034164682
163	0x3ce5a683	0.0280335
164	0x3cfba485	0.030718097
165	0xbe47da34	-0.19516832
166	0xbe2456a4	-0.16048676
167	0xbd5b3e27	-0.05352607
168	0x3e6c36ac	0.2306773
169	0xbd726c3e	-0.05918526
170	0xbce72d80	-0.028219938
171	0xbcde28c2	-0.027119044
172	0xbf022aae	-0.50846374
173	0xbe145492	-0.14485386
174	0x3d36cd4c	0.04462938
175	0xbeda7395	-0.42666307
176	0xbe32028a	-0.17383781
177	0x3ce69190	0.028145581
178	0xbee58e54	-0.4483515
179	0xbe59b068	-0.212587
180	0xbd405ce8	-0.046963602
181	0x3dcad53a	0.09903951
182	0xbe5abb8c	-0.21360606
183	0xbd76d95d	-0.060265888
184	0xbe009d66	-0.12560043
185	0xbc4f282e	-0.012643857
186	0xbf8620e5	-1.0478789
187	0x3e24b24d	0.16083641
188	0xbf2c3e31	-0.67282397
189	0x3f11b09e	0.5691012
190	0xbd4760ba	-0.04867623
191	0xbd15d321	-0.0365783
192	0xbb98825c	-0.004654212
193	0xbe532677	-0.20620142
194	0xbda99622	-0.08280589
195	0xbed59c5d	-0.41720858
196	0xbb96f152	-0.0046064043
197	0xbebab3fc	-0.36465442
198	0x3c2a3059	0.010387504
199	0xbeb8298e	-0.35969204
200	0x3d380221	0.044923905
201	0xbe293bb3	-0.1652668
202	0xbbb99892	-0.0056639398
203	0xbe98a372	-0.298122
204	0xbb276855	-0.0025544364
205	0xbe8efdd5	-0.27928033
206	0x3a98fd83	0.0011672232
207	0xbd8c7d62	-0.068598524
208	0x3cfd35c5	0.030909428
209	0xbe624428	-0.22096312
210	0x3c9118f2	0.01771209
211	0xbd79bb1b	-0.060969453
212	0x3c1c5d25	0.009543692
213	0xbcf81521	-0.030283513
214	0xbc251b30	-0.010077283
215	0xbe42b078	-0.1901263
216	0x3bb09466	0.005388784
217	0xbe34d620	-0.17659807
218	0x3be8d86d	0.007105878
219	0x3d02fbd6	0.03197845
220	0xbcb0a3f6	-0.021562558
221	0xbde3455e	-0.11097215
222	0x3b724478	0.003696708
223	0x3c163f22	0.0091703255
224	0x3c23a538	0.009988122
225	0xbd82b3b8	-0.06381935
226	0x3c8dab38	0.017293558
227	0xbd9a0f4d	-0.0752245
228	0xbc9d6cec	-0.019216977
229	0xbd8fba99	-0.070180126
230	0xba7bf04f	-0.0009610699
231	0x3d39e7f2	0.045387216
232	0xbcb911ac	-0.022591434
233	0xbe512b8b	-0.20426767
234	0xbe674023	-0.2258306
235	0xbbdc39c1	-0.006720752
236	0x3c3e13fa	0.0116014425
237	0xbde79d84	-0.113093406
238	0xbdc05378	-0.093909204
239	0x3d92da2e	0.07170521
240	0x3d5b8035	0.053589065
241	0xbdc12420	-0.094307184
242	0xbc73abd2	-0.014872508
243	0x3d063122	0.0327617
244	0xbce5c1fa	-0.028046597
245	0xbbd3a11c	-0.0064584147
246	0xbc2a079e	-0.010377793
247	0xbe815813	-0.25262508
248	0x3c041959	0.008062684
249	0xbdbcff79	-0.09228415
250	0x3c841c4a	0.01612677
251	0x3edad2b8	0.4273889
252	0x3d173100	0.036911964
253	0x4055db4f	3.3415105
254	0xbc227cc0	-0.009917438
255	0x3b370336	0.0027925498

embed_layer.0.bias f4 [64]
0	0x3f167560	0.5877285
1	0x3de5928f	0.112095945
2	0x400568bc	2.0845175
3	0x3ddc2ece	0.10751115
4	0xbee71d91	-0.45139745
5	0x3dbf7ac1	0.09349585
6	0x3f0b2043	0.543461
7	0xc015098d	-2.328708
8	0xbffe42b8	-1.9864111
9	0x400dcce2	2.21563
10	0xbfa8d8ba	-1.319114
11	0x3db889f2	0.09010686
12	0xbea0a3b6	-0.31374902
13	0x3dc638c3	0.09678795
14	0x3fb8455e	1.4396169
15	0x3d8703c9	0.06592519
16	0x3e9d21b4	0.30689776
17	0xbe2a017b	-0.16602127
18	0x3f475894	0.77869534
19	0x3dc87d39	0.09789509
20	0xbffaebee	-1.960325
21	0x3dfd771d	0.12376235
22	0xbf5e63c9	-0.8687101
23	0x4002daed	2.0446122
24	0xc0021fa9	-2.0331824
25	0xbdfb99ca	-0.12285192
26	0xbff6a954	-1.9270425
27	0x3f4860b0	0.78272533
28	0x402b6491	2.678013
29	0x3fdc77c2	1.7224047
30	0x3fe9b0a4	1.8257031
31	0xbfdc80c7	-1.72268
32	0x3fe0c24b	1.7559294
33	0x3e9f4163	0.31104574
34	0xbead5449	-0.33853367
35	0x3fbc8a9a	1.4729798
36	0xbfed4ea6	-1.8539627
37	0xbf9a0258	-1.2031965
38	0x3e8f69ac	0.2801031
39	0x3dcc73c5	0.09983019
40	0x3d73adff	0.059492107
41	0x3dcb3b44	0.099234134
42	0x3fcf0200	1.6172485
43	0x3dc7055c	0.09717819
44	0x4028f9a5	2.640237
45	0x4002367b	2.0345752
46	0xbfd1bfe3	-1.6386684
47	0x3de83385	0.113379516
48	0xbff792f9	-1.9341727
49	0x3b64652d	0.0034850345
50	0xbedb7bee	-0.42867988
51	0xbd366211	-0.044527117
52	0xbf82298c	-1.0168929
53	0x3f3d395b	0.7391564
54	0xbf95c2cb	-1.1700071
55	0x3f3cb10e	0.73707664
56	0x400f915b	2.2432468
57	0x401b77e1	2.4291918
58	0x3dcda547	0.1004129
59	0xbfa03acc	-1.2517943
60	0xc00b0613	-2.1722457
61	0xbfbc7af8	-1.4725027
62	0x3f43eec3	0.76536196
63	0x3dbfd878	0.0936746

embed_layer.1.weight f4 [64]
0	0x3def2556	0.11677043
1	0x401eb6ab	2.4798992
2	0x3dee534d	0.11636982
3	0x401df364	2.4679804
4	0x3dfe562a	0.12418778
5	0x402fe3ed	2.7482865
6	0x3e2485ff	0.1606674
7	0x3e98cab1	0.2984214
8	0x3e7c3178	0.24628246
9	0x3e508f7e	0.20367238
10	0x3e24f308	0.16108334
11	0x402361fd	2.5528557
12	0x3dbdc2de	0.092656836
13	0x400ec40b	2.2307155
14	0x3dce4da6	0.10073404
15	0x3e867f8e	0.26269192
16	0x3d95e7d7	0.073196106
17	0x3de9fd1b	0.11425229
18	0x3e45a5ad	0.19301482
19	0x402ea6ff	2.7289426
20	0x3e86402a	0.26220828
21	0x3fcc4f01	1.596161
22	0x3e8076ef	0.2509074
23	0x3de2d82f	0.1107639
24	0x3e9840b4	0.29736865
25	0x3daf72ed	0.08566842
26	0x3e893c46	0.26803797
27	0x3e8119b9	0.25214937
28	0x3dd1fe1e	0.10253547
29	0x3e121ab4	0.14267999
30	0x3e4429c9	0.19156565
31	0x3e6c42d7	0.23072372
32	0x3e7b60a0	0.24548578
33	0x3e084892	0.13308933
34	0x3de9add5	0.11410109
35	0x3dd31e77	0.10308545
36	0x3e97464e	0.29545826
37	0x3eb0e793	0.34551677
38	0x3d84e5be	0.06489132
39	0x4020443d	2.504165
40	0x3e47907b	0.19488709
41	0x402092b3	2.5089538
42	0x3e24d6ef	0.16097616
43	0x4030c81c	2.7622137
44	0x3dd13670	0.10215461
45	0x3e261742	0.1621981
46	0x3e81cf02	0.25353247
47	0x401cb8b8	2.4487743
48	0x3eaa4df7	0.33262607
49	0x3fa59350	1.2935581
50	0x3e2e2265	0.17005308
51	0x3d5dc0dd	0.054139007
52	0x3d9bfde8	0.07616788
53	0x3f451792	0.7698909
54	0x3e1fb5ac	0.15596646
55	0x3dc807dc	0.09767124
56	0x3e7c2784	0.24624449
57	0x3eb4e331	0.35329583
58	0x4023d47f	2.5598447
59	0x3dc4896a	0.09596522
60	0x3e7a95ce	0.24471208
61	0x3e7392c5	0.23786457
62	0x3d99f674	0.0751771
63	0x3e45c0c4	0.19311816

embed_layer.1.bias f4 [64]
0	0xbc68a4e1	-0.014199466
1	0xbb8d8760	-0.0043191165
2	0xbe19de5a	-0.15026227
3	0x3ba5f745	0.005064877
4	0x3c8b007f	0.01696801
5	0x3bac5c3c	0.0052600186
6	0xbd35a664	-0.044348136
7	0xbdc0b4f2	-0.094095126
8	0xbd3cd442	-0.046100862
9	0x3db0cc2d	0.086326934
10	0xbdcf1cea	-0.10112937
11	0x3cbf0faa	0.023322899
12	0xbbb85f6f	-0.005626611
13	0xbb3e9749	-0.0029081872
14	0xbcdb8f8a	-0.026801843
15	0xbcdcc688	-0.026950136
16	0x3c86d214	0.016457595
17	0x3b2b6b78	0.0026156586
18	0xbd3f7532	-0.046742626
19	0x39d63af7	0.00040861193
20	0xbdb7ccb2	-0.089745894
21	0xbc382940	-0.0112403035
22	0x3e338f9f	0.17535256
23	0xbe07be2b	-0.13256137
24	0x3e16d94c	0.1473133
25	0x3d104dc5	0.035230417
26	0xbb3f7f92	-0.0029220325
27	0xbd96228c	-0.07330808
28	0xbe8dbcde	-0.27683157
29	0x3db25b0b	0.08708771
30	0x3db67f10	0.08910954
31	0x3e7e1f20	0.24816561
32	0xbe6b504d	-0.22979851
33	0xbc4025d6	-0.011727771
34	0x3d18efd3	0.03733809
35	0xbd9d0533	-0.07667007
36	0x3daa11d8	0.08304185
37	0x3e38d208	0.1804887
38	0x3bb2e152	0.005458989
39	0x3c263d19	0.010146403
40	0x3c90cfbd	0.017677182
41	0xbaebb235	-0.0017982187
42	0x3da75ae4	0.08171633
43	0x3b40ebc1	0.0029437395
44	0xbe375376	-0.17902932
45	0x3dce01cb	0.10058936
46	0x3e2d6cb0	0.16935992
47	0xbc819997	-0.015820308
48	0xbcf38533	-0.0297266
49	0x3d5ca322	0.053866513
50	0x3d4d3df6	0.05010792
51	0xbbca1b98	-0.00616784
52	0x3dc2876b	0.09498485
53	0xbe3c5443	-0.18391518
54	0x3e2dedd5	0.16985257
55	0xbc55b50e	-0.013043655
56	0x3dcaf5ef	0.09910189
57	0xbebdf9c3	-0.37104616
58	0xbc739ab7	-0.01486843
59	0x3dd8613c	0.10565421
60	0xbdf60565	-0.12012748
61	0x3d67e538	0.056615084
62	0xbc08495d	-0.008318272
63	0x3b2719da	0.0025497586

positional_encoder.feature_projection.weight f4 [64, 64]
0	0xbdc8e56f	-0.09809386
1	0x3e1a7b2f	0.15086053
2	0x3d9585d0	0.07300913
3	0xbe5e5051	-0.21710326
4	0xbc10d952	-0.008840876
5	0xbdf8ed29	-0.1215461
6	0x3e3c1832	0.18368605
7	0xbcb2951a	-0.021799613
8	0x3dbc0239	0.091801114
9	0xbd9f8a2a	-0.077900246
10	0x3e39b1d7	0.18134247
11	0x3e99e581	0.3005791
12	0x3d39f77b	0.04540203
13	0x3e1be74b	0.1522495
14	0xbd948f7b	-0.07253929
15	0xbcd17d6f	-0.025572507
16	0x3e2b68fc	0.16739267
17	0x3dc6b5ba	0.0970263
18	0xbe5de35f	-0.21668766
19	0xbc84850a	-0.01617672
20	0xbe834ca2	-0.25644404
21	0xbcbef03e	-0.023307916
22	0xbd659208	-0.05604747
23	0x3c6b11db	0.014347519
24	0xbdf39fd5	-0.1189572
25	0x3d3ef709	0.04662231
26	0x3d8bac80	0.06820011
27	0xbc8ccb7d	-0.017186875
28	0xbda6c89d	-0.08143733
29	0xbd8dcadc	-0.06923458
30	0xbda216be	-0.07914494
31	0x3c1ae3f3	0.009453761
32	0x3d9d35fc	0.07676312
33	0x3e71ba5c	0.23606247
34	0x3e270b52	0.16312912
35	0xbda9d620	-0.08292794
36	0x3d7b26cc	0.061316296
37	0x3e4c4d0c	0.19951266
38	0x3e165944	0.1468249
39	0xbc8b3b10	-0.016995937
40	0xbdcf8469	-0.10132677
41	0xbddb3774	-0.10703936
42	0x3e1d1d70	0.15343261
43	0x3e49b69c	0.19698566
44	0x3c78a08a	0.015174994
45	0xbd37d00b	-0.04487614
46	0xbe22e306	-0.15906915
47	0xbdf949c5	-0.121722735
48	0xbdf2d171	-0.11856354
49	0xbd9816e7	-0.07426243
50	0x3e847d83	0.25877008
51	0xbc0c1d52	-0.008551912
52	0x3e47163d	0.19442077
53	0x3e0bbc74	0.13646108
54	0xbd5b3f42	-0.053527124
55	0x3d230681	0.039801124
56	0xbdae2ebf	-0.0850501
57	0xbdd3604c	-0.103211015
58	0xbe2df9e2	-0.16989854
59	0x3e38c7e1	0.18044998
60	0xbdf9abe1	-0.121909864
61	0x3dff0e77	0.12453931
62	0xbe1192bb	-0.1421613
63	0xbe0de637	-0.13857351
64	0xbdffb5fe	-0.12485884
65	0x3f871c98	1.0555601
66	0xbdfeeb7c	-0.12447259
67	0x3f91722f	1.1362971
68	0xbe64cad8	-0.22343004
69	0xbfa9cc88	-1.3265543
70	0xbdeec500	-0.116586685
71	0xbd39f2b0	-0.04539746
72	0x3c69ca9a	0.014269495
73	0x3c02699f	0.007959752
74	0xbcfa53ee	-0.030557599
75	0xbf9f06d3	-1.2423958
76	0x3ea56878	0.32306266
77	0x3f930f02	1.1488955
78	0xbd72d30c	-0.0592833
79	0x3e094b10	0.1340754
80	0xbd9847c8	-0.07435566
81	0x3e73e989	0.23819555
82	0xbd7a199d	-0.061059583
83	0xbf9e1c52	-1.2352393
84	0x3d47163e	0.048605196
85	0x3f5d463b	0.8643529
86	0xbdbb1ea6	-0.09136705
87	0x3e895847	0.26825163
88	0x3db83adb	0.08995601
89	0x3da9d481	0.08292485
90	0xbd790381	-0.060794357
91	0x3ecc7eba	0.39940435
92	0x3e09768d	0.1342413
93	0xbd417443	-0.047230016
94	0xbd49add3	-0.049238037
95	0xbe719eee	-0.23595783
96	0x3dbbd36a	0.091711834
97	0x3ef978a2	0.48724848
98	0x3ecce0e1	0.4001532
99	0x3e93994a	0.28827888
100	0xbac64688	-0.0015127221
101	0x3e395437	0.18098532
102	0xbd919ae1	-0.07109619
103	0x3f91d034	1.1391664
104	0x3e3f9d74	0.18712407
105	0x3f7306d6	0.94932306
106	0xbca0563a	-0.019572366
107	0xbf8a2a40	-1.0794144
108	0xbe1355d3	-0.14388208
109	0xbcced560	-0.02524823
110	0xbd9b523e	-0.07584046
111	0x3f78f41f	0.972475
112	0xbdcc4cbb	-0.09975573
113	0xbf4a971c	-0.79136825
114	0x3ec572fb	0.38564286
115	0xbdb93172	-0.09042634
116	0x3e1abcec	0.1511113
117	0xbee78d1d	-0.45224848
118	0xbdb27283	-0.087132476
119	0xbc6c5215	-0.014423867
120	0xbd58a28d	-0.052889396
121	0x3eacb007	0.33728048
122	0xbfa1735e	-1.2613332
123	0x3da0b28b	0.07846554
124	0xbd841777	-0.06449788
125	0x3dbc9454	0.09207979
126	0xbe60c24a	-0.21949115
127	0x3e5b10b5	0.21393092
128	0xbe1bb33b	-0.1520509
129	0xbe0c5596	-0.13704523
130	0xbc9ba67e	-0.019000288
131	0xbc10cb68	-0.008837558
132	0x3dec035c	0.11524078
133	0xbce5c941	-0.028050067
134	0xbd67150a	-0.05641655
135	0x3f88167e	1.0631864
136	0x3f81f137	1.0151738
137	0xbf81f46c	-1.0152717
138	0x3ec37493	0.38174877
139	0x3cf87010	0.030326873
140	0x3cd83cc9	0.026396172
141	0xbde8ee15	-0.113735355
142	0x3b2b9e6b	0.0026186954
143	0xbd933f28	-0.071897805
144	0x39ccb99a	0.00039048196
145	0xbd02300e	-0.03178411
146	0xbe1c5f9d	-0.15270849
147	0x3cb86b37	0.022512062
148	0x3f358253	0.70901984
149	0xbd439103	-0.047745716
150	0x3e0ae964	0.13565594
151	0x3d2ed4d9	0.042683456
152	0x3f216c35	0.63055736
153	0xbd8c7f21	-0.068601854
154	0x3f558b7c	0.8341596
155	0xbce65c61	-0.028120222
156	0xbe419f5e	-0.1890845
157	0xbf395902	-0.7240144
158	0xbeed3806	-0.46331805
159	0x3ea20d46	0.31650752
160	0xbdc777f4	-0.09739676
161	0xbcf5229e	-0.029923733
162	0xbb953f00	-0.0045546293
163	0xbca59a85	-0.020215282
164	0x3f07c6e9	0.5303789
165	0x3ea09edf	0.3137121
166	0x3c95cdb2	0.01828656
167	0xbcc11dbb	-0.023573747
168	0x3e07044c	0.13185233
169	0x3daa5382	0.08316709
170	0xbee68e18	-0.45030284
171	0x3ddb6f34	0.1071457
172	0xbdec9e2a	-0.11553605
173	0xbf2f9a95	-0.6859525
174	0x3eaa60f3	0.3327709
175	0x3c89e34c	0.016832016
176	0x3f45aff5	0.77221614
177	0xbd23c8fa	-0.039986588
178	0x3e00a380	0.1256237
179	0xbd8dd859	-0.06926031
180	0xbd8c0fcb	-0.0683895
181	0xbda045d7	-0.07825821
182	0x3e52a1b7	0.20569502
183	0xbcf27361	-0.029596033
184	0xbf646b1e	-0.8922595
185	0xbef2de2f	-0.47435138
186	0x3c9313aa	0.017953712
187	0x3d852fac	0.06503233
188	0x3f915de4	1.1356778
189	0x3f122801	0.5709229
190	0x3d522446	0.051304124
191	0xbd1a9af8	-0.037745446
192	0x3e5a26d7	0.21303879
193	0xbf17cab1	-0.5929366
194	0xbe963ed4	-0.2934481
195	0xbf1a4f71	-0.6027747
196	0xbf247acd	-0.6424988
197	0x3f3a46bd	0.7276419
198	0xbeb4a9b4	-0.35285723
199	0x3d6f3f9d	0.058410276
200	0xbccbbb78	-0.024869666
201	0xbe0f94a1	-0.14021541
202	0x3cfe7425	0.031061241
203	0x3f2bd535	0.67122203
204	0xbdae497f	-0.08510112
205	0xbf1393e6	-0.5764755
206	0xbd8f746f	-0.0700463
207	0xbeb1375e	-0.34612554
208	0x3e81b66f	0.25334498
209	0x3ede9d48	0.4347937
210	0xbe9f7f83	-0.3115197
211	0x3f4f44aa	0.8096415
212	0x3e07fb5a	0.13279477
213	0xbf09afdb	-0.5378396
214	0x3d3afd98	0.045652002
215	0xbe995b3e	-0.29952425
216	0x3e04f762	0.12984994
217	0xbddfe133	-0.10931625
218	0x3bfce77e	0.0077180257
219	0xbdb6ac64	-0.089196
220	0xbc496650	-0.01229246
221	0xbddbc430	-0.10730779
222	0xbb724c65	-0.0036971804
223	0x3d944306	0.07239346
224	0xbde31882	-0.11088659
225	0xbdecfa87	-0.11571222
226	0xbda18a97	-0.07887762
227	0xbdf082ea	-0.1174372
228	0xbdf5b7ba	-0.11997934
229	0xbcdcd450	-0.026956707
230	0x3e9e8f70	0.3096881
231	0xbf50aa4b	-0.81509846
232	0x3b7cf270	0.0038596652
233	0xbf81bdfd	-1.0136105
234	0x3d13e5a6	0.03610768
235	0x3f0bc39c	0.5459535
236	0xbd0d0553	-0.034428906
237	0xbbaf9219	-0.0053579924
238	0xbe201792	-0.15633991
239	0xbf3a4554	-0.72762036
240	0x3d250860	0.04029119
241	0x3f04dcce	0.5189942
242	0x3dc1f9f0	0.094715
243	0x3e0fcd6b	0.14043204
244	0x3ee93c47	0.455538
245	0x3e5f5faa	0.21813837
246	0xbde9e814	-0.114212185
247	0xbd1d03af	-0.03833359
248	0xbdb2373d	-0.08701942
249	0x3dbe873d	0.093031384
250	0x3f544e82	0.82932293
251	0xbd165cf9	-0.03670976
252	0x3deb0552	0.11475624
253	0x3dc400f9	0.09570498
254	0x3ddc3983	0.10753157
255	0xbb9ef02b	-0.0048504076

positional_encoder.feature_projection.bias f4 [64]
0	0xbf59ad15	-0.8502973
1	0xbeed1518	-0.46305156
2	0x3f1b87ef	0.60754293
3	0xbf2d3edf	-0.6767406
4	0xbf40274c	-0.7505996
5	0xbf093d0f	-0.53608793
6	0x3ed356c1	0.41277125
7	0xbee705b9	-0.45121554
8	0x3f0ec34c	0.5576675
9	0xbf162955	-0.5865682
10	0xbf24bfb9	-0.64355046
11	0xbeb73cf2	-0.35788685
12	0x3ec99f32	0.3937927
13	0x3f1a0304	0.6016085
14	0xbf6e9b35	-0.9320558
15	0xbe69c83c	-0.2283029
16	0x3eeb14b2	0.45914227
17	0xbf3b7b0c	-0.7323463
18	0x3f274075	0.6533273
19	0x3e91c41e	0.28469938
20	0x3d9524fd	0.072824456
21	0x3f750bb4	0.9572098
22	0xbf298540	-0.6621895
23	0x3f36a54c	0.71345973
24	0xbf58d78b	-0.8470389
25	0xbbeac61c	-0.0071647298
26	0xbf534ce3	-0.82539195
27	0xbe553fcc	-0.20825118
28	0xbf6547d4	-0.89562726
29	0xbeb5b1af	-0.35487124
30	0xbf114451	-0.5674487
31	0xbf346b29	-0.70476013
32	0xbefa8777	-0.48931476
33	0xbf1cc78b	-0.6124198
34	0xbeec13e9	-0.4610894
35	0xbf7542de	-0.95805156
36	0xbe758ddb	-0.23979895
37	0xbf3b749c	-0.73224807
38	0xbe084cd3	-0.13310556
39	0xbf2f0758	-0.6837058
40	0xbe465802	-0.1936951
41	0xbf4b817f	-0.7949447
42	0xbe04cf05	-0.12969597
43	0xbf235882	-0.6380693
44	0xbe11810c	-0.14209384
45	0xbf767f80	-0.962883
46	0xbdc4e994	-0.09614864
47	0xbf567fce	-0.83788764
48	0xbd5747cf	-0.052558716
49	0xbf490404	-0.7852175
50	0xbdeaa40b	-0.1145707
51	0xbf6f55ac	-0.934901
52	0xbdb2af97	-0.08724897
53	0xbf6405aa	-0.8907114
54	0xbdbcf759	-0.09226865
55	0xbf7ea5d6	-0.99471796
56	0x3b2035a3	0.0024446032
57	0xbf4fd58e	-0.81185234
58	0xbcbda45c	-0.023149662
59	0xbf43de93	-0.76511496
60	0x3b861722	0.004092113
61	0xbf746364	-0.9546416
62	0xbdda4970	-0.10658538
63	0xbf75b424	-0.95978

transformer_encoder.layers.0.self_attn.in_proj_weight f4 [192, 64]
0	0x3d868710	0.0656873
1	0xbe08f712	-0.133755
2	0xbcb5f271	-0.022210332
3	0xbc0ba52a	-0.008523265
4	0x3e864a78	0.2622869
5	0xbb49f7d7	-0.003081789
6	0x3b3a61a1	0.002843954
7	0x3e130a6e	0.14359447
8	0x3de5f7fc	0.1122894
9	0xbe8cd198	-0.27503657
10	0xbbd621a1	-0.0065347706
11	0xbdfed02a	-0.12442048
12	0xbcded034	-0.027198888
13	0x3dc54186	0.09631638
14	0xbdef35f6	-0.11680214
15	0x3d6e2b1a	0.058146574
16	0xbda4cba5	-0.080466546
17	0x3e1c4d57	0.15263878
18	0xbda2d171	-0.07950104
19	0xbd9b9ff6	-0.075988695
20	0x3e7e11cc	0.24811476
21	0xbd9f34c1	-0.07773734
22	0x3db51a0b	0.08842858
23	0x3d8a9e5a	0.067684844
24	0x3e2b7bf7	0.16746508
25	0x3e285e1f	0.16442154
26	0xbe07bc6c	-0.13255471
27	0xbd138a27	-0.036020424
28	0xbe224864	-0.15847927
29	0xbd8f4ae3	-0.069967054
30	0x3dedc9a1	0.11610723
31	0xbc847f36	-0.01617394
32	0x3c86a8aa	0.016437847
33	0x3e3947b5	0.1809376
34	0xbe1f6292	-0.15564945
35	0xbe020961	-0.1269889
36	0x3e45c529	0.19313492
37	0x3e1d6c06	0.15373239
38	0x3cca4d95	0.024695197
39	0xbd96cebd	-0.07363651
40	0xbd87cb58	-0.066305816
41	0xbe6e9484	-0.23298842
42	0x3cc0f012	0.023551974
43	0x3d65784d	0.05602293
44	0x3e007d05	0.12547691
45	0x3b843647	0.0040347907
46	0xbdb6e5c4	-0.08930543
47	0xbc27522e	-0.010212464
48	0xbdd27bef	-0.10277545
49	0xbd177c4a	-0.036983766
50	0x3d90849a	0.07056542
51	0xbdd26195	-0.102725185
52	0xbe0808c9	-0.13284601
53	0xbd03ea5b	-0.03220592
54	0x3c5e3c53	0.013564187
55	0x3ea0a516	0.3137595
56	0xbea42c07	-0.3206484
57	0xbe5c822c	-0.21534032
58	0xbe0497c2	-0.12948516
59	0xbdafa7bc	-0.08576915
60	0x3d0046b1	0.031317417
61	0xbd3ff80f	-0.046867426
62	0xbe450269	-0.192392
63	0x3d874cf3	0.06606474
64	0xbdc4aea6	-0.09603624
65	0x3ea0840b	0.3135074
66	0xbe230f68	-0.15923846
67	0xbe2092ae	-0.15680954
68	0x3cec0dba	0.02881514
69	0x3c5b745a	0.01339444
70	0xbd5aebf8	-0.053447694
71	0xbd952c8b	-0.072838865
72	0xbd97d298	-0.074132144
73	0xbd378ff7	-0.04481503
74	0x3de6390e	0.11241351
75	0xbc08924b	-0.00833566
76	0x3e181732	0.14852598
77	0xbc6fc2d4	-0.014633853
78	0x3e4c0081	0.19922067
79	0xbe8fb822	-0.2807017
80	0x3d38ad74	0.045087293
81	0xbe2271a1	-0.15863658
82	0xbe15a8d1	-0.1461518
83	0xbdf41ff7	-0.11920159
84	0x3d4292f7	0.047503438
85	0xbd8ad55f	-0.067789786
86	0x3e365a8f	0.17807983
87	0x3e9120e3	0.28345403
88	0xbdb2b6e9	-0.087262936
89	0xbe38bbbf	-0.1804037
90	0xbe9558bd	-0.29169264
91	0xbeaba6d7	-0.33525726
92	0x3e18da84	0.14927107
93	0xbd33073f	-0.043708082
94	0xbd7c36f7	-0.061575856
95	0x3d94dc74	0.072686106
96	0xbdc89c52	-0.09795441
97	0x3db21a8b	0.08696469
98	0x3e014f6e	0.12627956
99	0x3ecde27f	0.40211865
100	0xbe374eee	-0.17901203
101	0xbdb0a30d	-0.086248495
102	0xbdd530c1	-0.1040969
103	0xbde08848	-0.109634936
104	0xbda32525	-0.07966069
105	0x3c3bf4b8	0.01147192
106	0x3e21e6e4	0.15810734
107	0x3e1d1482	0.15339854
108	0x3e0fdbe5	0.14048727
109	0xbe7bd84c	-0.2459423
110	0xbd14c2c7	-0.036318567
111	0x3d201d2b	0.039090317
112	0x3dd011a4	0.10159615
113	0x3e903ec4	0.28172886
114	0xbdcce62b	-0.100048386
115	0x3e91472c	0.28374612
116	0x3d5c2dbd	0.053754557
117	0x3c3d9ca4	0.011572991
118	0x3d8ec207	0.069706015
119	0x3e2b06aa	0.16701761
120	0x3dcb8e0a	0.09939201
121	0xbe205276	-0.15656456
122	0x3e761a6e	0.2403352
123	0xbba5600f	-0.0050468515
124	0xbd1740eb	-0.036927145
125	0x3e084ce9	0.13310589
126	0x3eca0deb	0.39463744
127	0xbe3f8e41	-0.1870661
128	0xbea12447	-0.3147299
129	0xbdcb70ce	-0.09933625
130	0x3cd37390	0.02581194
131	0x3e97b6e1	0.29631713
132	0xbd160101	-0.03662205
133	0x3ec77e6c	0.3896364
134	0x3e1cee35	0.15325244
135	0x3d946a16	0.07246797
136	0x3e3fe435	0.18739398
137	0x3e9f7430	0.31143332
138	0x3e738ef0	0.23784995
139	0xbe2f3997	-0.17111813
140	0xbd615bf4	-0.055019334
141	0xbf0a532b	-0.54033154
142	0xbe540ecc	-0.2070877
143	0xbbab4afa	-0.0052274438
144	0x3d853d86	0.06505875
145	0xbe8e686a	-0.27814037
146	0xbc0a72fc	-0.008450266
147	0x3d2d4e2f	0.04231089
148	0x3ae1654b	0.0017196325
149	0xbe3ed642	-0.1863642
150	0x3b1c1744	0.0023817578
151	0xbd3f3aa3	-0.04668678
152	0xbce672c5	-0.028130898
153	0x3d98777e	0.07444666
154	0x3e8789b7	0.26472256
155	0xbc523965	-0.012831067
156	0xbdcb2050	-0.099182725
157	0xbcd5a60d	-0.026080156
158	0xbce7f8b8	-0.02831684
159	0x3dae94d5	0.08524481
160	0x3957e31f	0.00020588607
161	0xbe2cfd11	-0.16893412
162	0x3df738c0	0.12071371
163	0xbd925ff3	-0.07147207
164	0x3e12444a	0.14283863
165	0x3e236e8b	0.15960138
166	0x3d16b9a1	0.036798123
167	0x3eb8f02e	0.36120743
168	0x3e0de206	0.13855752
169	0x3dab1c5c	0.083550185
170	0xbe3aa300	-0.18226242
171	0xbe3ad7d0	-0.18246388
172	0x3d9e2d8f	0.07723533
173	0x3e9f0930	0.31061697
174	0x3d858779	0.0651998
175	0x3e7d6362	0.24744943
176	0x3e1452a5	0.14484651
177	0x3d61038b	0.05493502
178	0x3d147357	0.03624281
179	0x3e39d3db	0.18147223
180	0x3de4ac9a	0.11165734
181	0xbd5f6b7a	-0.054545857
182	0x3e0b77da	0.13619938
183	0xbda9c9e5	-0.082904615
184	0xbdf62dba	-0.120204404
185	0x3e43ffc5	0.19140537
186	0xbdf23c73	-0.11827936
187	0xbd882089	-0.066468306
188	0x3e3cbdb0	0.18431735
189	0xbdd9704b	-0.10617121
190	0xbe908978	-0.2822988
191	0x3dacec0e	0.08443461
192	0xbd7cb7ad	-0.061698604
193	0xbda04bca	-0.078269556
194	0x3d9ec81d	0.07753012
195	0x3e0837f6	0.13302597
196	0xbd994c21	-0.074852236
197	0x3c3f6224	0.011681113
198	0x3e555cf3	0.20836239
199	0xbdfd201f	-0.12359642
200	0xbe370391	-0.17872454
201	0xbddf7766	-0.10911445
202	0x3dae10a8	0.08499271
203	0x3e4c3f50	0.19946027
204	0x3d28f170	0.041245878
205	0xbe82e191	-0.2556272
206	0x3dbbe265	0.09174041
207	0xbe302f44	-0.1720553
208	0xbc96e82c	-0.018421255
209	0xbde11c9a	-0.109917834
210	0x3e22a71d	0.15884061
211	0xbe2a8a6b	-0.16654365
212	0x3e57959d	0.21053167
213	0xbcdbd77e	-0.026836153
214	0x3bd3bc00	0.0064616203
215	0xbc439b7d	-0.011938927
216	0xbdaf03ca	-0.085456446
217	0xbe42b08a	-0.19012657
218	0xbe4ea545	-0.20180233
219	0xbe9c9d59	-0.30588797
220	0x3d527d08	0.05138877
221	0xbe07258b	-0.13197915
222	0x3d9641a7	0.07336741
223	0xbeaa33cd	-0.33242646
224	0x3ca4d834	0.020122625
225	0xbdf709e5	-0.12062434
226	0xbe63d756	-0.22250113
227	0x3ea20082	0.31641012
228	0xbdb03091	-0.08603013
229	0x3b179483	0.0023129291
230	0xbdacd7d8	-0.084396064
231	0xbde99c48	-0.114067614
232	0x3af700e9	0.0018844876
233	0xbc306581	-0.010766388
234	0x3e364496	0.17799601
235	0x3d2f6e89	0.042830024
236	0x3e7b8aa0	0.245646
237	0xbdbe7924	-0.093004495
238	0xbd63c8a7	-0.05561128
239	0xbe04b45b	-0.12959425
240	0x3e915e56	0.28392285
241	0x3d17ed0f	0.03709131
242	0x3e517210	0.20453668
243	0x3e638bd9	0.22221316
244	0xbdbbb0d6	-0.09164588
245	0x3dc55d61	0.09636951
246	0x3d7471ac	0.05967872
247	0xbe4273f6	-0.18989548
248	0x3e63ebfd	0.22257991
249	0x3d388ef6	0.045058213
250	0x3ea85cef	0.32883403
251	0x3e6e8fa7	0.23296987
252	0xbd9ccecb	-0.0765663
253	0x3db59a17	0.08867281
254	0x3ef62215	0.48072878
255	0xbe82ee8d	-0.25572625

transformer_encoder.layers.0.self_attn.in_proj_bias f4 [192]
0	0x3d1a10d5	0.03761371
1	0xbdef6dbf	-0.11690854
2	0xbe45d532	-0.19319609
3	0xbea2762a	-0.31730777
4	0xbd97f319	-0.07419414
5	0xbf993783	-1.1970066
6	0x3e8b9059	0.27258566
7	0x3d8fda85	0.07024101
8	0xbf3eda0e	-0.74551475
9	0xbe29a20b	-0.1656572
10	0x3fbbf11a	1.4682953
11	0xbe8bd4b7	-0.27310726
12	0xbd7c9705	-0.06166746
13	0x3d7af3e4	0.06126775
14	0x3dd48cc8	0.103784144
15	0x3d2ba611	0.04190642
16	0x3eb40387	0.3515894
17	0xbe556543	-0.2083941
18	0x3e8e9fd2	0.27856308
19	0x3eb5e494	0.35525954
20	0x3e808a74	0.2510563
21	0xbf624a0b	-0.8839423
22	0xbf0fc5f7	-0.56161445
23	0xbdd6a888	-0.104813635
24	0x3eaa6552	0.33280426
25	0x3eb868cd	0.36017457
26	0x3fd52759	1.6652633
27	0xbeb26522	-0.34842783
28	0x3e2abb10	0.16672921
29	0x3e0ecfb5	0.13946421
30	0xbe41bff7	-0.18920885
31	0xbdc47860	-0.09593272
32	0x3f83c74a	1.0295193
33	0x3e48a9ce	0.19596025
34	0xbdd62a04	-0.104572326
35	0x3be89a0e	0.007098443
36	0xbe046c4c	-0.12931937
37	0x3e36c66a	0.17849126
38	0xbe0f073b	-0.13967602
39	0x3ec16931	0.37775567
40	0xbe16bed5	-0.14721234
41	0x3fa152f3	1.2603439
42	0xbccc32b9	-0.02492653
43	0xbe1d6bf8	-0.15373218
44	0xbd9a1417	-0.07523363
45	0xbf3e81ad	-0.7441662
46	0x3f0fa7e9	0.56115586
47	0xbf0f6774	-0.5601723
48	0xbe3ae69a	-0.1825203
49	0x3e81b875	0.25336042
50	0x3f01a9e4	0.5064986
51	0xbf3d193a	-0.7386662
52	0x3e6e8c5c	0.2329573
53	0x3e553cd0	0.2082398
54	0x3fc80a98	1.5628233
55	0xbed5ba70	-0.41743803
56	0x3dbd3f2a	0.09240563
57	0x3f68a777	0.9088053
58	0x3e862d11	0.26206258
59	0x3f169c9d	0.5883272
60	0x3f812981	1.0090791
61	0x3fd45ec9	1.6591426
62	0x3ee76d9b	0.4520081
63	0x3d8297af	0.063765876
64	0xbd031ed2	-0.032011814
65	0xbdd19e43	-0.10235264
66	0x3eafae49	0.34312657
67	0x3e31c0b2	0.17358664
68	0x3d9f85ed	0.07789216
69	0x3f530c7e	0.82440937
70	0xbdbf89b1	-0.093524344
71	0xbeb44790	-0.35210848
72	0x3f41f0ce	0.75758064
73	0x3d9cedae	0.07662521
74	0xbf531240	-0.8244972
75	0x3e9a174a	0.30095893
76	0x39e7b868	0.00044197147
77	0xbcd61660	-0.026133716
78	0xbd817dfa	-0.06322856
79	0x3c8306a7	0.015994383
80	0xbec342ee	-0.38137
81	0xbe8213bc	-0.2540568
82	0xbf0d88a2	-0.5528661
83	0xbee828e4	-0.45343697
84	0xbed7d658	-0.4215572
85	0x3f777a59	0.9667106
86	0x3ed3cb55	0.41366068
87	0x3e7b9178	0.2456721
88	0x3d6baf03	0.05753995
89	0xbd945fea	-0.07244857
90	0xbee614f7	-0.4493787
91	0x3da36ad7	0.079793625
92	0xbea56207	-0.3230135
93	0xbc888ed0	-0.01666966
94	0xbbe06729	-0.006848235
95	0x3e4282e1	0.18995239
96	0xbf0f4afa	-0.5597378
97	0xbe42cfbd	-0.19024558
98	0xbcadbe2a	-0.021208841
99	0xbed1dc0f	-0.40988204
100	0x3e2bfb72	0.16795138
101	0x3d8f95ca	0.07010992
102	0xbde5fe97	-0.112302
103	0xbddf5f89	-0.10906894
104	0xbdcc6220	-0.09979653
105	0xbf72f062	-0.94898045
106	0xbe97ffc1	-0.29687312
107	0x3e816cc6	0.252783
108	0xbe56eccf	-0.20988773
109	0x3ecec200	0.40382385
110	0x3e01d79a	0.12679902
111	0x3e87ba85	0.2650949
112	0xbd06435f	-0.032779094
113	0x3df78e1a	0.120876506
114	0x3e62469a	0.22097245
115	0x3dee6d57	0.11641949
116	0x3da83295	0.08212773
117	0xbca72043	-0.020401126
118	0xbf3b48c9	-0.73157936
119	0x3ef0c1a9	0.4702275
120	0x3d163138	0.036668032
121	0xbf0efc57	-0.5585379
122	0xbdc41f85	-0.095763244
123	0xbcfb5b48	-0.030683175
124	0xbf01d229	-0.50711304
125	0xbf944567	-1.158368
126	0xbf261fa7	-0.6489205
127	0xbba7d59c	-0.0051219
128	0x3d428976	0.047494374
129	0xbb3c5947	-0.0028739737
130	0xbcc139fe	-0.023587223
131	0x3d15b0c0	0.036545515
132	0x3bdfd709	0.006831054
133	0xbd42d196	-0.047563158
134	0xbd0bbb4f	-0.03411418
135	0x3c513d46	0.012770956
136	0x3cf8db17	0.030377908
137	0xbd26e956	-0.04074987
138	0x3b0e5b0d	0.002172175
139	0xbc64e354	-0.013970215
140	0x3c82f0b3	0.015983915
141	0x3d48c7d1	0.049018685
142	0x3be1c324	0.0068897177
143	0x3e2202bc	0.15821356
144	0xbba62e0d	-0.0050714076
145	0xbd2f2fc8	-0.042770177
146	0x3c95008b	0.018188735
147	0x3cc1182b	0.023571094
148	0x3c227f68	0.009918071
149	0x3c83112b	0.015999397
150	0xbc823e3c	-0.015898816
151	0xbd72682a	-0.05918137
152	0xbcaee3a1	-0.021348776
153	0xba6179fc	-0.0008601246
154	0x3db39051	0.087677605
155	0x3e1e1fcf	0.15441822
156	0x3d8dba38	0.06920284
157	0xbd633e3a	-0.055479266
158	0x3d9b09f2	0.07570256
159	0xbcff902c	-0.031196676
160	0xbcab507a	-0.020912398
161	0x3c2a0a16	0.010378381
162	0x3b9da9ae	0.004811487
163	0xbbcd9e4c	-0.006274974
164	0x3cb959aa	0.022625763
165	0x3bb74adb	0.0055936403
166	0x3c69e276	0.014275184
167	0x3c6b178d	0.014348877
168	0xbdb9bcdc	-0.09069225
169	0x3d7d757c	0.06187962
170	0xbd6272ed	-0.055285383
171	0xbdff8170	-0.1247586
172	0x3d215c9c	0.03939496
173	0xbd4aab1c	-0.04947959
174	0x3d0395b2	0.032125182
175	0xbe07ec36	-0.13273701
176	0xbd0be7c1	-0.034156565
177	0x3d3e241f	0.046421167
178	0x3ca23fe9	0.019805865
179	0x3a2ef13b	0.00066735194
180	0xbd161bef	-0.036647733
181	0x3d37cd25	0.044873375
182	0x3d8f7524	0.07004765
183	0x3d02ad49	0.03190354
184	0x3d8f785d	0.07005379
185	0x3cbc230e	0.022965934
186	0xbe4fcc46	-0.20292768
187	0x3df0fd02	0.117670074
188	0x3dcec60e	0.1009637
189	0xbbd9d8c2	-0.006648154
190	0xbb875685	-0.004130187
191	0xbf6006a7	-0.8751015

transformer_encoder.layers.0.self_attn.out_proj.weight f4 [64, 64]
0	0xbcbb66f1	-0.022876235
1	0x3d87e1b0	0.06634843
2	0xbe81f38b	-0.2538112
3	0xbea7619a	-0.32691652
4	0x3d4b471e	0.04962837
5	0xbe15fa9d	-0.14646383
6	0xbd85d12f	-0.06534039
7	0x3f097cc5	0.5370601
8	0xbe0d8407	-0.13819896
9	0xbe005852	-0.12533692
10	0x3d831764	0.06400946
11	0x3e24651f	0.160542
12	0x3dacbc9c	0.08434412
13	0x3e9a144f	0.3009362
14	0xbce065cf	-0.027392296
15	0x3c52f209	0.0128750885
16	0x3e199808	0.14999402
17	0x3e0f219c	0.13977665
18	0x3d1e1037	0.038589682
19	0x3ce5af46	0.028037678
20	0x3dc8e5da	0.09809466
21	0x3d26cede	0.040724628
22	0x3eae5adc	0.34053695
23	0xbead6540	-0.3386631
24	0xbe1c271f	-0.15249299
25	0xbd81c7dd	-0.06336949
26	0x3e8f1f07	0.2795336
27	0x3df02219	0.117252536
28	0x3e8a127a	0.26967221
29	0x3e86e601	0.26347354
30	0x3e66b909	0.22531523
31	0xbdc0dd55	-0.09417216
32	0xbe6ea9dc	-0.23306984
33	0x3eb8c89c	0.36090553
34	0x3dbbadd9	0.09164018
35	0xbe03f958	-0.12888086
36	0xbd561210	-0.05226332
37	0x3e16e108	0.1473428
38	0x3db87325	0.09006337
39	0xbe2e7cd6	-0.17039809
40	0xbda7c01c	-0.08190939
41	0xbe26060f	-0.16213249
42	0x3d4bb93d	0.049737204
43	0x3e368b8c	0.1782667
44	0x3bbe7094	0.00581176
45	0xbe849dda	-0.2590168
46	0x3d022f38	0.031783313
47	0xbcb3741e	-0.021905955
48	0x3e4918f9	0.19638433
49	0x3e51ecb8	0.20500457
50	0x3d482b6e	0.048869543
51	0xbe198c7a	-0.14994994
52	0x3d30c68e	0.043158107
53	0x3ea05a16	0.3131873
54	0xbc7f141b	-0.015568758
55	0x3c869c8f	0.016432075
56	0x3e04b141	0.12958242
57	0xbe426485	-0.18983658
58	0x3c38b414	0.011273403
59	0x3e8b0e55	0.27159372
60	0xbdd3dd46	-0.10344939
61	0x3d5791e0	0.05262935
62	0x3e978377	0.29592487
63	0xbed2064b	-0.41020426
64	0xbcf2d09b	-0.029640486
65	0xbd7afeea	-0.06127826
66	0xbdafa19f	-0.08575749
67	0x3e0981ca	0.13428417
68	0x3d4ff4f4	0.050770715
69	0x3d8f3814	0.06993118
70	0x3d90398c	0.07042226
71	0x3d6dee55	0.05808862
72	0x3b77772d	0.0037760243
73	0x3e3371fa	0.17523947
74	0x3cf4a846	0.029865395
75	0x3decaf8d	0.11556921
76	0xbc3e33e6	-0.011609053
77	0x3d94aa40	0.07259035
78	0x3dc55eb4	0.09637204
79	0xbdac1bc3	-0.08403733
80	0xbc82040e	-0.015871074
81	0xbb31fd9d	-0.0027159222
82	0xbccfb7d1	-0.025356205
83	0x3c5e42f4	0.013565768
84	0xbd90d48f	-0.07071792
85	0x3c80ad4c	0.015707634
86	0x3e1fc161	0.15601112
87	0xbc22990d	-0.009924185
88	0xbcf24cd3	-0.029577648
89	0xbda7a976	-0.08186619
90	0xbcfc1bc6	-0.030774962
91	0xbd6dcd77	-0.058057275
92	0xbd662ffa	-0.056198098
93	0xbe041525	-0.12898691
94	0xbd39a96a	-0.04532758
95	0x3e12e238	0.14344108
96	0x3bee4436	0.007271315
97	0x3cafbeff	0.021453379
98	0xbd71a238	-0.058992594
99	0x3dac799b	0.08421632
100	0xbcf328c7	-0.02968253
101	0x3c28dc7a	0.010306472
102	0xbc98c58e	-0.018648889
103	0xbcd9986e	-0.026561942
104	0x3cf464fe	0.029833313
105	0x3d046369	0.032321367
106	0x3b7b513c	0.003834798
107	0x3be7e7b0	0.00707718
108	0x3e131276	0.14362511
109	0x3d8f1e89	0.06988246
110	0xbd84c054	-0.06481996
111	0xbd11d7e6	-0.035606287
112	0x3c6b9e0d	0.014380944
113	0x3cd2134b	0.025643965
114	0xbd9bf8f7	-0.07615846
115	0x3a5cc313	0.00084214023
116	0xbc139cd5	-0.00900956
117	0xbd3cb337	-0.04606935
118	0xbd8315ba	-0.064006284
119	0xbc101e6a	-0.008796314
120	0x3d17c946	0.037057184
121	0x3d60dbe5	0.054897208
122	0xbd27826a	-0.040895857
123	0xbd69e809	-0.05710605
124	0x3ccb9b89	0.024854438
125	0xbd423494	-0.047413424
126	0xbdb59a2c	-0.088672966
127	0xbdcb8669	-0.09937746
128	0x3b2288e5	0.0024800834
129	0x3ca7be4c	0.020476483
130	0xbd51a070	-0.051178396
131	0x396e5561	0.00022729255
132	0x3ba7e8ee	0.005124203
133	0x3d88948d	0.06668959
134	0x3cba80b7	0.022766454
135	0x3c18dc1a	0.00932982
136	0x3d8f8ab0	0.070088744
137	0xbe0ffb6a	-0.1406075
138	0xbce3e763	-0.027820295
139	0xbd0a487e	-0.03376054
140	0x3a1491b8	0.0005667466
141	0xbc2f059b	-0.010682489
142	0xbd0ea258	-0.03482279
143	0xbb623971	-0.00345191
144	0xbd130676	-0.035894834
145	0x3a090d7b	0.0005228144
146	0x3d6cbf44	0.057799593
147	0xbd8f027d	-0.069828965
148	0x3c851c59	0.016248869
149	0x3ce13a92	0.027493749
150	0x3c50648d	0.012719286
151	0x3d16e4a7	0.036839154
152	0x3c8db7e8	0.017299607
153	0xb93b95c4	-0.00017889502
154	0xbbf905b5	-0.0075995573
155	0x3bd57b6f	0.0065149586
156	0xbd230a67	-0.039804842
157	0x3d648c35	0.055797774
158	0xbd302f2f	-0.043013748
159	0xbc53c085	-0.012924318
160	0x3d5de3bc	0.054172263
161	0xbc38535b	-0.011250342
162	0xbcf6258b	-0.030047199
163	0x3d83e372	0.06439866
164	0x3d0843b5	0.033267695
165	0xbd5a4434	-0.0532877
166	0xbd1e8755	-0.03870328
167	0x3c99dd78	0.018782362
168	0xbc10b5a1	-0.008832366
169	0xbba59e25	-0.0050542527
170	0x3cd4c565	0.025973031
171	0xbca94e8d	-0.020667339
172	0x3be3b702	0.0069493065
173	0xbd78e3f0	-0.060764253
174	0xbc0a1992	-0.008428948
175	0xbc29e5c1	-0.010369719
176	0x3cc2d5da	0.023783613
177	0x3c8efb98	0.017453954
178	0x3c903d1e	0.017607268
179	0x3b766bc2	0.003760085
180	0x3ab69358	0.001392941
181	0x3c34eef4	0.011043299
182	0xbd205632	-0.039144702
183	0x3b0f49fb	0.0021864164
184	0xbcecdd7f	-0.028914211
185	0x3d79570e	0.060874037
186	0xbd07a85a	-0.033119537
187	0xbb70a8da	-0.0036721737
188	0x3d0de3ff	0.034641262
189	0x3c951663	0.018199151
190	0x3d649f01	0.0558157
191	0xbd8a62a2	-0.06757094
192	0x3e85b62b	0.26115546
193	0x3dad62c6	0.08466105
194	0xbbe9b4ca	-0.0071321474
195	0x3d1ceb53	0.03831036
196	0xbdd313ca	-0.10306509
197	0x3dbfe437	0.093697004
198	0x3e069e07	0.1314622
199	0xbe204936	-0.15652928
200	0x3dbc987a	0.0920877
201	0x3daf6d89	0.08565814
202	0xbe5721b5	-0.21008952
203	0x3c4f99dc	0.01267096
204	0x3d132e50	0.03593284
205	0xbda4b81f	-0.08042931
206	0xbcd4314d	-0.025902415
207	0xbdb40711	-0.0879041
208	0x3c977a1b	0.018490842
209	0x3de681e1	0.11255241
210	0xbda108f1	-0.078630336
211	0xbbd3a88a	-0.0064593004
212	0xbdac84d4	-0.084237725
213	0x3b8aa340	0.0042308867
214	0x3df548b8	0.119767606
215	0xbd5118bf	-0.05104899
216	0xbdce3f40	-0.10070658
217	0x3d817bd2	0.06322445
218	0xbe0e672e	-0.13906547
219	0xbdb6400d	-0.088989355
220	0xbcb1c58f	-0.021700649
221	0xbdfbb747	-0.12290817
222	0x3d670896	0.056404673
223	0xbdfddd04	-0.12395671
224	0x3cdc40e8	0.026886418
225	0xbe037474	-0.12837392
226	0xbdb1049d	-0.08643458
227	0x3db5b4e8	0.08872396
228	0xbdef2840	-0.11677599
229	0x3c90fcd8	0.01769869
230	0x3c129968	0.008947708
231	0xbd983245	-0.07431463
232	0x3c2e057e	0.010621427
233	0xbda11a69	-0.078663655
234	0x3c43493e	0.011919318
235	0x3d639248	0.055559427
236	0xbe7072db	-0.23481314
237	0x3cd56311	0.026048215
238	0xbde792be	-0.11307286
239	0x3e1a5edf	0.15075253
240	0x3c9dbd25	0.01925523
241	0x3bde0863	0.006775902
242	0xbcf4f948	-0.029904023
243	0x3c4b1bbf	0.012396752
244	0xbd0cca89	-0.03437284
245	0xbbd32dad	-0.006444654
246	0xbe02129b	-0.1270241
247	0xbe018893	-0.12649755
248	0x3d9da94b	0.07698306
249	0xbd0f64a0	-0.035008073
250	0x3e85f9b2	0.26167065
251	0xbd4746a4	-0.048651353
252	0xbd22cfd8	-0.039748996
253	0xbdab0852	-0.08351196
254	0x3d4cc0d3	0.04998858
255	0xbe295045	-0.16534527

transformer_encoder.layers.0.self_attn.out_proj.bias f4 [64]
0	0xbeaf33d9	-0.34219244
1	0xbd914b81	-0.07094479
2	0x3d0092e5	0.03139009
3	0xbe3c70bb	-0.18402378
4	0x3b8fb0ba	0.004385081
5	0xbeb7dce9	-0.3591073
6	0xbe30e99b	-0.17276613
7	0x3d03373f	0.03203511
8	0xbdc0203f	-0.093811505
9	0x3dcaa621	0.09894968
10	0x3e0ecd79	0.13945569
11	0xbd2946ac	-0.041327164
12	0x3c5aa81a	0.013345743
13	0xbf50f9c7	-0.8163113
14	0xbc21a4b6	-0.00986593
15	0xbdd782fd	-0.10523031
16	0x3bd8c7bf	0.0066156085
17	0x3d1a3905	0.037652034
18	0xbe3fb5a9	-0.18721642
19	0x3d9dbb6c	0.077017635
20	0xbd74051a	-0.059575178
21	0x3cb24923	0.02176339
22	0xbd8b8ae8	-0.06813604
23	0x3e99b08e	0.30017513
24	0xbe0f55ea	-0.13997617
25	0xbd0e9a95	-0.03481539
26	0x3d00ae36	0.03141614
27	0xbde20044	-0.11035207
28	0xbbe42243	-0.006962092
29	0x3d5ad673	0.05342717
30	0x3e83a5cc	0.2571243
31	0x3ee16a04	0.44026196
32	0x3e980e69	0.29698494
33	0x3e0ae782	0.13564876
34	0x3e09f9af	0.13474153
35	0xbc2434da	-0.010022366
36	0xbc184979	-0.009294861
37	0x3e5348bc	0.20633215
38	0x3c249418	0.010045074
39	0x3eb20ad6	0.34773892
40	0xbe96507a	-0.29358274
41	0x3e5efb25	0.21775492
42	0xbbbf0caf	-0.0058303694
43	0xbac649cf	-0.0015128198
44	0xbd6ec56e	-0.058293752
45	0x3c361378	0.01111304
46	0xbeddfff5	-0.43359342
47	0xbe0022a9	-0.12513222
48	0xbd65e642	-0.056127794
49	0x3e925666	0.28581542
50	0xbf137e19	-0.57614285
51	0xbf535757	-0.82555145
52	0xbeed3c3a	-0.46335012
53	0x3dd4b43d	0.1038594
54	0x3c2172a0	0.009853989
55	0xbedfa0b2	-0.43677288
56	0xbe4fa004	-0.20275885
57	0x3e5b64e9	0.21425213
58	0xbdf7f9f7	-0.12108224
59	0x3ebfe253	0.3747736
60	0xbe1921fc	-0.1495437
61	0x3ebf3ca3	0.3735095
62	0x3c01f245	0.007931297
63	0xbf41bbb0	-0.75677013

transformer_encoder.layers.0.linear1.weight f4 [256, 64]
0	0xbd0236a9	-0.03179041
1	0x3f0162e5	0.50541526
2	0x3f8379c1	1.0271531
3	0xbe7f93c7	-0.24958716
4	0xbfc8a5e4	-1.5675626
5	0x3f163d71	0.586875
6	0xbeaef40c	-0.34170568
7	0x3ee21b58	0.44161487
8	0xbe964861	-0.29352096
9	0x3ef14ea5	0.47130314
10	0x3d634c4f	0.055492695
11	0x3d7cb824	0.061699048
12	0xbeab9664	-0.33513176
13	0x3d8fe7e8	0.070266545
14	0xbee90820	-0.4551401
15	0xbeba3168	-0.3636582
16	0x3f936c1f	1.1517371
17	0xbc8c5caa	-0.01713403
18	0xbe443fb4	-0.19164926
19	0xbf87c941	-1.0608293
20	0x3e23b050	0.15985227
21	0xbe663163	-0.22479777
22	0xbeff9e38	-0.499254
23	0x3dec459c	0.115367144
24	0x3f42c31a	0.7607895
25	0xbe33dc17	-0.17564426
26	0xbf9840b3	-1.1894745
27	0x3e96565a	0.29362756
28	0xbf8fadf5	-1.1224962
29	0x3e58b5d2	0.21163109
30	0x3bcf3418	0.0063233487
31	0x3dae692f	0.08516156
32	0xbc00d969	-0.007864335
33	0x3e0f4529	0.13991226
34	0xbefce37e	-0.49392313
35	0xbeb5d384	-0.35512936
36	0xbfabaf96	-1.341296
37	0x3e45551d	0.1927075
38	0x3e7bef24	0.24602944
39	0xbe9f6645	-0.31132713
40	0x3ec1e1c0	0.37867546
41	0xbe89b4e2	-0.26895815
42	0xbecd1ae6	-0.40059584
43	0x3e3d4e26	0.18486843
44	0xbe97e4eb	-0.29666838
45	0x3e661d64	0.22472149
46	0xbbfe3ecc	-0.007758951
47	0x3f62ef45	0.88646346
48	0x3ed4bca6	0.41550177
49	0x3eabff2f	0.33593127
50	0x3eddce12	0.43321282
51	0x3e6e482c	0.23269719
52	0x3ec8c93d	0.39216033
53	0x3ef96ab0	0.4871421
54	0xbe9c4d36	-0.30527657
55	0x3d858bd5	0.065208115
56	0xbec5c6d7	-0.38628265
57	0x3ead2d06	0.33823413
58	0x3ec426cb	0.38310847
59	0xbe9d97c5	-0.30779853
60	0xbe61848d	-0.2202322
61	0xbd194605	-0.03742029
62	0x3ee6ded9	0.45091894
63	0x3ed427d6	0.41436642
64	0x3e8cc89d	0.27496806
65	0x3e7c9d51	0.24669386
66	0x3f005f72	0.5014564
67	0xbec6eace	-0.38851017
68	0xbf38e6ec	-0.7222736
69	0xbf62ed95	-0.8864377
70	0xbf02be20	-0.5107136
71	0x3e990c88	0.29892373
72	0xbd000010	-0.03125006
73	0xbd4a12d7	-0.049334373
74	0x3db67e90	0.08910859
75	0xbf2f5d4e	-0.68501747
76	0x3f33f96b	0.70302457
77	0x3ba1fb4c	0.004943287
78	0xbeeff5ff	-0.46867368
79	0x3f09d163	0.53835124
80	0x3efb7ff4	0.49121058
81	0x3e8008ca	0.25006706
82	0xbea3a215	-0.31959596
83	0x3e368aba	0.17826357
84	0x3e0cc25b	0.13746016
85	0x3d650e98	0.05592212
86	0x3d5625e6	0.052282237
87	0xbb9eace1	-0.004842386
88	0x3e3d2a60	0.18473196
89	0xbcd635ad	-0.026148641
90	0xbeaf20a0	-0.34204578
91	0x3e1aafdc	0.15106148
92	0xbf4fb911	-0.81141764
93	0x3f0dacfc	0.5534208
94	0xbd9afaeb	-0.0756739
95	0x3e1dc4c3	0.1540709
96	0x3e3181fb	0.1733474
97	0xbdd64465	-0.10462264
98	0x3dd24909	0.102678366
99	0xbf24110a	-0.640885
100	0xbeebc104	-0.46045697
101	0x3ed72fc9	0.42028645
102	0x3d571983	0.052514564
103	0x3e98e190	0.2985959
104	0x3e476b26	0.19474468
105	0xbf923078	-1.1421041
106	0xbe5b3ec3	-0.2141066
107	0x3ec3e239	0.38258532
108	0xbdcd29e9	-0.10017759
109	0x3f23b1b8	0.6394305
110	0x3f0aa95e	0.54164684
111	0xbed7eced	-0.42172948
112	0x3f20e36f	0.62847036
113	0x3edb8d30	0.42881155
114	0x3ecec17a	0.40381986
115	0x3e031793	0.12801962
116	0xbecad3e6	-0.3961479
117	0x3da4bbc8	0.08043629
118	0xbd30a5bc	-0.043126807
119	0x3e893112	0.2679525
120	0x3dfaaeef	0.12240397
121	0x3f14d26d	0.58133584
122	0x3ef91144	0.48645985
123	0xbecb713c	-0.39734828
124	0xbe784124	-0.24243599
125	0xbf84079f	-1.0314826
126	0x3d402e9b	0.046919446
127	0x3e9d7232	0.30751187
128	0xbcae0f7b	-0.021247616
129	0x3e198ac5	0.14994343
130	0x3ebdceba	0.37071782
131	0x3cf92926	0.030415129
132	0xbeb14586	-0.34623355
133	0x3e8faae1	0.28060058
134	0x3e071e51	0.13195159
135	0xbda47bfc	-0.08031461
136	0x3efd5610	0.49479723
137	0xbcfa0abe	-0.0305227
138	0xbf1cc770	-0.6124182
139	0xbc2b6781	-0.010461689
140	0x3db21f4d	0.086973764
141	0x3eeedb2a	0.46651584
142	0xbe437a7c	-0.19089693
143	0x3e1aa501	0.15102006
144	0x3deae27d	0.114689805
145	0xbe3a670a	-0.18203369
146	0x3e204ed0	0.15655065
147	0xbe768d65	-0.24077375
148	0x3e6da5b4	0.23207742
149	0x3ecbcc9f	0.3980455
150	0x3e551695	0.20809396
151	0x3d880d36	0.06643145
152	0x3dc75871	0.09733666
153	0x3ea7efd9	0.32800177
154	0xbf03752e	-0.51350677
155	0x3e0ee58b	0.13954751
156	0xbe8ee9f2	-0.2791286
157	0xbe7001bb	-0.2343816
158	0xbe95ea75	-0.2928044
159	0xbee77669	-0.45207527
160	0xbf074e41	-0.5285378
161	0xbebfdb64	-0.3747207
162	0xbe6c13cc	-0.23054427
163	0xbec0787b	-0.3759192
164	0xbe4745a1	-0.19460155
165	0xbd7ded93	-0.061994147
166	0x3c1a03e2	0.00940034
167	0xbeca6692	-0.3953138
168	0xbdee5efe	-0.11639212
169	0xbe3907dd	-0.18069406
170	0x3d7aa5d8	0.061193317
171	0xbd22ccc9	-0.03974608
172	0x3dd2698b	0.10274037
173	0xbd148120	-0.036255956
174	0x3eae8572	0.34086186
175	0x3e958b28	0.2920773
176	0xbe6cdab6	-0.23130307
177	0xbe9c2399	-0.3049591
178	0x3f02e772	0.5113441
179	0x3de0d0c7	0.10977321
180	0x3f3a5f81	0.7280198
181	0xbe4ef480	-0.20210457
182	0x3d5aa04b	0.053375524
183	0xbe357eb3	-0.17724113
184	0x3eb42ba3	0.35189542
185	0xbe9a7b18	-0.30172038
186	0x3dfa12d1	0.1221062
187	0xbf130516	-0.57429636
188	0x3e05b222	0.13056234
189	0xbd976b11	-0.07393468
190	0xbcd82e53	-0.026389277
191	0x3e2b773f	0.16744708
192	0xbabfa454	-0.0014621117
193	0x3db038db	0.08604594
194	0xbe054634	-0.13015062
195	0xbf06ac0b	-0.52606267
196	0x3deecfaa	0.116607025
197	0x3ee914b1	0.455236
198	0x3f17fb9e	0.5936831
199	0xbf6788e8	-0.9044328
200	0x3f0b7921	0.54481703
201	0xbf8e6793	-1.1125358
202	0x3df374ba	0.11887498
203	0xbf63798c	-0.8885734
204	0x3f6185cd	0.8809479
205	0x3e2d8efd	0.16949077
206	0xbf25f058	-0.6481986
207	0xbed3363b	-0.41252312
208	0xbe8c2c29	-0.27377442
209	0xbf4e2d10	-0.8053751
210	0x3ee9f011	0.4569097
211	0xbecda40a	-0.40164214
212	0x3f4a8280	0.7910538
213	0x3ea4144d	0.32046738
214	0x3e4c4834	0.19949418
215	0x3d55bd16	0.05218228
216	0x3e4912ac	0.19636029
217	0xbd70e777	-0.058814492
218	0x3e393684	0.18087202
219	0xbd0342a6	-0.032045983
220	0x3e35a2e5	0.1773792
221	0x3e727e2e	0.23680946
222	0xbf1f28e8	-0.62171793
223	0x3e0e1bda	0.13877812
224	0x3e119034	0.14215165
225	0xbf7c9a0c	-0.98672557
226	0xbe8cec5b	-0.27524075
227	0x3e0d0372	0.13770846
228	0x3d7b5499	0.061359975
229	0x3ea4f4b2	0.32217938
230	0x3ebfc3ac	0.37453973
231	0xbf066516	-0.52497995
232	0x3f0ec516	0.5576948
233	0xbeb34dd8	-0.35020328
234	0xbef90019	-0.48632887
235	0x3ddb86cb	0.10719069
236	0xbde801d8	-0.11328477
237	0x3da9128a	0.08255489
238	0x3eb34001	0.3500977
239	0x3ce85de4	0.028365083
240	0xbc4e3402	-0.012585642
241	0xbf041a26	-0.516024
242	0x3f08693f	0.5328559
243	0x3dd66c8f	0.10469925
244	0x3ea4eefe	0.32213587
245	0xbf240a3d	-0.6407812
246	0x3f2bd388	0.67119646
247	0xbd047bf7	-0.032344785
248	0xbf0db2d4	-0.55350995
249	0xbe6d714b	-0.23187749
250	0x3ee0351c	0.4379052
251	0xbf5579ff	-0.83389276
252	0xbe54849c	-0.20753711
253	0xbe774b4c	-0.24149817
254	0xbe129574	-0.14314824
255	0x3eda523f	0.42640874
