Pretrained/model/Transformer/BiTran_20.pt (torch, 455484 bytes, 34 tensors)

embed_layer.0.weight f4 [64, 64]
000000 80 fd b4 3e ad 1b ea 3d 0d 6f 48 3c 95 80 0a 3e
       0.35349655 0.1143106 0.012233508 0.13525613
000010 9d 38 3c bf 6c 76 b1 3d 3f 0d 25 3e 9e 06 62 3c
       -0.73523885 0.08665165 0.16118334 0.013795523
000020 f0 a1 ba 3e 76 74 a5 3d ed 19 f4 3e 2f 24 97 3d
       0.36451674 0.08078854 0.4767603 0.07379948
000030 61 f0 9a 3e cf e2 49 3c b9 b4 e7 3d 81 83 65 3e
       0.3026152 0.012322142 0.11313767 0.22413446
000040 bf 07 90 3c 1f fe 25 3d c0 33 62 3e 1c d7 80 3e
       0.017581819 0.040525552 0.22090054 0.25164115
000050 d5 5b cb 3d f4 19 16 3e b3 4c 01 bd f2 9a 47 3e
       0.09929625 0.14658338 -0.031567287 0.194927
000060 7d 93 9a 3d 92 b7 ba 3c 8e 10 95 3d 01 84 7b 3e
       0.075476624 0.022792611 0.07278548 0.24562074
000070 94 0d 82 bc 7a 19 ba 3c 33 b0 0c 3e a6 3a de 3d
       -0.015875615 0.022717226 0.1373909 0.1085103
000080 23 bf 38 3d 86 b4 a8 3d 49 a0 0b 3e 34 f4 00 3e
       0.045104157 0.08237557 0.13635363 0.12593156
000090 49 2b 86 bd 8a 52 2b 3e 9f 02 58 3e f4 7a b4 3c
       -0.06551225 0.16730705 0.2109475 0.022031285
0000a0 49 13 6b 3e c7 0d db 3c 6e 12 42 3d 45 f1 b9 bd
       0.22956575 0.026739968 0.047380857 -0.09079222
0000b0 e2 9d ba bd 2d f5 48 bf cc 67 94 bd 9a 61 6d 3d
       -0.09112145 -0.7849911 -0.0724636 0.05795441
0000c0 ef 08 f3 be f8 0c 5b bd 02 18 42 3f a1 ba 33 3f
       -0.47467753 -0.053479165 0.75817883 0.7020665
0000d0 98 19 d8 3e 11 36 77 3e 3c 47 8e be 00 5b a1 3c
       0.42207026 0.24141718 -0.27788723 0.019696712
0000e0 d1 87 30 bf 0b 67 84 be af b7 dd be d2 e3 09 bf
       -0.6895724 -0.25859866 -0.43304202 -0.5386325
0000f0 ea ac 42 bf 71 f5 10 bf 2e 7a 14 bc a1 df 89 be
       -0.76045096 -0.56624514 -0.009062333 -0.26928428
000100 5b 29 ef bd 08 7e f9 3c d4 1c 03 bd 92 26 6d 3d
       -0.1167781 0.030455604 -0.032009915 0.05789811
000110 a9 d3 25 3d 92 e4 30 3e 1d e0 b3 3d 44 7d 2d 3d
       0.040485058 0.17274693 0.087829806 0.04235579
000120 f1 14 80 bf f9 98 23 3e da 77 e3 3d a3 12 5a 3e
       -1.0006391 0.15976323 0.11106844 0.21296172
000130 d9 40 01 bf a1 d7 62 3c 91 cd 28 bf 56 9c 92 3d
       -0.50489575 0.013845355 -0.6593867 0.07158725
000140 6e 20 81 be de f0 2c 3e 6d ac 6a be 6c ff 12 3d
       -0.25220054 0.16888759 -0.22917338 0.03588812
000150 4e 75 62 be f2 6a 64 3d 7d d0 84 3e 90 3b 73 3c
       -0.2211506 0.055766053 0.25940314 0.014845744
000160 72 b3 d3 be c1 cd a4 3d 4e 4e 41 bc 63 66 7d 3c
       -0.41347843 0.08047057 -0.011798454 0.015466305
000170 fa ee 04 bf c7 bf 29 3e a7 06 af be 4a 02 4e 3d
       -0.5192715 0.16577064 -0.34184763 0.05029515
000180 fa 54 c7 be 8c d1 52 3e 4e 14 ad bd 7b 0b 76 3e
       -0.3893202 0.20587748 -0.084511384 0.24027817
000190 f3 aa fb bd 1a 32 2f 3d b4 54 b6 bd d5 7a 0a 3e
       -0.12288465 0.04277239 -0.089028746 0.13523419
0001a0 5b 0d f5 bd 1e 12 56 3e 67 09 bf 3b 94 4a 51 bd
       -0.11965438 0.20905349 0.0058299783 -0.051096514
0001b0 ae d6 c6 3d 6f 8e 25 bc 4c ca ba 3d 89 87 62 bc
       0.09708916 -0.01010476 0.09120616 -0.013826259
0001c0 80 ae 83 bd 18 36 ea bc 56 fc f4 3e 2b dd 9c 3e
       -0.064297676 -0.028590247 0.47848767 0.30637488
0001d0 3e 7f 14 3e 0c 15 6d 3d bd 64 3e bf 80 82 8d bd
       0.14501664 0.0578814 -0.74372464 -0.069096565
0001e0 b1 12 41 bf b1 e6 bc be ba b9 95 3e 17 90 27 bf
       -0.75419146 -0.36894754 0.2924326 -0.6545424
0001f0 26 2e 17 3e b2 fb 21 bf cc 7e 9b be b4 51 5d 3d
       0.14763698 -0.6327468 -0.30370176 0.054032996
000200 1a 03 26 bd b6 bd b6 3d a7 a7 a8 be 80 2a cd 3c
       -0.0405303 0.08922903 -0.3294041 0.02504468
000210 d4 3b 75 be 28 a7 09 3e 79 3b 07 bf 11 e3 fe 3d
       -0.23948604 0.13442671 -0.52825123 0.12445653
000220 56 cd 0c 3c ce d8 d0 3d 50 fa 7a be 79 06 42 3d
       0.008593878 0.10197602 -0.24509549 0.047369454
000230 f0 2e 89 be 71 e4 d9 3c 84 fe 5d 3e 1f b9 1f 3e
       -0.26793623 0.026598187 0.21679121 0.15597962
000240 de 89 d3 bd 07 23 3e 3d a3 4f 8f bd f2 d7 17 3e
       -0.103290305 0.046420123 -0.069976114 0.1482847
000250 16 8d be be 5f 80 02 3e a0 c5 d8 3d 11 0f f9 3d
       -0.37217015 0.12744282 0.10584569 0.12161077
000260 df b3 88 be 00 82 c2 3d 43 8c 6f 3e fa a8 b3 3c
       -0.2669973 0.09497452 0.2339335 0.02193116
000270 96 85 9b be ea 42 29 3e 32 dd 4d bd 12 92 6e 3e
       -0.30375355 0.16529432 -0.050259776 0.23297909
000280 4c e9 e5 be aa db bf 3d 67 34 fc 3d 72 6e 78 3e
       -0.44904554 0.093680695 0.123146825 0.24260882
000290 61 d0 c7 bd 76 c8 67 3d 75 3d 56 3c 9d c3 18 3e
       -0.09756542 0.05658766 0.013076176 0.1491837
0002a0 a4 a6 2b 3d aa ff 56 3e 43 bb 0f 3d ba f5 f7 bd
       0.041906968 0.20995966 0.035090696 -0.121074155
0002b0 7f 8b 97 be e1 ec 8c be 20 c1 19 bc 42 7e ab be
       -0.29598615 -0.27524474 -0.0093844235 -0.33494765
0002c0 d4 e8 54 be 54 d1 85 3d 2d cb 26 3f 91 0d 1d 3f
       -0.20791942 0.06534067 0.6515377 0.61348826
0002d0 8c 14 00 3f 58 13 a0 3e 3a 4f 4d bf 31 75 23 be
       0.5003135 0.31264758 -0.80199015 -0.15962674
0002e0 83 4a ab bf ff 43 05 bf 73 a8 ed 3e 2f 4d 71 bf
       -1.3382114 -0.5205688 0.4641758 -0.942584
0002f0 2b c2 9e 3e 59 b8 6e bf 68 f1 e1 bd e0 35 19 3e
       0.31007513 -0.9325004 -0.11032373 0.14961958
000300 b3 06 cc 3e cd 52 19 bd 63 27 85 3e 09 b6 14 be
       0.3984886 -0.03743248 0.26006612 -0.14522566
000310 6c 26 bd 3d 6a 91 6c 3d 95 53 85 3f ae f0 34 be
       0.09235844 0.057755865 1.0416132 -0.17669937
000320 35 71 99 be 05 8f 11 be 52 85 30 3f 5e 0d 02 be
       -0.29969183 -0.14214714 0.6895343 -0.12700412
000330 41 d7 1a 3d 45 80 4c bd 52 dd e7 3e be 41 82 bc
       0.03780294 -0.049927015 0.45286041 -0.015900489
000340 61 f3 9d 3e 2a f2 b3 3b f7 67 c3 3e 42 67 d2 bd
       0.30849746 0.0054915147 0.38165256 -0.10273601
000350 82 2b 3c 3e 2e 44 1c be 8a a3 80 3e 7f 6b 81 3c
       0.18375972 -0.15260383 0.2512477 0.015798328
000360 fb 70 7d 3e 95 44 b6 bb 0c 2d 1c bd a2 f5 a9 bd
       0.2475013 -0.005562375 -0.038128898 -0.08298804
000370 cb 69 b8 3c c3 06 ac bd c9 bc 8c 3e 45 5d dd 3b
       0.022511384 -0.08399727 0.27487782 0.0067555034
000380 5f 32 15 3f 6a 0f 17 be 5d e7 d3 bc 75 7d ad 3b
       0.58279985 -0.14751974 -0.025867159 0.0052944967
000390 77 7e be 3e d2 6d 6c 3b 08 d9 6e 3d f8 a4 25 be
       0.3720586 0.00360762 0.058312446 -0.16176212
0003a0 11 7e 3a 3f dd 04 23 be 4c 3b a2 bd 5f 69 f6 bc
       0.7284861 -0.15919824 -0.07921466 -0.030079542
0003b0 33 07 a1 3e ed 53 0f bd ec 0f 5a bd 62 1e ea 3e
       0.31450805 -0.034992147 -0.05323784 0.45726305
0003c0 cd 0c 1b 3e 8e 1e 88 bd c0 0a c7 be 8d 58 41 be
       0.15141602 -0.06646453 -0.3887539 -0.18881436
0003d0 28 38 96 be 5a 4e c6 bd 67 30 06 3f 19 19 4d 3d
       -0.2933972 -0.09682913 0.52417606 0.050072763
0003e0 90 e3 73 3d c0 80 d3 3e d2 9b 33 bf 92 36 11 3f
       0.059543192 0.41309166 -0.7015964 0.5672389
0003f0 74 ef 0f bf 67 0a e6 3e 84 3e bc 3d d8 c2 25 be
       -0.5622475 0.4492981 0.091916114 -0.16187608

embed_layer.0.bias f4 [64]
000000 03 99 72 3e e6 6b 59 3e eb 26 9c 3f 43 b0 13 3f
       0.23691182 0.21232566 1.2199377 0.5769083
000010 fe a4 04 bf 82 f4 d5 bd 42 c9 1e c0 29 22 81 3f
       -0.5181426 -0.10447027 -2.4810338 1.008855
000020 44 17 2b bf 95 dc f3 3f 2a 63 af bf ca a9 de bd
       -0.66832376 1.9051691 -1.3702137 -0.108722284
000030 8b 3e ad bf f5 c0 11 c0 29 e2 ff bd 31 de f2 3f
       -1.3534712 -2.2774022 -0.124943085 1.8974057
000040 71 69 a6 bf 05 c3 cb bd 01 bf 26 be 36 89 bd 3f
       -1.3000928 -0.099493064 -0.162838 1.4807498
000050 21 3d 98 3f 56 55 fe bf a5 1b ef 3f d9 d2 54 3f
       1.1893655 -1.9869792 1.8680311 0.8313423
000060 66 00 3e bd 33 a2 80 3f 55 34 0d bf 3a aa 81 bf
       -0.0463871 1.0049499 -0.5515798 -1.0130074
000070 98 d7 49 be 90 a9 18 3f 1d b8 e2 bf 4f 7d 09 3e
       -0.19711149 0.5963373 -1.7712437 0.13426708
000080 ac 68 58 bd 07 dc 5c be eb 7a fe 3f 58 75 33 c0
       -0.052834198 -0.21568309 1.9881262 -2.804037
000090 9e 3e be bd 6b fc d3 bf 49 0e 93 bf f7 7b 01 40
       -0.09289287 -1.6561407 -1.1488734 2.0231912
0000a0 96 1b dd bf 90 37 85 3e 36 0e 7b bf 7f f3 86 3e
       -1.7274044 0.26018953 -0.9806856 0.26357648
0000b0 61 87 86 3c 3c 3e 10 bf cc 52 0c c0 b4 1f 62 3f
       0.016421976 -0.5634496 -2.1925535 0.88329625
0000c0 df 11 db bd 60 83 0e 40 95 da 62 3f 5d 51 ea 3e
       -0.10696768 2.2267685 0.8861478 0.457652
0000d0 4d 1f 98 3d ce f0 f4 3e f2 82 0f 40 f1 b1 09 bf
       0.07427845 0.4783997 2.2423673 -0.5378714
0000e0 69 17 c5 bd 4b b3 21 bf 13 a6 e9 bf e8 ef 56 3c
       -0.09623606 -0.63164204 -1.8253807 0.013118722
0000f0 27 48 ff bf 0c 29 bc bf 08 0a 4e 3f 83 e0 8b 3d
       -1.9943894 -1.4700027 0.80484056 0.068299316

embed_layer.1.weight f4 [64]
000000 ab 22 e8 3e ff 05 b4 3e b7 9c 3f 3f 60 aa f7 3e
       0.4533895 0.35160825 0.748485 0.48372173
000010 87 af b9 3e 75 36 55 40 e5 ed 11 3f 07 f8 d8 3e
       0.3626673 3.3314488 0.57003623 0.4237673
000020 8a 74 f2 3e b6 18 11 3f 93 92 f2 3e 2d 8c 45 40
       0.47354537 0.5667833 0.47377452 3.0866807
000030 95 bd cd 3e e4 4a e9 3f 59 77 cb 3f da 54 07 3f
       0.40183702 1.822598 1.5895797 0.5286385
000040 dc df 88 3f fa 3a cd 3e 45 18 0d 3f 97 98 12 3f
       1.0693316 0.40084058 0.5511516 0.57264084
000050 6b be c9 3f f0 8f 22 3f c7 1c 73 3f 94 b8 73 3e
       1.5761236 0.6350088 0.94965786 0.2380088
000060 1a 30 21 40 e2 59 9b 3e 50 04 24 3f 54 92 43 3f
       2.518561 0.30342013 0.6406908 0.76395154
000070 13 bd 7d 40 1c 5f 53 3f 9d 37 61 3f f1 ff 49 3f
       3.9646652 0.82567 0.87975484 0.7890616
000080 4b e9 70 40 47 57 0c 40 3c 13 32 3f 4a 42 65 3f
       3.764239 2.192827 0.695606 0.89554274
000090 25 6d 6d 40 df cd 37 3f dd 92 f8 3e 1d d8 a9 3f
       3.7097867 0.7179851 0.48549548 1.3269078
0000a0 d8 63 22 3f c3 40 11 3e eb 39 03 3e 64 33 44 3e
       0.634336 0.14184861 0.12815063 0.19160229
0000b0 62 53 2a 3f ef c7 29 3f be d7 ba 3f b4 92 25 3f
       0.6653348 0.663207 1.4597089 0.64676976
0000c0 b0 fc 21 3f fd 25 ba 3f ed ce cf 3e 78 d6 0a 3f
       0.63276196 1.4542843 0.4058756 0.54233503
0000d0 32 e7 a8 3e c3 0c 01 3f 16 95 cc 3f 0e 42 30 3f
       0.32988888 0.504101 1.5982997 0.6885079
0000e0 41 c2 aa 40 1c 0c 4b 3f 8a a3 a1 3e f7 b8 18 3f
       5.3362126 0.7931535 0.31570083 0.59657234
0000f0 b8 1c 26 3f 88 55 5b 3f 9b 9b 0c 3f f3 1f 1f 3f
       0.6488757 0.85677385 0.54924935 0.62158126

embed_layer.1.bias f4 [64]
000000 45 49 91 3e 3e 28 b4 3d c5 90 4a 3e 0c 37 85 3d
       0.28376213 0.08796738 0.19781788 0.0650464
000010 37 d7 00 3f c6 fb 80 3d b9 d3 05 3f 0d f4 e1 be
       0.5032839 0.06298022 0.5227619 -0.44131508
000020 3a c3 8c bc 1f b7 4b be 46 67 61 bd f3 7a 8a 3d
       -0.017182935 -0.19894074 -0.05503013 0.06761732
000030 94 df f5 bd e3 6d 53 be d0 3b 57 3d b7 07 b4 be
       -0.12005535 -0.20647387 0.052547276 -0.35162136
000040 ff 3f 42 3e 6e 10 24 bd cc 5b dd 3d 06 cb ca bb
       0.18969725 -0.04005473 0.108085245 -0.006188753
000050 18 97 54 be 0a ec 80 3e 52 cc e2 3d bb c2 f9 3c
       -0.20760763 0.25180084 0.11074127 0.030488363
000060 0f 7e 61 bd cb 60 7e 3e de a4 31 3e 21 50 66 3e
       -0.05505186 0.24841611 0.17348048 0.22491504
000070 2b a0 09 3c 0c 50 3c bd 6e eb be bd 23 75 5e bc
       0.008400003 -0.045974776 -0.093222484 -0.013577732
000080 8e dd 21 3d fe b9 d2 3d 7e fb 39 bf 28 65 2d 3f
       0.03951793 0.102893814 -0.7264937 0.6773248
000090 f8 96 3f 3d 4e aa c3 3e 23 5b 5e 3e f5 ad 80 3e
       0.046774834 0.3821587 0.21714453 0.2513272
0000a0 a6 a3 d9 3e 6b a2 d2 bc d7 30 9f 3e 6c e1 2e bc
       0.42507666 -0.025712213 0.3109195 -0.010673862
0000b0 39 62 c8 3d 1d 59 80 3e 8d 38 6b be 25 f7 0a bd
       0.097843595 0.25067988 -0.22970791 -0.0339271
0000c0 8a db ea 3c 00 2e 5b 3e 55 1a cc be eb cb 25 bf
       0.028669138 0.21404266 -0.3986384 -0.6476428
0000d0 44 08 b5 3d ab 7d 99 bd 3e 2f 7e 3e d9 7b e0 3e
       0.08839467 -0.074946724 0.24822709 0.43844488
0000e0 2b 27 2c bd 33 0c 88 be 3c 72 f2 bc ac e0 96 3d
       -0.04202954 -0.26571807 -0.029595487 0.073670715
0000f0 46 17 88 3e 3b 13 a5 3e 87 b6 ac 3c 1c 47 56 3e
       0.26580256 0.32241234 0.02108313 0.20925564

positional_encoder.feature_projection.weight f4 [64, 64]
000000 11 93 24 3e 7e ac 3d 3f 9c 87 3a 3f 10 64 11 bf
       0.16071726 0.7409133 0.72863173 -0.5679331
000010 3c 9e 83 3d 25 83 0a bf 2e f9 a3 be 43 a3 01 3f
       0.06426665 -0.5410636 -0.32026047 0.5063974
000020 5c 39 90 be dd 64 53 bf d9 d4 5c be 08 a7 38 3f
       -0.28168762 -0.8257578 -0.2156557 0.7212987
000030 0a a5 f5 3e a5 ab b6 3d 25 1f 0a 3f 8d 69 8a be
       0.47977477 0.08919457 0.5395377 -0.27033654
000040 93 b9 f2 be b8 9d 15 bf 95 d3 2c bf 90 c6 0f bf
       -0.47407207 -0.58443785 -0.6751035 -0.5616236
000050 6c 26 ad 3e bd a9 a3 3e 62 1c d6 3c ca 31 bc be
       0.33818376 0.31965438 0.02613658 -0.36756736
000060 1b 31 69 3e 6e 87 27 bf 87 53 a0 bf 09 fb 41 3f
       0.22772638 -0.65441024 -1.252549 0.75773674
000070 4f cf 63 3e 37 0e 6a 3e 6d 5a b2 3e 8d c5 28 3f
       0.2224705 0.22856985 0.34834614 0.6592644
000080 63 de 63 3f 24 9d 9a 3d 6d df 7d be 9c 94 c0 be
       0.8901121 0.075495034 -0.24792261 -0.3761338
000090 39 90 39 bf b6 cc 6e be dc 3c 05 bf 08 6c 1b be
       -0.7248569 -0.23320279 -0.5204599 -0.1517793
0000a0 37 30 50 bd c4 3c 61 3e 0c 1b ef 3e 6c 80 9a be
       -0.05082723 0.21995836 0.46700323 -0.30176103
0000b0 cb 42 be bd ae 3b 76 3f 2b 1b 16 3e 14 54 33 bf
       -0.092900835 0.96184814 0.14658801 -0.7005017
0000c0 1a ec 14 3f 83 68 29 be 84 0d 10 3d dd 3c 93 3b
       0.5817276 -0.16543774 0.03516914 0.0044933395
0000d0 bf 58 50 be fc 0f c7 be 11 f5 91 be 6c ff 3d 3f
       -0.20346354 -0.38879383 -0.28507283 0.7421787
0000e0 95 86 21 bf c9 32 2e 3f 73 fb 37 be 2f 67 73 3f
       -0.6309598 0.6804624 -0.17967014 0.9507932
0000f0 36 aa 1a 3f 20 b6 55 bf 9a 48 8f 3f 5a 91 97 be
       0.6041597 -0.83481026 1.1194031 -0.29603082
000100 68 80 9b be ce fa fc 3d cd f3 ca 3d e2 68 c7 be
       -0.30371404 0.12352525 0.099097826 -0.38947207
000110 92 d6 32 3e 88 76 61 bd ad 87 94 be 80 ec 15 3e
       0.17464665 -0.05504468 -0.29009762 0.14640999
000120 73 ae d0 3e c2 d1 09 3e 9d 5a 50 bf 80 bf 20 3f
       0.40758094 0.13458923 -0.81388265 0.62792206
000130 3d ae d4 bd 49 e4 fc 3c 33 60 88 3d 08 44 4e 3d
       -0.10384796 0.030870574 0.066589735 0.05035785
000140 3e e1 8f bd f3 78 25 bd ec cc 40 bf 33 ff a1 3e
       -0.070253834 -0.04039855 -0.75312686 0.31640014
000150 a2 58 00 3f 04 07 79 be 07 9b b2 bd 62 98 e1 3e
       0.5013524 -0.24319082 -0.08720975 0.4406157
000160 3c 79 9e be 1b ff 4c 3e 14 67 91 be 9b f3 78 3e
       -0.3095187 0.2001919 -0.28398955 0.24311678
000170 6e 45 b0 3e 6d 61 ba 3e 33 e3 9a be 6e 90 80 3e
       0.3442797 0.36402455 -0.30251464 0.2511019
000180 8a 77 22 3f 33 e0 d5 3e 69 61 fd 3c e2 bb 01 3d
       0.6346365 0.41772613 0.030930238 0.03167332
000190 fe 04 a9 bc 41 a7 db 39 a2 86 bc bd 55 19 ed 3c
       -0.020632263 0.0004189555 -0.09205367 0.028942743
0001a0 80 c7 8f 3e 21 15 32 3e be ae 7a 3e e5 90 61 3d
       0.28081894 0.17390873 0.24480721 0.055069823
0001b0 b6 44 87 3f ba 7b 2e 3f 19 84 1d 3e 85 d2 ae bb
       1.0567844 0.6815754 0.15382423 -0.0053351545
0001c0 8a 27 3d 3e 3b b5 f5 3d c7 fb fd be 2c da 13 bf
       0.18472114 0.119974576 -0.49606153 -0.5775478
0001d0 78 cd 9b be b0 f2 a3 bd 85 a4 f5 3b ac f3 69 3f
       -0.30430198 -0.08005273 0.007496419 0.9138744
0001e0 ab f6 8f bc c8 ae 9a 3e e9 44 04 be 4a 87 03 3f
       -0.017573675 0.30211473 -0.12916912 0.5137831
0001f0 74 85 9d be 4c e6 68 3e 4d 01 4c 3e 42 ad a4 be
       -0.3076588 0.22744101 0.19922371 -0.32163435
000200 a9 17 12 3d 7f 2c 91 bd 4c b3 da bd 3d eb cb 3d
       0.035667095 -0.07088565 -0.106787294 0.099569775
000210 81 2d 8d be 82 4c 16 3f 4e 4e ea bb ef ca f9 3e
       -0.2757378 0.5871049 -0.007150448 0.4878764
000220 8f c8 66 3d 19 19 9d 3d 3b 78 a3 3e 70 c4 cf be
       0.05634361 0.076708026 0.31927666 -0.40579557
000230 c8 dd 7a 3e 9d dd 00 3d b0 5e 89 3d f0 74 24 3e
       0.24498665 0.031461347 0.06707513 0.16060233
000240 ff 6b b2 bd 87 53 29 bd 70 10 c5 bd ca 1d fd be
       -0.08712005 -0.041339424 -0.09622276 -0.4943679
000250 94 a1 9d 3e fa c4 85 bd 79 f1 a8 3d 5d 79 38 be
       0.30787337 -0.06531711 0.08249182 -0.18015046
000260 3e 76 53 3e 4a 07 99 be 55 64 73 bc 78 8e f8 bc
       0.20650575 -0.29888374 -0.014855464 -0.030341372
000270 c6 e0 4b be 57 3d b8 be c5 46 d6 3d 1d 30 7c 3d
       -0.19909963 -0.359843 0.10462717 0.061569322
000280 6c 66 36 be db f0 48 be f5 ea 4e bc 45 dd 59 be
       -0.17812508 -0.19623129 -0.01262926 -0.21275814
000290 df 1d 88 be 2f 18 f6 bd a2 81 d0 bd c9 10 2f bd
       -0.2658529 -0.120163314 -0.101809755 -0.042740617
0002a0 52 7a 4b bf 99 77 db bc 53 f8 66 bd 58 6d 68 be
       -0.7948352 -0.026790427 -0.056389164 -0.22697961
0002b0 18 08 6d 3e 8a bf 38 be 01 96 25 3d 75 2b de 3e
       0.23147619 -0.18041816 0.040426258 0.4339253
0002c0 1a 71 73 bd 62 81 f2 3d 8b b7 b3 3e f4 d2 c5 3e
       -0.059434034 0.11841084 0.3510097 0.38637507
0002d0 f1 7d 31 3e dd 71 01 bf eb 49 dd 3d ca fe 1c bf
       0.17333199 -0.50564367 0.10805114 -0.6132628
0002e0 47 95 ad be 33 ba 6c be 09 7f 57 3d 4f 15 3c be
       -0.33902952 -0.23117904 0.052611385 -0.18367504
0002f0 52 00 84 bd 36 ce 7e 3d 84 80 13 3e 24 db ba bd
       -0.064453736 0.062208377 0.14404494 -0.09123829
000300 a1 1d b8 be a9 0b bf 3e 72 6a 06 3e 23 bb 49 bf
       -0.35960105 0.37313583 0.13126543 -0.7880117
000310 42 83 0d be c4 8c 0f 40 b0 6f 59 3e 9b 3c 69 3e
       -0.13819602 2.2429667 0.21234012 0.22777025
000320 ca 9f 0c be 18 cd 37 3e b3 2e 94 be 2e 4b eb bf
       -0.1373283 0.17949331 -0.2894188 -1.8382318
000330 68 2d dd bd 46 a2 2d bd 95 1f e0 be c0 fa 7b bd
       -0.10799676 -0.042391084 -0.43774095 -0.06151843
000340 7a cf ce 3e 04 84 9b bd 24 bf 91 be d4 a6 b6 3d
       0.40392667 -0.07593539 -0.2846614 0.08918539
000350 c0 7b 1d bf 39 33 08 be 57 ed f0 bd d5 00 35 be
       -0.6151695 -0.1330079 -0.11764019 -0.17676099
000360 b3 76 bd 3f f0 d1 c8 3d b1 16 36 bf 33 33 cc 3e
       1.4801849 0.098056674 -0.71128374 0.39882812
000370 3d fa 25 c0 eb 20 7c 3d c7 8c 57 3e 42 70 71 3f
       -2.5933983 0.06155483 0.21049796 0.94311917
000380 a6 d4 0e c0 d9 81 80 3f 70 1c 4e 3e ce 11 1c be
       -2.231729 1.0039626 0.20128036 -0.15241167
000390 a8 c3 f1 3f 8f ab 87 be 2f e5 c7 be 3f 2c 32 bd
       1.8887835 -0.26498076 -0.3904204 -0.043499228
0003a0 07 c3 33 bd b7 8e 42 3e d4 ce f8 3e 8d bb b6 bc
       -0.043887164 0.18999754 0.48595297 -0.022306228
0003b0 c1 97 1c 3d 84 8b a9 3e f0 4b 06 3d 7e 07 16 3e
       0.03823066 0.33114254 0.032787263 0.14651296
0003c0 9e b4 95 3e 25 c1 09 bd 61 cd ad 3d 80 aa 69 be
       0.29239362 -0.033631463 0.084864385 -0.22818947
0003d0 00 c5 2f 3d 16 90 68 be b2 fe 39 bb b4 67 b5 3e
       0.042912483 -0.22711214 -0.002838057 0.35430682
0003e0 96 52 72 40 58 9b 19 3e 21 e1 f5 bd 08 fe 0c 3d
       3.7862906 0.15000665 -0.120058306 0.03442195
0003f0 cf 75 db bd aa ff 5d 3e 25 db 17 3e 66 b9 83 be
       -0.107158296 0.2167956 0.14829691 -0.25727385

positional_encoder.feature_projection.bias f4 [64]
000000 1a 33 9e bd 1b bb 40 3f c7 ea 90 bf 2d 7f 7d 3e
       -0.077245906 0.752855 -1.1321648 0.24755545
000010 3c 8f 75 3f 54 b5 51 3f bf 71 62 bf 75 c8 d9 3e
       0.95921683 0.8191731 -0.8845481 0.4253575
000020 f5 12 9f 3d 22 cc 4e 3e fd 6c 40 3e 41 46 30 bf
       0.07767288 0.20195058 0.18791576 -0.688572
000030 62 81 1e bf 7c 51 5e bf c1 cc b5 3e 8b 5a 29 bd
       -0.6191617 -0.86843085 0.35507777 -0.041346114
000040 9c ad 71 bf 23 7c ff 3e 2e ff 08 bf c6 14 ee 3d
       -0.9440553 0.49899396 -0.53514373 0.11625056
000050 61 69 a4 be 82 29 91 bf d4 1b a6 3e ba 1d e7 be
       -0.32111648 -1.1340792 0.32443106 -0.45139867
000060 0b 73 bb 3e ae d7 27 bf 25 c3 d7 bd b8 4a 0c bf
       0.36611208 -0.65563476 -0.10535268 -0.5480151
000070 99 6c de 3c 94 4e e2 bd 2f b9 44 bf 89 49 db 3e
       0.027151393 -0.11050144 -0.7684507 0.4282954
000080 d3 3f 20 bf aa 35 8a 3e d2 3e f9 be 40 3f b6 3e
       -0.6259739 0.26994067 -0.4868074 0.3559513
000090 a5 c6 db 3e 15 6d 54 bf ca e9 8d 3e 17 b9 fe 3e
       0.4292499 -0.82978946 0.2771743 0.49750587
0000a0 66 1f fe bd f5 be 1e 3f 4a b1 88 bd ca 7e f2 3e
       -0.124083325 0.6201013 -0.0667444 0.47362357
0000b0 82 2d da 3b cc 6a a8 3f 8d a5 38 be 56 5b 35 3f
       0.006658257 1.3157592 -0.18031903 0.7084249
0000c0 68 cb 2a 3f ae cf 0b 3f be 11 03 3e ae db bb 3e
       0.66716623 0.5461377 0.12799737 0.3669104
0000d0 ac b9 34 bf 9b 91 cc 3e 68 e1 00 bf 8e c2 93 3e
       -0.7059581 0.39954838 -0.5034394 0.2885937
0000e0 43 07 7d bd a2 ff 46 3f 66 d2 03 bf 7d 6a 76 3f
       -0.061774503 0.77733815 -0.5149292 0.9625624
0000f0 dc d4 8a 3e 6e ad 9a 3e 37 95 29 bf 64 90 ba 3e
       0.27115524 0.3021044 -0.6624331 0.36438286

transformer_encoder.layers.0.self_attn.in_proj_weight f4 [192, 64]
000000 23 99 05 bf 7a 35 51 bf 18 3d 28 be e0 44 00 3c
       -0.52186793 -0.81722224 -0.16429555 0.007828921
000010 1c cf 08 bf cf 08 0b bf b5 49 53 3f a0 b5 87 be
       -0.53441024 -0.54310316 0.82534343 -0.26505756
000020 d1 8b ec 3d 54 8d 9e 3d fb 38 00 be a5 d5 ff 3e
       0.11550105 0.077418 -0.12521736 0.49967685
000030 88 41 09 bf 79 f1 08 3e ef 87 35 be a4 55 97 3e
       -0.5361562 0.13373365 -0.17727636 0.29557526
000040 b7 0a df 3e f9 91 38 bf 74 a1 a0 be 65 ec 86 3d
       0.43562862 -0.72097737 -0.3137318 0.065880574
000050 32 69 05 bf 8c 22 a9 3e e6 b8 ed 3d 3a 2a 21 3e
       -0.5211364 0.3303417 0.11607532 0.15738764
000060 2e 61 7b be 24 3f 18 be cb 79 43 3d f7 a9 94 be
       -0.2454879 -0.14867836 0.047723573 -0.29035923
000070 f0 10 08 bf 27 a8 64 3e 7e b4 60 3d 97 7d f5 be
       -0.53150845 0.2232977 0.05485963 -0.4794738
000080 83 79 2a be d3 73 1e be 9c 94 68 3f ea 17 32 be
       -0.16647916 -0.15473871 0.9085176 -0.17391935
000090 8e 76 00 bf 44 02 81 be 15 3e 45 bd 56 25 5e bf
       -0.501809 -0.2519704 -0.04815491 -0.8677572
0000a0 45 78 b2 3d a1 99 e1 3e a6 23 16 3f 57 6e 69 be
       0.08714346 0.44062522 0.58648145 -0.22795998
0000b0 6e c6 29 bf a5 7f c6 be 42 b4 cb 3e 4c fd 99 3c
       -0.66318405 -0.3876926 0.39785963 0.01879754
0000c0 ba dd cc be fe 51 68 be 74 78 8e 3d 3f 34 06 bd
       -0.40012914 -0.22687528 0.06956568 -0.03276467
0000d0 e4 8a 0f 3f 87 1a 1b bd 99 d6 28 3f da 0a 02 bf
       0.56071305 -0.037867095 0.6595245 -0.5079781
0000e0 f1 d7 a7 3e 4b 20 5e bd bd 6c 05 bc 1e 9e 8c be
       0.32781938 -0.054230016 -0.008143601 -0.27464384
0000f0 fd 6e 01 3f 7e 5a ca be 36 12 01 3f 8f d0 a2 3d
       0.5055998 -0.39522165 0.5041841 0.07949936
000100 71 c6 0a bf eb 32 53 bf 49 2f 8c 3e 5f 20 e7 be
       -0.5420905 -0.8249957 0.27379826 -0.45141885
000110 fb 44 22 bf ca d3 d3 be 1a ee 61 3f 02 be 0a bf
       -0.63386506 -0.4137252 0.8825394 -0.5419618
000120 15 e3 2f 3f 4c 93 d0 bd 5b 80 69 3d e2 4e 2b 3e
       0.68705875 -0.10184345 0.057007175 0.1672931
000130 fa 3a 57 be e2 bc 07 3f 2f b5 53 3e 15 93 56 3f
       -0.21018592 0.5302259 0.20674585 0.8381818
000140 5a 16 8e 3e 04 f6 1a bf 16 20 0d 3e c1 fc 7a be
       0.27751428 -0.6053164 0.13781771 -0.2451048
000150 b9 88 16 bd 9c 57 10 3f fd 28 d6 be 9d b8 f4 be
       -0.036751483 0.5638368 -0.41828147 -0.477971
000160 d8 6f 25 bf ee 4a 0b 3f a4 8d bd be 1f 27 1b bf
       -0.64623785 0.5441121 -0.37022126 -0.6060657
000170 59 d6 56 bf 20 94 00 3f 83 a9 0c 3d e5 00 01 bf
       -0.8392082 0.5022602 0.034341346 -0.5039199
000180 33 a4 3e bf 00 55 cd 3e 6c 8e 25 3f 66 87 94 be
       -0.744693 0.40103912 0.64670444 -0.2900955
000190 1d 45 f5 be 4a c7 2e bf 70 98 d2 be af 7c 20 bf
       -0.47904292 -0.6827284 -0.41131926 -0.6269025
0001a0 a9 5b 7f 3e 5c a1 58 3e 43 dc c7 3e 76 11 9d be
       0.2493731 0.21155304 0.39035234 -0.30677384
0001b0 16 00 8a 3d b9 e8 14 bf 2f 9a 4a be 7c 90 20 be
       0.06738298 -0.58167607 -0.19785379 -0.15680116
0001c0 9c 6a f2 be 00 47 0d bf 96 1c 6e 3e 12 8b 19 bf
       -0.47346961 -0.5518646 0.23253092 -0.5997783
0001d0 20 7f f6 3e e1 86 09 be 20 03 6c 3f 98 7d 46 bf
       0.48143864 -0.13430358 0.9219227 -0.7753539
0001e0 50 95 88 bd ba bf dc 3c a1 be ab 3e a4 af 23 bf
       -0.06669104 0.026946891 0.33543876 -0.6393988
0001f0 6d 30 84 3f 25 12 98 bd 06 47 36 3f 6d 32 18 bf
       1.0327278 -0.07425336 0.71202123 -0.59451944
000200 39 02 17 3e 14 09 a2 3d 01 cb 31 be 82 8a 9a be
       0.14746942 0.07911888 -0.17362596 -0.30183798
000210 2e b1 0c bf b9 f5 82 be f2 c9 8c bd 59 92 d2 be
       -0.54957855 -0.25578097 -0.068744555 -0.4112728
000220 82 97 a2 3e 12 68 a2 3e 83 c3 9d 3e 49 a7 af be
       0.31756216 0.31720024 0.30813226 -0.34307316
000230 79 dc a3 be da c6 18 3f 64 23 bf 3e 95 60 2d bd
       -0.32004145 0.59678423 0.37331688 -0.042328436
000240 2a 1a b4 3e 71 87 b5 be 79 03 51 3f 40 0f 2c be
       0.35176212 -0.35454896 0.81645924 -0.16802692
000250 79 f0 1b be c4 e5 06 3f 6c 58 5e be b5 22 10 be
       -0.15228452 0.52694345 -0.21713418 -0.1407574
000260 62 99 25 3f ef 5d b2 3e 77 cd 2a bd ab 26 c7 3d
       0.6468717 0.3483729 -0.041699853 0.09724172
000270 76 a0 55 be 2f e4 e3 3e 4e 27 ce be dc 50 2b be
       -0.20861992 0.44510028 -0.40264362 -0.16730064
000280 ad 6c 89 bd b1 a0 9a 3e 87 05 b9 3d 8b 69 8a bd
       -0.067101814 0.30200723 0.090342574 -0.06758412
000290 a6 7b d4 be 9d ce 71 be 17 3a d7 bd 43 74 1b 3e
       -0.41500586 -0.23613973 -0.10509127 0.15181069
0002a0 be 9b 1b 3f 4e 4b fd be ef 75 b2 3e 94 8d 25 bd
       0.6078452 -0.49471515 0.348556 -0.040418223
0002b0 c1 53 ef be 99 65 21 bf ab 0f 74 be f3 d1 ba 3e
       -0.46743587 -0.6304565 -0.23834102 0.36488304
0002c0 57 53 ba 3e d8 cb c1 be 03 66 13 bd 9b 3c 34 bf
       0.36391708 -0.37850833 -0.035985958 -0.70404977
0002d0 67 92 b9 3e dd 2c f3 be e3 02 93 3e aa 9b 20 be
       0.3624451 -0.47495165 0.2871314 -0.15684381
0002e0 21 8b 23 3f 0a a4 c1 3d 58 ba 11 3f c7 0e 4f 3e
       0.6388417 0.09455116 0.56924963 0.20220481
0002f0 09 2b 65 be 2f 3d dc 3e 3a 34 a9 bd 60 33 90 bf
       -0.22379698 0.4301543 -0.082619146 -1.1265678
000300 7d 55 17 3e 8b 70 95 be 9e f8 37 bd 51 96 39 be
       0.14778705 -0.29187426 -0.044914834 -0.18123747
000310 20 33 0e bf 9e 9e 3d be f8 27 7e 3d 38 46 02 be
       -0.5554676 -0.18517539 0.062049836 -0.12722099
000320 5f 09 da 3d 77 8e da 3e 86 b5 8d 3e f9 eb 00 bf
       0.10646319 0.42686817 0.27677554 -0.50360066
000330 21 78 61 be 3a a9 c2 3e a7 c0 e3 3e 6d f3 e0 3d
       -0.22018482 0.38019735 0.4448292 0.1098393
000340 d8 1a 74 3e 35 0b 82 be ea 70 0e 3f 11 d8 b6 be
       0.23838365 -0.25399175 0.55641043 -0.3571172
000350 69 08 8c be bc 9b 5e 3e d9 27 bc bd 16 06 b3 bc
       -0.27350166 0.21739095 -0.09187288 -0.021853488
000360 aa c6 e0 3e c4 e0 dd bd b9 34 e7 bd 82 37 77 be
       0.4390157 -0.10833886 -0.11289353 -0.24142268
000370 e5 09 e0 be 5a a5 95 3d cf e9 aa bd cf 2d f7 3d
       -0.4375755 0.07306929 -0.08345377 0.12069284
000380 cd e5 80 be 21 c5 0a bd f8 8c 88 3e 39 f2 35 be
       -0.25175324 -0.033879403 0.2667005 -0.17768182
000390 1d d0 03 bf db 91 a2 bd 4f d6 95 3c 13 8a 87 be
       -0.5148943 -0.07937976 0.018290667 -0.2647253
0003a0 ce d9 c8 3e e1 f0 13 be 28 e9 77 3e ba 14 00 3d
       0.39228672 -0.14447357 0.24210036 0.031269766
0003b0 8c 63 17 bf f6 47 11 bf 44 1a ad be 4b e2 98 3e
       -0.5913627 -0.5675043 -0.33809102 0.29860148
0003c0 02 e7 5f be 8a ec 47 be 9a e8 c5 3c d5 cf 45 be
       -0.21865466 -0.19523826 0.024158765 -0.19317563
0003d0 53 56 dc 3e f8 04 17 3c b6 40 cf 3e 8f db 99 be
       0.4303461 0.009217493 0.40479058 -0.30050322
0003e0 66 bf 64 3f 4b 1e 07 be 8e 20 44 3e 70 77 a6 3e
       0.8935455 -0.1319515 0.19153044 0.32513
0003f0 09 1f 45 be 9f a2 43 3e 48 de 35 be cf f0 35 bf
       -0.1925012 0.19105004 -0.17760575 -0.7107057

transformer_encoder.layers.0.self_attn.in_proj_bias f4 [192]
000000 0b f3 d8 bd 22 f1 c8 be e6 5f 5a bf 1f 2e 3b bf
       -0.10593232 -0.3924647 -0.8530258 -0.7311725
000010 4e 46 39 bf a6 34 ed bd 64 b4 a3 3d 75 16 72 bf
       -0.723729 -0.115823075 0.07993391 -0.94565517
000020 1c 53 06 3f ae c4 b0 3e 6c 83 e8 3e f0 ed 0f 3f
       0.52470565 0.34525055 0.45412767 0.5622244
000030 63 45 ac 3e 37 2f cd be c8 e1 71 3e a0 97 4d be
       0.33646688 -0.40075085 0.23621285 -0.20077372
000040 70 44 b1 3f f9 ca 5c 3f d2 de 95 3e 06 81 62 3e
       1.384901 0.8624721 0.2927156 0.22119531
000050 b7 4d ab bf 2d c0 45 bc 13 d4 df be 65 a0 bf 3f
       -1.3383092 -0.012069744 -0.43716487 1.4970824
000060 a5 b7 9c bf aa 95 50 3d 53 e9 f3 be 91 18 b1 3d
       -1.2243544 0.05092398 -0.4763895 0.08647264
000070 fe 3e 34 3f 45 13 97 be 05 6d 49 3f 56 f7 d0 3e
       0.7040862 -0.2950689 0.78681976 0.40813702
000080 6b 07 0b bf a1 8c e2 be 0d e7 49 be 0a 83 e3 be
       -0.54308194 -0.44247916 -0.19717045 -0.44435912
000090 97 23 cb 3e 7f 3c 72 3d ea bb 2a bf cf dd a7 be
       0.3967559 0.059139725 -0.66692984 -0.32786414
0000a0 62 4e 7d 3e 5e cf fa be b6 92 69 bf 75 a4 f8 3d
       0.24736932 -0.48986334 -0.9123949 0.12140743
0000b0 d1 12 32 3f b0 ba 78 3d ad 43 8b bf 1c ce 8b 3d
       0.6955996 0.060724914 -1.0880028 0.068264216
0000c0 1e 58 a2 be 1c 9e a3 3e 68 56 59 3c dd 65 ae 3c
       -0.31707853 0.31956565 0.01326523 0.021288807
0000d0 e1 14 22 3f 1b 15 5e bf 08 e0 43 3e 1d 13 6c bd
       0.6331311 -0.86750954 0.1912843 -0.057635415
0000e0 40 63 09 3f 29 5b a7 be ce ed e9 3e 9d 47 13 3f
       0.5366707 -0.32686737 0.45689243 0.5753115
0000f0 e2 68 a2 3e dd af 80 3e 12 39 2c bf 7e 7c 16 bf
       0.31720644 0.25134173 -0.6727458 -0.5878371
000100 c8 08 47 40 c9 db 81 40 50 79 96 3f 54 86 0c 40
       3.109911 4.0580792 1.1755772 2.1956987
000110 ea ef 0a 40 6b 5c 6a 40 7e 87 04 bf 11 79 8a 40
       2.1708932 3.6618907 -0.51769245 4.3272786
000120 43 06 39 c0 57 aa 32 c0 da b7 16 be 2c 22 7d c0
       -2.8910072 -2.7916467 -0.14718571 -3.9552107
000130 b2 6f 84 c0 9d ea 85 40 b1 a7 06 bc f9 f7 52 bf
       -4.1386347 4.1848893 -0.008218692 -0.82409626
000140 99 eb 57 c0 c1 22 0b c0 50 09 94 bf e6 ce e0 3f
       -3.3737547 -2.1739962 -1.1565342 1.756314
000150 48 70 5b 40 9e 52 95 be aa 6f 95 3f f6 9f 6c c0
       3.428728 -0.29164594 1.1674702 -3.6972632
000160 68 12 81 40 50 f4 87 3d a7 a5 e3 3f de bd 4e bf
       4.033497 0.06638396 1.7784928 -0.80758464
000170 20 f0 18 c0 a4 7b 4c 40 2e a2 41 c0 16 23 1d c0
       -2.389656 3.1950464 -3.0255237 -2.4552665
000180 75 b8 61 40 a7 7c 80 3d 1d f6 3b 40 bb 10 3a 40
       3.5268834 0.062737755 2.9368966 2.9072711
000190 d6 bb 3e c0 08 d9 e0 3f 20 3a 3a 3f 28 f4 44 40
       -2.9802146 1.7566233 0.7274494 3.077402
0001a0 95 cc 43 bf 48 93 52 40 ca d4 9d 40 bb a7 17 c0
       -0.7648404 3.2902393 4.932225 -2.3696125
0001b0 4e ec 98 bf e5 24 0d 40 24 57 9f 40 7c a0 4e 3f
       -1.1947114 2.2053769 4.9793873 0.8071363
0001c0 cf a4 0b bf 21 b4 16 bf ef b3 2e 40 a6 56 b4 bf
       -0.5454835 -0.58868605 2.7297323 -1.4088943
0001d0 b3 09 53 c0 bc 73 cd 3f c6 1b a9 bf 04 71 07 c0
       -3.297467 1.6050944 -1.3211601 -2.116273
0001e0 5d 50 7b bf 42 e3 4e 40 21 cd 82 c0 ba ef 14 c0
       -0.981695 3.2326207 -4.08754 -2.3271317
0001f0 cc 96 38 c0 2a 40 85 bf 58 6e 07 40 29 bd 03 40
       -2.884204 -1.0410206 2.1161098 2.0584204
000200 0f c1 f9 3d 4f 2d 56 3e 5e f6 b7 bc 55 30 62 3c
       0.12195026 0.20915721 -0.022456344 0.013805469
000210 5c 6c fe bb 9b b6 cf 3d 51 70 15 3d bf 77 83 3c
       -0.0077643823 0.10142251 0.036484066 0.01604831
000220 77 57 a8 bd 77 68 2f bc 51 47 9f bd 48 c0 04 bc
       -0.082198076 -0.010706059 -0.077772744 -0.008102484
000230 64 73 2a 3e ab d9 4f 3d e2 b4 33 3d 51 a4 d1 3d
       0.1664558 0.050744694 0.043873675 0.10236419
000240 e4 a3 b1 3d 6b 3a 69 3d 91 74 22 bd 62 20 c0 39
       0.08673838 0.056940477 -0.039661948 0.0003664522
000250 2f 34 5a bd 3d 12 c2 bd 18 4b 66 bc 86 26 c8 bd
       -0.053272422 -0.09476135 -0.01405599 -0.09772973
000260 73 10 d9 3d 99 22 8e bd 6a 64 a7 bd ed da 4e 3b
       0.105988406 -0.06940193 -0.08173449 0.0031563595
000270 be 59 88 3c 7a 6e ac bd 90 7b b1 bc d8 2b fc bd
       0.016644355 -0.08419509 -0.021665365 -0.1231305
000280 69 b6 09 3e 5c 22 6c bc 51 d2 cd 3d 21 27 f2 3c
       0.1344849 -0.014412489 0.1004988 0.029559674
000290 77 fb b8 3d 13 5b ff 3d 90 dd 45 bd 0e 21 96 3c
       0.09032338 0.12468543 -0.048307 0.018326309
0002a0 2e 94 9e bd 29 ee 93 bd 95 76 bb 3d 7b b1 10 3e
       -0.07743107 -0.0722316 0.09153477 0.14130203
0002b0 86 53 8d bd b3 10 91 3d de 4d a7 bd ed a0 90 3d
       -0.069006965 0.07083263 -0.08169149 0.07061944
0002c0 90 1b 83 bd 0f f1 9c 3c 0a 5c ff bc ad ea 69 3c
       -0.064017415 0.019157914 -0.031171817 0.0142771425
0002d0 a9 2d 62 3e 64 40 11 bd 25 a7 00 3d 8f 2b d7 bb
       0.2208773 -0.0354618 0.0314094 -0.006566472
0002e0 9c af ba bd de 18 31 be bd 52 91 3c b4 41 2f 3d
       -0.09115526 -0.17294642 0.017739648 0.04278727
0002f0 aa cb 8f bd 8c 4a 15 bd 18 99 fe 3c ae d0 29 bd
       -0.07021268 -0.036448047 0.03107886 -0.041458778

transformer_encoder.layers.0.self_attn.out_proj.weight f4 [64, 64]
000000 74 b2 3f 3d 98 73 12 bd 09 1b 95 3d 0d ce 77 3d
       0.046801046 -0.03575477 0.07280547 0.06049924
000010 bd c2 f9 bd cc 35 68 bd 26 43 e8 bc bf 52 56 bc
       -0.121953465 -0.05669193 -0.028352331 -0.013081252
000020 35 7e 19 3c 68 8f 0f bd 26 ec 66 3c 2e 51 a0 3d
       0.009368469 -0.035048872 0.014094388 0.07827984
000030 4f ad 2a 3d c5 41 75 bd 5c 63 d5 3c 99 04 c1 3d
       0.041669186 -0.059877176 0.026048355 0.09424705
000040 99 53 87 3c 15 6d 14 3e c5 de 91 bc 84 48 0e bd
       0.016519355 0.14494736 -0.01780642 -0.034737125
000050 db 86 16 3d 30 3a e1 bd 08 d5 d6 bd e0 1e 81 bd
       0.036749702 -0.109974265 -0.10489851 -0.06304717
000060 8f 53 02 be a7 03 a3 3d 43 fd 2f bd 35 c8 f2 bd
       -0.12727188 0.07959681 -0.04296614 -0.11854593
000070 8f 24 40 bd a9 f5 9e bd 17 02 c5 bb a9 2e c2 bd
       -0.046909865 -0.077617 -0.006012212 -0.09481556
000080 e6 12 4a be 48 7f 0b bc 97 6c 86 3d 20 45 27 3b
       -0.19733772 -0.008514233 0.065636806 0.002552338
000090 d4 fd 80 3c a4 4b 12 bd df 9c 69 bd f9 0d db 3d
       0.015746035 -0.035716668 -0.05703437 0.106960244
0000a0 1b 48 58 bd 5b f6 01 3d 81 8a 04 bd 0e 5a e0 3d
       -0.05280314 0.031729084 -0.03235865 0.109546766
0000b0 2d 23 85 3c 3d da 3e 3d 14 25 a0 bc 1f 3b 56 3d
       0.016252125 0.046594847 -0.01954893 0.052302476
0000c0 54 2f 11 bd d1 c9 b7 3c e1 01 b2 3c 3b 72 14 3d
       -0.035445526 0.0224351 0.021729412 0.03624175
0000d0 22 49 1e bd eb d6 e3 3d 17 7c ca 3c 71 81 5b bc
       -0.038643964 0.11124977 0.024717374 -0.01339756
0000e0 c6 1a 4f 3d 91 4b 26 3d 80 ad 2a 3d 9e b5 bf bb
       0.050562643 0.04059941 0.04166937 -0.005850508
0000f0 19 48 67 bd 2c 9e c8 3c e1 bf 39 bd 07 38 1b 3b
       -0.056465242 0.024489485 -0.045349006 0.0023684518
000100 37 c9 13 3e 03 8c ac 3d 20 c6 f8 3c 18 59 1c bd
       0.14432226 0.084251426 0.03036791 -0.038170904
000110 f7 2d bf 3d 7e 47 eb 3c 87 e0 77 bd 7b a6 b0 bd
       0.09334939 0.028720614 -0.06051686 -0.08625504
000120 88 37 96 3e 30 95 1f 3d b9 ed a2 be 5b fe 08 be
       0.29339242 0.038960636 -0.31821993 -0.13378279
000130 69 f1 91 be 2c 2d 09 be 6f b4 44 be 72 6c 48 bc
       -0.28504494 -0.13396138 -0.19209455 -0.012232887
000140 63 b2 68 bd d3 81 f1 bd f1 7a 32 3d 6d b9 81 be
       -0.056810748 -0.1179234 0.043574277 -0.2533678
000150 29 09 90 3d b1 84 0a 3e e2 1e 70 3e 91 94 83 be
       0.07032997 0.1352718 0.23449281 -0.25699285
000160 1d 03 0e 3d d2 fc 22 3d 3b a9 38 3a d0 d3 05 3e
       0.034670938 0.03979189 0.000704426 0.13069081
000170 01 10 a0 bc 2b 09 35 3d ee 94 5d bd 34 c8 f7 bd
       -0.019538881 0.044198196 -0.05409711 -0.120987326
000180 a9 19 9f bd 09 01 03 3c 40 1c 1d 3e b0 31 43 bc
       -0.07768566 0.007995852 0.15342808 -0.011913702
000190 dd c9 1b be 2c 06 a0 bd e4 d3 e2 3d 80 ff 4f bd
       -0.15213723 -0.07813677 0.11075571 -0.050780773
0001a0 04 2a 63 bd ab c1 0c 3e 68 4f 7a 3d 70 4a 77 3e
       -0.05545999 0.13745753 0.061110884 0.2414949
0001b0 8f 5d 00 be 09 d2 2a be 3a 5e b8 3d 38 d5 95 be
       -0.1253569 -0.16681685 0.09002347 -0.29264235
0001c0 04 14 f9 bd 7d 49 c5 bd c8 83 e9 bd c1 09 a5 3d
       -0.12162021 -0.096331574 -0.114020884 0.08058501
0001d0 b8 a6 36 bb 0a 42 9d bd b0 a8 65 bc 03 4b b4 bc
       -0.0027870368 -0.076786116 -0.014017269 -0.022008425
0001e0 48 3a b5 3c ec 6e 81 3d 2e f9 3a be 08 12 d0 3d
       0.022122517 0.06319985 -0.18259117 0.10159689
0001f0 ab 1c 58 bc 7a 8f b2 3d 35 c7 cc 3d 64 97 1c be
       -0.013190429 0.08718772 0.09998933 -0.15292126
000200 2a 9c 22 bd ea d9 1c be ce 50 7a bd 5a fa f9 bd
       -0.03969971 -0.15317503 -0.061112218 -0.12205954
000210 61 7f be bc 93 37 ba 3d 0e a3 45 3d 2e 6f d2 3d
       -0.023254098 0.09092631 0.048251204 0.10275112
000220 71 74 ed 3d d5 e5 0e bd c8 db 1a 3e 33 22 3e be
       0.11594475 -0.034887154 0.15122902 -0.18567733
000230 c7 15 66 3e db 15 cf 3c 27 bc 95 3c 24 90 c5 bc
       0.22469245 0.025278976 0.018278195 -0.024116583
000240 1b c1 0d bd 33 ce d0 3d 5d 00 bd bd f9 95 81 bc
       -0.034607988 0.101955794 -0.09228585 -0.015818583
000250 a3 e1 b2 bc ac 1d db bd 50 5a 39 bd 5e f3 f1 bd
       -0.021836108 -0.10699019 -0.045252144 -0.11813997
000260 1a 6f da be d8 7c dc 3c ea dc 85 bd 69 94 15 3e
       -0.4266289 0.026914999 -0.06536277 0.14607395
000270 8f b9 49 3e 1c d0 42 bd ca 95 92 3e 72 d6 3d bd
       0.19699691 -0.04756175 0.28629905 -0.04634709
000280 c1 8b 3d 3e e9 6b 15 3e bb fe 5c 3c dd 14 93 bd
       0.18510343 0.14591946 0.013488467 -0.07181714
000290 9b cc 23 3d 87 d6 57 bd f2 ec fd bc a0 bc 54 be
       0.03999005 -0.052694824 -0.030996773 -0.2077508
0002a0 af 60 a4 bd 94 e9 bf bd 4f 83 0d 3d 1b 94 18 be
       -0.080262534 -0.09370723 0.034549054 -0.14900248
0002b0 aa da 09 be cd de 26 3e f7 61 c4 3a 96 97 e6 3d
       -0.1346232 0.16295929 0.0014982809 0.112593815
0002c0 bd cf 43 3e b1 3e 5a 3e 96 e4 4a 3d 84 8f 9d 3d
       0.19122215 0.21312977 0.049534403 0.07693389
0002d0 0e 46 98 bd 91 28 3f bd 0a 4f 14 be 8f 72 f9 bc
       -0.07435237 -0.046669547 -0.14483276 -0.030450134
0002e0 02 2d 6a bd 72 08 c7 b8 a7 89 07 3e 31 c7 91 3c
       -0.05717183 -9.4906325e-05 0.13236104 0.017795177
0002f0 78 db f7 bd fa 5b 04 bd fe 7c 64 bd 19 a9 1b bc
       -0.12102407 -0.03231428 -0.055783264 -0.009500765
000300 54 7f 03 bb 30 82 9b 3c 67 23 13 3d ac 00 74 bc
       -0.0020064907 0.018982977 0.035922434 -0.014892738
000310 37 44 38 3d 25 b8 9a 3c fb 01 b0 bc b0 17 22 bd
       0.04498693 0.018886635 -0.02148532 -0.03957337
000320 88 cc ba 3a b1 7f 8f 3c 7a 72 4f bc 47 ef 0b 3d
       0.0014251629 0.017516943 -0.012661571 0.03416374
000330 0a 40 1f 3c 1d ed 70 bc e0 7a a5 3c da b2 b1 bd
       0.009719858 -0.01470497 0.020200193 -0.08676691
000340 2f d5 0d 3c a7 16 d9 3d 92 b7 41 3c 53 e7 fa bc
       0.008656784 0.10600024 0.011823552 -0.030627882
000350 27 62 45 bd 27 6d 8a 3c 64 1c 71 3b aa 15 bb bd
       -0.04818931 0.016897751 0.0036790604 -0.091349915
000360 82 10 9e 3d c0 24 07 bd 9a 98 a2 bd af 8a 9c 3a
       0.07717992 -0.032994032 -0.07939263 0.0011943186
000370 67 1a 24 3d bc 0d 91 3d 71 03 2c bd 74 c4 2e 3c
       0.04006424 0.07082698 -0.04199547 0.010666955
000380 26 57 29 bd 94 aa 3e bd 57 48 0d bb d2 0e d2 3d
       -0.041342877 -0.046549395 -0.002155801 0.10256733
000390 31 27 b9 bd ac 29 c3 3c 13 d1 9d 3a 2a 83 22 bd
       -0.09040678 0.023823582 0.0012040458 -0.03967587
0003a0 d6 43 80 3d e9 8e 99 bb 0f 4a f8 3b 09 cf 1e bd
       0.06262939 -0.0046862257 0.007577188 -0.038771663
0003b0 b9 73 c1 3c 0f 0c bc 3d dc 9f e6 bb a7 d6 63 3d
       0.023614751 0.091819875 -0.0070380997 0.05562463
0003c0 9e 2d 23 3c bf 91 70 3d e6 88 6c 3c 6a 3e a4 3d
       0.009959606 0.058732744 0.014436936 0.08019717
0003d0 67 e6 eb bd 49 0f 90 3a 82 d2 84 bd 5b c0 a7 3c
       -0.11518555 0.0010990883 -0.06485464 0.020477464
0003e0 d8 ef ab 39 79 44 1a bc bb 29 10 3d 67 f7 7b bc
       0.0003279436 -0.009415739 0.035196047 -0.0153788095
0003f0 06 18 1e 3d d2 3a f0 3b cf 27 0c bd 76 8d 9e 3c
       0.03859713 0.0073312307 -0.034217652 0.019354563

transformer_encoder.layers.0.self_attn.out_proj.bias f4 [64]
000000 6d 43 80 3e fc 9c 92 be 11 eb ce bf 96 ba 2e 3e
       0.25051442 -0.28635395 -1.6165487 0.17063364
000010 90 6b bb 3f bd 1c 3f 3f 11 f5 bb bb 64 bf d5 3e
       1.46422 0.74653226 -0.0057360013 0.41747582
000020 d9 a5 32 3d 65 64 db 3e 68 06 cc be dd ce 55 3f
       0.043615196 0.42850032 -0.39848638 0.83518773
000030 ad 8c 76 bf 5b ec 0b bf 8a 43 c4 be 31 96 b8 3e
       -0.96308404 -0.54657525 -0.38332778 0.36052087
000040 26 c4 9a be 4e 0d 39 3e 41 14 bc bf 7a 8a 44 3d
       -0.30227774 0.18071482 -1.4693681 0.047983624
000050 66 75 af bc 07 dd db bf ac 33 0d 3f e1 17 08 bf
       -0.021418285 -1.7176827 0.5515697 -0.53161436
000060 ad 38 08 3f bf 3b 8d be 21 50 77 3e 02 3d 9f bf
       0.5321148 -0.27584645 0.2415166 -1.2440493
000070 72 1d 9e 3e 7e c9 62 3e b3 7b 42 3f 8d 77 a5 be
       0.3088184 0.22147176 0.7597 -0.32317773
000080 58 5a 3d be 9b bb 4e 3e 68 44 91 3f fb 29 6b 3f
       -0.18491495 0.20188753 1.1349001 0.9186093
000090 a5 fb 10 3e a7 97 02 be 8f 53 92 be eb 09 04 bf
       0.14158495 -0.12753163 -0.28579375 -0.51577634
0000a0 cf 84 fc be 90 73 39 3f 46 5e 9e 3f 36 69 8c 3e
       -0.49320075 0.7244196 1.237252 0.2742402
0000b0 43 47 96 3e bb 32 d1 3e 07 32 22 3f 62 71 bb bd
       0.29351243 0.40859017 0.63357586 -0.091524854
0000c0 44 88 c7 bf 67 14 cb 3f af 8b e3 be 9f be c5 3e
       -1.558846 1.5865601 -0.44442508 0.38621995
0000d0 3d 2d 5e bf fa 80 6f 3f be b7 1b bf f7 34 7f 3f
       -0.8678778 0.9355618 -0.60827243 0.9969019
0000e0 fb 14 c2 3f 1f 4e 20 3f dc 10 21 bd c9 d0 6a 3f
       1.5162653 0.62619203 -0.03932272 0.9172483
0000f0 e8 7c d9 3d a6 f3 2d 3e 0b 8b 1e 3e b2 9f 5c 3e
       0.10619527 0.16987476 0.15482728 0.21545294

transformer_encoder.layers.0.linear1.weight f4 [256, 64]
000000 2a 60 b5 3c 10 ed 92 3e 2c 69 c5 be 79 14 53 3e
       0.022140581 0.2869649 -0.38556802 0.20613278
000010 46 31 74 3e b1 98 e7 be 46 68 56 be 22 ae 91 be
       0.23846921 -0.45233682 -0.20938215 -0.28453165
000020 e4 86 0f 3f 91 b3 09 bf cf 36 a0 3d 7f f1 7d be
       0.560652 -0.5378962 0.07822954 -0.24799155
000030 4a 74 3e 3d e4 f7 48 3e cf 08 02 3f b5 6b a1 3e
       0.04649762 0.19625813 0.5079469 0.31527486
000040 6a 80 2f 3f e5 54 b2 3e 5d 25 2b be d4 fc fb 3e
       0.6855532 0.34830394 -0.16713472 0.4921633
000050 ed 07 21 be fd 64 8e be 98 6d 7d be 64 1e 54 3d
       -0.1572568 -0.27811423 -0.24748838 0.051786795
000060 f5 32 37 3f 19 38 34 be 81 61 a4 bf ba 6c cc be
       0.7156213 -0.17599525 -1.2842256 -0.39926702
000070 4e f5 09 bf 65 48 02 3f a7 1f 40 3f f2 84 a8 3d
       -0.5388993 0.50891715 0.750483 0.08228482
000080 c1 a3 d6 bf 94 37 3d 3e 7a 09 49 be fa 57 3a be
       -1.6768724 0.18478233 -0.19632521 -0.18197623
000090 a8 a6 ea be 2f 53 75 bf 65 e0 08 bf 23 89 d3 bd
       -0.45830274 -0.95830053 -0.534674 -0.10328891
0000a0 d4 e4 09 3f fc f6 92 3d 2b fe 0c be 99 10 42 bf
       0.5386479 0.07176015 -0.13768832 -0.75806576
0000b0 4c 58 b9 be 38 ba ea 3e 54 cb 81 3e 03 a1 6f be
       -0.36200178 0.458452 0.2535044 -0.23401265
0000c0 61 89 14 3f c3 0a fb 3d 8a b8 6a 3f 31 23 ad 3e
       0.58022124 0.12257912 0.91687834 0.3381591
0000d0 5f 50 17 bf e4 d8 08 be 6a 21 4e bc 69 80 e3 3e
       -0.5910701 -0.13363987 -0.012581209 0.44433907
0000e0 ae 76 c7 be f2 32 59 3e 8e 63 11 be c0 12 d3 be
       -0.38957733 0.2121084 -0.14198133 -0.41225243
0000f0 f2 6f 5e 3f 6c fd ad be 12 3a 0a 3f cd e1 d3 be
       0.86889565 -0.33982408 0.5399486 -0.4138321
000100 3c f8 ca be 5f e0 ab bd 56 6d 05 3f a0 03 5f 3e
       -0.39642513 -0.08392405 0.5211996 0.21778727
000110 aa e6 8d be 76 57 3d be c9 5d 8d 3e fb fc 48 be
       -0.27715045 -0.18490395 0.27610615 -0.19627754
000120 c1 9f 0b 3d 2f 07 e9 3d a4 76 93 bd f1 b2 29 be
       0.0340879 0.11378323 -0.07200363 -0.16572167
000130 db d9 0a 3f 3c f3 25 3f 3b 80 bd 3e 4a 64 ee 3d
       0.5423867 0.6482427 0.37011895 0.11640222
000140 af f6 d3 3f f7 13 1d 3e 49 5b 8c 3e f5 9c cc 3e
       1.6559657 0.15339647 0.27413395 0.399635
000150 e0 c2 1c be 1b 64 2c 3f 8e d1 3c be 52 10 4d 3f
       -0.15308714 0.6734025 -0.18439314 0.8010303
000160 d9 9b 7e 3d b8 b4 6f be b0 3a 69 be 85 10 b8 3e
       0.062160347 -0.23408782 -0.22776294 0.35950103
000170 80 92 cc 3b b3 fd 6e 3e 3f eb 84 3c c4 b1 66 be
       0.00624305 0.23338966 0.016225455 -0.2252875
000180 09 1a 55 3e fa b2 23 bf 27 69 61 be 2f 5e 71 3e
       0.20810713 -0.6394497 -0.22012769 0.23571084
000190 e7 ae a8 bc a5 c8 77 3e 09 db 98 3d 13 90 06 be
       -0.020591212 0.24197634 0.07463653 -0.13140897
0001a0 5f 43 d7 3e eb bc 84 be 60 5c 2d 3e 6a 46 a6 bd
       0.42043588 -0.25925383 0.1692977 -0.08118899
0001b0 9e 95 ba be 11 b8 22 3d e7 81 e0 3c 3c b8 b7 be
       -0.36442274 0.03972632 0.027405692 -0.35882747
0001c0 8c 7e ae 3e 11 01 76 be 15 a1 d5 3e 61 25 15 3e
       0.34080923 -0.24023844 0.41724458 0.1456504
0001d0 6e 80 6c 3e ac 2c 8a bd f5 04 18 3e a4 3e 6b be
       0.23095867 -0.06746802 0.14845641 -0.22973114
0001e0 90 3d 47 be 32 4e 54 bf 5d 97 04 be 4a 88 40 bf
       -0.19457078 -0.82931817 -0.12948366 -0.7520796
0001f0 b5 21 97 be 43 9d 68 3d 81 8b ac 3e 8d b7 53 bf
       -0.29517904 0.0567906 0.33700183 -0.8270195
000200 ea 3c 97 3e 32 16 df 3e 58 93 f6 3c 55 e6 8e 3e
       0.2953866 0.4357162 0.030099556 0.27910104
000210 99 f5 45 be c8 1a 03 3f 7b 44 cf be 73 e9 36 3e
       -0.1933197 0.5121274 -0.40481934 0.17862491
000220 67 38 d9 3f 6c c4 40 3f 21 8f 69 be 6c 9a 81 bd
       1.6970338 0.75299716 -0.22808506 -0.06328282
000230 73 aa 19 be 37 49 4c be 7f 7d 9d 3e 5d ec 35 3f
       -0.15006427 -0.19949804 0.30759808 0.71063787
000240 55 4c 3f be 1e 0f 0e 3e e2 9e a7 be 44 ec d3 be
       -0.18681462 0.13872954 -0.32738405 -0.41391194
000250 b2 fd ce 3d 95 ff 88 3d 44 8f fe 3d ce a8 ed 3d
       0.10106982 0.066893734 0.124296695 0.116044626
000260 9f 9c 3c bf 8e cf b5 bd fe 5f 80 be 6b d9 49 bf
       -0.73676485 -0.088774785 -0.25073236 -0.7884738
000270 f1 9a d0 3e 23 3c a3 be 2e d5 de 3e db c4 73 3f
       0.4074321 -0.31881818 0.43522018 0.9522225
000280 56 a2 13 c0 63 8e a7 bd fb 4c a7 be 4e 56 7a be
       -2.3067832 -0.08181455 -0.3267592 -0.24446985
000290 0d b6 e5 3e cf bc 08 c0 65 c4 bd 3e 9e 68 61 bc
       0.44865456 -2.136524 0.370639 -0.013757853
0002a0 7b 72 91 be 89 0d 77 be b4 83 ed be fc 07 4c be
       -0.28407654 -0.24126257 -0.46389544 -0.19924921
0002b0 6f 75 fd bd 9e 96 af bc da 5f b0 3d 4c 45 f9 be
       -0.12375914 -0.021434125 0.08612032 -0.48685682
0002c0 34 f7 b5 3d c2 83 a3 3e 7e d3 ab be 90 a4 a1 bc
       0.08885041 0.3193646 -0.33559793 -0.01973179
0002d0 90 4b 05 bf d9 64 53 3e 19 f2 96 be fb 77 06 3f
       -0.52068424 0.20643939 -0.2948158 0.52526826
0002e0 3f b6 06 bd ed 3a 49 3d 3f 1f 46 be 69 8e 1f 3a
       -0.032888647 0.04912846 -0.19347857 0.00060865894
0002f0 d1 9b 01 40 78 9a 27 3d 35 10 c5 be 5f fb 25 3f
       2.0251353 0.040918797 -0.38488927 0.64836687
000300 42 ea af 3e 0d 08 95 bc cb c0 34 be c2 f0 84 bd
       0.34358412 -0.018192315 -0.1765167 -0.064912334
000310 ec a6 5a bd 8e f6 dc be 63 50 19 3e 80 65 03 3d
       -0.053381845 -0.43156856 0.14972071 0.03207922
000320 10 ac c1 3f 35 cd d4 3e 97 ef 0e bd 0b 04 d6 3d
       1.5130634 0.4156281 -0.03489646 0.1044999
000330 ff 21 bf bd 3b ec 00 bd 1b bb a4 3e 7a c2 1f 3f
       -0.09332656 -0.031475287 0.32174 0.6240612
000340 d3 68 bc bd 7f b3 10 3e 0f df 69 be cb 84 31 bf
       -0.09199681 0.14130972 -0.22838996 -0.6934325
000350 b0 7a ed 3c e5 fc af bd d4 22 49 bf 86 69 c5 be
       0.028989166 -0.08593158 -0.7856877 -0.3855707
000360 5d 3a 21 bf d1 bd ee bc a8 56 61 be c9 cb a2 be
       -0.6297968 -0.029143246 -0.22005713 -0.317961
000370 d4 bc ba 3e f9 8f 5f 3f 93 34 72 3f d1 a4 26 3f
       0.3647219 0.8732906 0.9461147 0.6509524
000380 e1 ae e9 bf 56 f4 dc 3e f5 45 aa be 80 27 e3 3e
       -1.8256494 0.43155164 -0.33256498 0.44366074
000390 c4 ae 02 3f 06 2c b2 bf 37 6d 89 3e 28 a2 0d bf
       0.5104792 -1.3919685 0.26841137 -0.55325556
0003a0 8b 66 93 3d 35 9c b6 3e ac a9 7c 3e 55 59 56 bf
       0.07197293 0.35666052 0.246741 -0.8373006
0003b0 92 71 98 3d ac 5a 64 be 86 2e 63 bf 97 20 48 bf
       0.07443537 -0.22300214 -0.88742864 -0.7817473
0003c0 ef d0 0f bf 59 56 21 3e 25 40 94 be 72 96 40 be
       -0.5617818 0.15755595 -0.28955188 -0.1880739
0003d0 0a 96 b5 3e 96 1d 14 3f 95 e0 d6 3e 03 db e9 3d
       0.35466033 0.57857645 0.41968217 0.11418726
0003e0 33 87 aa be 8f 4f 7a 3d e3 99 97 bc ed c2 5f be
       -0.33306274 0.06111103 -0.018505996 -0.21851702
0003f0 f4 41 06 40 2f b9 c6 3d 2e 4b 38 be 99 85 3f 3e
       2.0977755 0.0970329 -0.17997429 0.18703307
