Pretrained/LogReg/logreg_horizon_100.pth (torch, 9050 bytes, 2 tensors)

linear.weight f4 [3, 620]
0	0x3b980915	0.0046397545
1	0x3e9f8c3f	0.31161687
2	0x3e0608b9	0.13089265
3	0xbea5e117	-0.32398292
4	0x3db32f71	0.08749283
5	0xbe3981b4	-0.18115884
6	0x3ccd51d2	0.025063429
7	0xbe289366	-0.16462478
8	0x3dc2b190	0.095065236
9	0xbd891bfd	-0.066947915
10	0xbce92a13	-0.028462445
11	0xbe1ee0a5	-0.15515383
12	0xbd6f519d	-0.058427442
13	0xbd9e67b2	-0.07734622
14	0xbd22b78f	-0.039725836
15	0xbd99641a	-0.07489796
16	0xbd049424	-0.03236784
17	0xbdbba4c7	-0.09162288
18	0x3e08764c	0.13326377
19	0xbcebfbcd	-0.028806591
20	0xbd7d34fa	-0.0618181
21	0x3c916744	0.017749436
22	0x3ce553ee	0.027994122
23	0xbd50c6c7	-0.05097082
24	0x3d15496e	0.03644698
25	0x38b6aabe	8.7102395e-05
26	0xbd38d256	-0.045122467
27	0xbd840518	-0.06446284
28	0x3dee3a47	0.11632209
29	0x3d258783	0.040412437
30	0x3d053084	0.03251697
31	0xbd55df2b	-0.052214783
32	0x3da233bb	0.07920023
33	0x3c4e9ba7	0.012610353
34	0x3e0b07f2	0.1357725
35	0xbd91eb1c	-0.07124922
36	0x3c7b2588	0.015328772
37	0x3df7d128	0.1210044
38	0x3df48dde	0.119411215
39	0xbe05a506	-0.13051233
40	0x3da8e3b8	0.08246559
41	0x3e125fb4	0.1429432
42	0x3dd5863a	0.10425992
43	0x3e98a299	0.29811552
44	0xbe40c097	-0.18823467
45	0xbdb5b8b7	-0.08873122
46	0x3cc12db9	0.023581373
47	0xbe9b991a	-0.30390245
48	0x3c934677	0.017977936
49	0xbe7120cc	-0.23547667
50	0x3d70a467	0.058750536
51	0xbd659850	-0.05605346
52	0xbd570cca	-0.05250243
53	0x3cf069e0	0.02934736
54	0xbe036f14	-0.12835342
55	0x3e465d0d	0.19371434
56	0xbe3997d2	-0.18124321
57	0x3f06bcab	0.52631634
58	0xbf4adb74	-0.7924111
59	0x3e163503	0.1466866
60	0xbfd14437	-1.6348943
61	0xbc702985	-0.0146583365
62	0xbbd9a9df	-0.0066425647
63	0x3e2b9512	0.16756085
64	0x3985a305	0.00025489196
65	0xbe066e54	-0.13128024
66	0x3cb3eb1a	0.021962691
67	0xbd401d33	-0.046902847
68	0x3cdfbacb	0.02731075
69	0xbe632ed4	-0.22185832
70	0x3dfae51b	0.1225073
71	0x3d79c30d	0.06097703
72	0xbc02dd49	-0.007987329
73	0xbe1d3634	-0.15352708
74	0xbd39b08c	-0.045334384
75	0x3d475298	0.048662752
76	0x3dc6a285	0.09698967
77	0xbe06a83a	-0.13150111
78	0x3be6a759	0.0070389924
79	0xbda6fc4e	-0.08153592
80	0x3c614afe	0.01375079
81	0xbd502b17	-0.050822344
82	0xbc416a25	-0.011805092
83	0xbcc08a56	-0.023503464
84	0xba30bb0c	-0.00067417393
85	0xbcb639e4	-0.022244401
86	0x3da6006b	0.081055485
87	0xbcd8b483	-0.026453262
88	0x3e155992	0.1458495
89	0xbd5f128e	-0.054461055
90	0x3dceb012	0.100921765
91	0x3d7c38c2	0.061577566
92	0x3e0b69f8	0.13614643
93	0xbd9a541b	-0.07535573
94	0x3d72765a	0.0591949
95	0xbd2e63a0	-0.04257548
96	0x3dec7ddc	0.11547443
97	0xbd1a2a51	-0.037638012
98	0x3dca8529	0.098886795
99	0x3e241a1c	0.16025585
100	0x3dacd1a2	0.08438422
101	0xbe071511	-0.1319163
102	0xbcb0ca90	-0.021580964
103	0x3dd50a23	0.10402324
104	0x3de3a715	0.11115853
105	0xbd38b3c0	-0.045093298
106	0xbd0df51f	-0.034657594
107	0x3dba17cc	0.0908657
108	0xbdc52e05	-0.09627918
109	0x3d815e73	0.06316843
110	0xbcfb69ae	-0.03069004
111	0xbcdf8306	-0.027284157
112	0x3e05ac33	0.1305397
113	0xbd3d9440	-0.04628396
114	0xbe814876	-0.25250596
115	0x3d810430	0.06299627
116	0x3cb0d133	0.021584129
117	0x3e86cac0	0.2632656
118	0xbd9d4fae	-0.07681213
119	0x3f2ebdf6	0.6825861
120	0xbf48b0d7	-0.78394836
121	0x3e9c21ec	0.3049463
122	0xbfbecb5e	-1.4905813
123	0xbc32927c	-0.010899182
124	0x3e286e8e	0.16448423
125	0x3dc99e93	0.09844699
126	0x3d73fbc1	0.059566263
127	0xbe0950e1	-0.13409759
128	0x3dc40ad7	0.0957238
129	0xbd730bda	-0.059337474
130	0x3c06d8c8	0.008230396
131	0xbe03217c	-0.12805742
132	0x3d8cc88a	0.06874187
133	0x3ce696e8	0.02814813
134	0x3e25ee9f	0.16204308
135	0xbe498c50	-0.19682431
136	0xbc9cc898	-0.01913862
137	0xbd3d1106	-0.046158813
138	0x3dfd773a	0.12376256
139	0xbd5dc35b	-0.054141384
140	0x3dfeb824	0.12437466
141	0xbca78709	-0.020450132
142	0xbcfcde75	-0.030867795
143	0x3ca9e814	0.020740546
144	0x3d059f87	0.03262284
145	0xbdaa09bd	-0.08302639
146	0x3dca11ea	0.09866698
147	0x3c68be5a	0.01420554
148	0x3d92226b	0.07135471
149	0xbd410734	-0.04712601
150	0x3e00b6ce	0.12569734
151	0xbb31cc6f	-0.0027129909
152	0x3d9274fe	0.07151221
153	0x3d1cb522	0.03825868
154	0x3cb6fb68	0.022336677
155	0x3d413e8e	0.047178797
156	0x3db49261	0.08816982
157	0xbd0ec5c1	-0.03485656
158	0xba2ac285	-0.0006513971
159	0xbd7faaa7	-0.062418606
160	0x3d950b3a	0.07277532
161	0x3d90fea6	0.0707982
162	0x3e101122	0.14069036
163	0xbe15ac65	-0.14616545
164	0x3e07dae2	0.13267091
165	0x3e25103a	0.16119471
166	0x3d21e895	0.039528448
167	0xbd7ef8fb	-0.062249165
168	0xbc4eb212	-0.012615697
169	0x3c5c5cba	0.013449842
170	0xbcd9b872	-0.026577208
171	0xbd80d580	-0.06290722
172	0x3dbc73d8	0.09201783
173	0x3dfde6d0	0.123975396
174	0x3d434289	0.047670875
175	0xbdf39d03	-0.11895182
176	0xbe8bded4	-0.27318442
177	0x3df963da	0.12177248
178	0x3d86a400	0.06574249
179	0x3e2ea0a8	0.17053473
180	0xbe5e190a	-0.21689239
181	0x3f170b11	0.5900126
182	0xbf3ca4c9	-0.7368894
183	0x3f117ff9	0.56835896
184	0xbfccb425	-1.5992476
185	0xbddcf25a	-0.107884124
186	0x3e2c3d9f	0.16820382
187	0x3e2457db	0.16049139
188	0x3d4659b8	0.048425406
189	0xbdbeb254	-0.09311357
190	0x3d93eb08	0.07222563
191	0xbd939846	-0.07206778
192	0x3d7366e3	0.059424292
193	0xbe38256f	-0.1798303
194	0x3cfe37e3	0.031032508
195	0x3d14e5b0	0.03635186
196	0x3e1b7643	0.15181832
197	0xbe7d44b9	-0.24733247
198	0x3d27dd4e	0.040982537
199	0xbc0e9970	-0.008703575
200	0x3d98a722	0.07453753
201	0xbdb9fd2d	-0.090814926
202	0xbc4f1222	-0.012638601
203	0xbca2e5a6	-0.019884896
204	0x3dd07adb	0.10179683
205	0xbd6330aa	-0.05546633
206	0x3d6e36cc	0.058157727
207	0xbd7b56ae	-0.06136196
208	0x3d941566	0.07230644
209	0xbd8a7253	-0.06760087
210	0xbc493566	-0.012280798
211	0xbdee7f33	-0.11645355
212	0x3db5d45e	0.088783965
213	0xbc9f37f8	-0.019435868
214	0x3da36fab	0.07980283
215	0xb9839dd5	-0.0002510386
216	0x3dbe2981	0.0928526
217	0xbccfda35	-0.025372604
218	0x3e199623	0.14998679
219	0xbd6f26a3	-0.058386456
220	0x3e27290a	0.16324249
221	0xbd672ce5	-0.0564393
222	0xbc250175	-0.010071148
223	0x3db087fd	0.08619688
224	0x3e1402b2	0.14454153
225	0xbd9b0fb4	-0.075713545
226	0x3d8c44db	0.06849071
227	0x3e0006d1	0.125026
228	0x3dc599c3	0.09648468
229	0x3da33757	0.079695396
230	0xbd9365cf	-0.07197153
231	0xbcdd2e01	-0.026999475
232	0xbd952c95	-0.07283894
233	0xbd1f7fca	-0.03894023
234	0xbd51f9f8	-0.05126378
235	0x3da3be8a	0.07995327
236	0xbaf55509	-0.0018717359
237	0xbdbfb5e1	-0.093608625
238	0xbe47325b	-0.19452803
239	0x3db9f92c	0.09080729
240	0x3b193336	0.0023376471
241	0x3e6c19cf	0.2305672
242	0xbde3a665	-0.111157216
243	0x3f244e81	0.6418229
244	0xbf32dc20	-0.69867134
245	0x3f14d98b	0.58144444
246	0xbfbb3fac	-1.4628806
247	0xbd696dbf	-0.056989428
248	0x3e28b03e	0.16473481
249	0x3dc92d90	0.098231435
250	0x3c8c68e1	0.017139854
251	0xbdd3abb3	-0.103354834
252	0x3dc0420f	0.093876
253	0xbcf65ad2	-0.030072603
254	0x3d7a6d7e	0.061139576
255	0xbe6df431	-0.23237683

linear.bias f4 [3]
0	0x3fb59d82	1.4188693
1	0xc07bff26	-3.937448
2	0x3fa7835a	1.308696
