Pretrained/LogReg/logreg_horizon_50.pth (torch, 9044 bytes, 2 tensors)

linear.weight f4 [3, 620]
0	0xbd64106c	-0.055679724
1	0x3e95514a	0.2916358
2	0xbc752956	-0.014963469
3	0xbe8d2185	-0.27564636
4	0xbc4006f8	-0.0117204115
5	0xbd294bd4	-0.04133208
6	0x3d977531	0.07395399
7	0xbe397251	-0.18110014
8	0x3d90ea38	0.07075924
9	0x3b68fe1b	0.003555185
10	0x3e00670d	0.12539311
11	0xbe17d3c7	-0.1482688
12	0xbd09679f	-0.033546086
13	0xbdc60d47	-0.09670501
14	0x3e0121a9	0.12610497
15	0xbd7de090	-0.061981738
16	0x3d852cdc	0.06502697
17	0xbcdc59bf	-0.026898263
18	0x3dfedb2f	0.1244415
19	0xbd1b49a9	-0.037912045
20	0x3d813e9e	0.063107714
21	0x3d4ab79b	0.049491506
22	0x3c19a1b7	0.009376935
23	0xbdd5319f	-0.10409855
24	0x3de0091a	0.10939236
25	0xbd08a3d0	-0.03335935
26	0xbd605919	-0.05477247
27	0xbc14a701	-0.00907302
28	0xbd934c4f	-0.07192289
29	0x3d96243a	0.073311284
30	0xbd045997	-0.032312002
31	0xbd9ff644	-0.07810643
32	0xbd33c584	-0.043889537
33	0x3d12fc6e	0.035885267
34	0xbcaf9eb9	-0.02143799
35	0xbc0b8456	-0.008515438
36	0xbd762ada	-0.06009946
37	0x3da0b84e	0.07847653
38	0xbc239a3b	-0.009985502
39	0xbd9ae5f1	-0.07563389
40	0x3c419bae	0.011816902
41	0x3d143a3e	0.036188357
42	0x3e8774cb	0.26456293
43	0x3de61f6f	0.11236464
44	0xbe699efb	-0.22814552
45	0xbd9118c6	-0.07084803
46	0x3ac94a2b	0.0015357187
47	0xbe472452	-0.19447449
48	0x3c06b46a	0.008221725
49	0x3c6bbd80	0.014388442
50	0x3dab2974	0.08357516
51	0xbddb5706	-0.10709958
52	0xbe0cdc82	-0.13755992
53	0x3d96372a	0.073347405
54	0xbe47dbf3	-0.19517498
55	0x3ec0621a	0.37574846
56	0xbec3db36	-0.38253182
57	0x3d88ab2b	0.06673273
58	0xbf8edd14	-1.1161218
59	0xbde777ac	-0.113021225
60	0xbfba16a6	-1.4538162
61	0xbd5d6321	-0.054049615
62	0xbd20f7ca	-0.03929881
63	0x3dbb8cd5	0.09157721
64	0x3e0d25df	0.13783978
65	0xbd8b20f8	-0.06793398
66	0x3da32777	0.07966512
67	0x3c993331	0.018701168
68	0xbc4fe0bf	-0.012687861
69	0xbe277819	-0.16354407
70	0x3d8a6ed9	0.06759424
71	0xbcea228e	-0.02858093
72	0xbce8b7d6	-0.028407972
73	0xbe3d0c21	-0.18461658
74	0x3bebd75c	0.0071973037
75	0xbc1611ea	-0.0091595445
76	0x3d3b1831	0.045677368
77	0xbdcba475	-0.09943477
78	0x3c758437	0.014985136
79	0xbc87f881	-0.016597988
80	0xbd1c1d90	-0.03811413
81	0xbe3164a3	-0.17323546
82	0xbc62d32e	-0.0138442945
83	0x3d2d9e02	0.042387016
84	0x3db5bc48	0.088738024
85	0xbce4a8ed	-0.027912581
86	0x3d770c06	0.0603142
87	0xbd59c8dd	-0.053170074
88	0x3c5177a6	0.012784874
89	0xbd317667	-0.043325808
90	0x3d8634b0	0.06553018
91	0x3c870e53	0.016486323
92	0x3df422e4	0.11920717
93	0xbdf1ffb7	-0.11816352
94	0x3b0c0938	0.00213678
95	0x3cd13e52	0.025542412
96	0x3dccef60	0.10006595
97	0xba83d600	-0.0010058284
98	0x3d62d5ea	0.055379786
99	0x3e0ce087	0.13757525
100	0x3d3f4472	0.046696134
101	0xbd9ca163	-0.076479696
102	0x3c92fcd8	0.01794283
103	0x3d187e10	0.037229598
104	0x3e3daada	0.18522206
105	0xbd12dcfc	-0.03585528
106	0xbdbbe0c2	-0.091737285
107	0x3d49d7a4	0.049277917
108	0xbe2c804e	-0.1684582
109	0x3ca96a86	0.020680677
110	0x3b40e11b	0.0029431048
111	0x3e8b2884	0.27179348
112	0x3d194bef	0.03742593
113	0xbdc30a56	-0.09523456
114	0xbea2a2d4	-0.31764853
115	0x3e5deca8	0.21672308
116	0xbdb16396	-0.08661573
117	0x3e7d4f55	0.24737294
118	0xbe8ae61c	-0.27128685
119	0x3e1c695f	0.15274571
120	0xbf798f88	-0.97484636
121	0xbd232012	-0.039825507
122	0xbfc2b0d2	-1.5210211
123	0xbdebdd80	-0.11516857
124	0x3d8699c0	0.06572294
125	0x3e15e071	0.14636399
126	0x3e0638ce	0.13107607
127	0xbd80cb9d	-0.06288836
128	0x3e1c3ef5	0.15258391
129	0x3d687bdd	0.05675875
130	0x3db515a4	0.08842018
131	0xbe35d8ef	-0.17758535
132	0x3d7394f9	0.059468243
133	0x3d268751	0.04065639
134	0x3dfb3d9c	0.122676104
135	0xbe2b22fe	-0.16712567
136	0x3d8fad7f	0.07015514
137	0xbd421834	-0.047386363
138	0x3d146266	0.036226653
139	0xbe18fbca	-0.149398
140	0x3db0b65e	0.08628534
141	0xbc8c3769	-0.017116265
142	0x3e13c0ad	0.14428969
143	0xbe155d90	-0.14586473
144	0xbd0dcffb	-0.034622174
145	0x3dc59c94	0.096490055
146	0x3e151a3d	0.1456079
147	0xbdfec9e6	-0.12440853
148	0xbd4332f8	-0.04765603
149	0xbd293d29	-0.041318092
150	0x3dcf82e2	0.10132386
151	0xbd232e53	-0.0398391
152	0x3c17d19a	0.0092662815
153	0x3d872093	0.0659801
154	0x3cc3b94c	0.023892067
155	0xbd063833	-0.03276844
156	0x3c2fcd96	0.010730168
157	0x3c943863	0.018093294
158	0x3d147c58	0.036251396
159	0xbdba0aaa	-0.09084065
160	0x3d31b3b9	0.043384288
161	0x3d0da79f	0.034583684
162	0x3e10deb7	0.14147459
163	0xbe0bfedb	-0.13671438
164	0xbcebdb3f	-0.028791068
165	0x3dcae772	0.09907426
166	0x3e4df5b6	0.20113263
167	0xbd79f1c0	-0.061021566
168	0xbcb64aee	-0.022252526
169	0xbdc72888	-0.097245276
170	0xbdcaae3a	-0.09896512
171	0x3d49af3e	0.04923939
172	0xbd3a1d73	-0.04543824
173	0x3ea41274	0.3204533
174	0x3e00c2fa	0.12574378
175	0xbe236588	-0.159567
176	0xbe97d053	-0.29651126
177	0x3e361c0e	0.1778414
178	0xbd15e5a3	-0.03659595
179	0x3e73fbbc	0.23826498
180	0xbe9571bd	-0.29188338
181	0x3dd654da	0.10465403
182	0xbf817aa0	-1.0115547
183	0xbd9d8628	-0.07691604
184	0xbfb922c2	-1.4463732
185	0xbe234f3d	-0.15948196
186	0x3e309032	0.17242506
187	0x3d30be85	0.043150444
188	0x3df81d59	0.121149726
189	0xbcab4bc6	-0.020910155
190	0x3e1af6a7	0.15133153
191	0x3d464e29	0.048414383
192	0x3d44e2a7	0.048067715
193	0xbe5db024	-0.21649224
194	0xbabf3cd4	-0.0014590272
195	0x3d04c213	0.032411646
196	0x3e079c9b	0.13243334
197	0xbe321f82	-0.17394832
198	0x3d62b3a0	0.055347085
199	0xbcde46ab	-0.027133306
200	0x3d50cf2d	0.05097883
201	0xbd701abd	-0.05861925
202	0xbc69a178	-0.014259689
203	0xbce8983f	-0.02839291
204	0x3cbc84be	0.023012515
205	0xbdb200f2	-0.086915866
206	0x3d32149c	0.043476686
207	0x3d3707a9	0.04468504
208	0x3dc7e43f	0.09760331
209	0xbe1fc736	-0.15603337
210	0x3da56b50	0.08077109
211	0xbd63b84c	-0.05559568
212	0x3dbfc10b	0.09362992
213	0xbca3e7aa	-0.020007927
214	0x3d365235	0.044511992
215	0x3d18de71	0.03732151
216	0x3d34bf04	0.04412748
217	0xbdca46d8	-0.098767936
218	0x3beeb224	0.0072844196
219	0xbcab4712	-0.020907912
220	0x3dbdc65d	0.092663504
221	0xbd9cc562	-0.07654835
222	0xbbf04055	-0.0073318877
223	0x3cdc5182	0.026894335
224	0x3dd1ab18	0.10237712
225	0xbd5845f0	-0.052801073
226	0x3dcbf834	0.0995945
227	0x3d9008fb	0.07032963
228	0x3e6deda3	0.23235182
229	0xbd8a920c	-0.067661375
230	0x3cf81176	0.030281764
231	0xbbe3e1ae	-0.0069543933
232	0xbe0ad264	-0.1355682
233	0xbda20ec2	-0.07912971
234	0xbccebb8c	-0.025235914
235	0x3ea60b55	0.3243052
236	0x3de29ea8	0.110654175
237	0xbe2a6afb	-0.16642372
238	0xbe91264d	-0.28349534
239	0x3e205d3e	0.15660569
240	0xbcdecd60	-0.02719754
241	0x3e959432	0.29214627
242	0xbe26794f	-0.16257213
243	0x3e4d9b4c	0.20078772
244	0xbf807f12	-1.0038779
245	0xbd938f20	-0.07205033
246	0xbfbe5ca9	-1.4872028
247	0xbdc4f7c7	-0.09617572
248	0x3e22cceb	0.15898483
249	0x3d4f8592	0.050664492
250	0x3d3134c7	0.043263223
251	0x3b66e031	0.0035228843
252	0x3e2d79a0	0.16940928
253	0x3d939374	0.07205859
254	0x3bc10976	0.0058910204
255	0xbe2460ad	-0.16052504

linear.bias f4 [3]
0	0x4000e19d	2.0137703
1	0xc0a6805d	-5.2031693
2	0x3ff1c4fd	1.8888241
