Pretrained/model/LogReg/logreg_horizon_20.pth (torch, 9044 bytes, 2 tensors)

linear.weight f4 [3, 620]
0	0xbe01291c	-0.12613338
1	0x3d954081	0.07287694
2	0xbda325ed	-0.07966218
3	0xbdeea895	-0.11653248
4	0xbe17a4c8	-0.14808953
5	0xbd8b60ff	-0.0680561
6	0xbd5f5171	-0.054521028
7	0xbd14b80f	-0.036308344
8	0xbe3e139f	-0.18562172
9	0x3c711a27	0.014715708
10	0xbe381ba4	-0.17979294
11	0xbe410f3d	-0.18853469
12	0xbd832741	-0.064039715
13	0xbd923969	-0.07139856
14	0x3a968790	0.0011484493
15	0xbdfa2303	-0.12213709
16	0xbe2aff27	-0.16698895
17	0x3cd33c8c	0.025785707
18	0xbdf93c8c	-0.121697515
19	0xbd5f1bd2	-0.05446989
20	0xbdd59de5	-0.104305066
21	0x3c96f924	0.018429346
22	0xbdec0931	-0.115251906
23	0xbe54a9ff	-0.20767973
24	0xbd02eb2b	-0.031962555
25	0x3cab90ee	0.020943131
26	0xbc2990bd	-0.01034945
27	0xbdddc3c5	-0.10828356
28	0xbdcfaf15	-0.10140816
29	0xbb7f0245	-0.0038911265
30	0xbe19c845	-0.15017803
31	0xbde35d82	-0.111018196
32	0xbd141c4d	-0.036159802
33	0x3e0174dd	0.12642236
34	0xbdfd949e	-0.12381862
35	0xbe261654	-0.16219455
36	0xbca92383	-0.020646816
37	0x3e101f75	0.140745
38	0xbe12aec2	-0.14324477
39	0xbdfb5fc5	-0.12274126
40	0xbdf7a04f	-0.12091123
41	0xbd03e745	-0.032202978
42	0x3e669e0f	0.22521232
43	0x3bcd01f6	0.0062563373
44	0xbbeb1a1a	-0.0071747424
45	0x3a40eb1e	0.0007359254
46	0xbe1a8fe1	-0.15093948
47	0x3c5ca022	0.013465913
48	0xbd9c2f24	-0.07626179
49	0x3eaddb4c	0.33956373
50	0x3e543855	0.20724614
51	0x3dd00c3c	0.101585835
52	0xbe41f62b	-0.18941562
53	0x3fd5e77b	1.6711267
54	0xbee590d5	-0.4483706
55	0xbd2bcf6c	-0.04194586
56	0xbf4ccac3	-0.7999689
57	0xb92e8116	-0.00016642021
58	0xbf6ddc2d	-0.92914087
59	0x3ddabc18	0.10680407
60	0xbf5d9ae4	-0.8656447
61	0xbe0768ed	-0.1322362
62	0xbbb5d49d	-0.005549027
63	0xbd2cf5cc	-0.042226598
64	0xbdc285ae	-0.094981536
65	0xbd58761e	-0.05284702
66	0x3b5cc373	0.0033685833
67	0x3c97b81f	0.018520413
68	0xbc6efcb2	-0.014586614
69	0xbda36ee3	-0.07980134
70	0xbe045df8	-0.12926471
71	0xbc28046f	-0.010254963
72	0xbcbd6781	-0.023120644
73	0xbe7a8858	-0.24466074
74	0xbe01f881	-0.12692453
75	0x3b340670	0.0027469657
76	0xbc965f83	-0.01835609
77	0xbca4369f	-0.020045577
78	0xbd23c78f	-0.039985236
79	0x3ba66d38	0.005078938
80	0xbd39ab75	-0.04532953
81	0xbdcc5745	-0.09977583
82	0x3d1129b8	0.035440177
83	0x3d81ee84	0.06344321
84	0x3ca5aed4	0.020224966
85	0xbdf5041b	-0.11963674
86	0xbd1e1c7b	-0.03860138
87	0xbc8b5cca	-0.017012019
88	0xbd87ba96	-0.06627385
89	0xbcef1d8e	-0.029188897
90	0xbd8e72a6	-0.06955461
91	0x3cdedcee	0.027204957
92	0xbda364dd	-0.079782225
93	0xbdd0bdb5	-0.10192434
94	0xbdac73f2	-0.08420552
95	0x3b7a856b	0.0038226496
96	0xbdeb0604	-0.11475757
97	0xbd536ee6	-0.051619433
98	0xbd8a1230	-0.0674175
99	0x3d79a744	0.060950533
100	0xbc9973f4	-0.018732049
101	0xbd5b51f4	-0.053544953
102	0xbc177398	-0.009243868
103	0xbd4be73f	-0.04978108
104	0x3dbe9557	0.09305828
105	0xbd7bba1d	-0.06145679
106	0x3c1d40ff	0.009598016
107	0x3da2d830	0.07951391
108	0xbd8b3917	-0.067979984
109	0x3de1cb78	0.11025137
110	0xbd999743	-0.07499554
111	0x3ed5d0a0	0.4176073
112	0x3e17d01d	0.14825483
113	0xbd7d62dc	-0.061861858
114	0xbf029044	-0.5100138
115	0x3f3bc661	0.7334958
116	0xbec547a3	-0.38531217
117	0xbd74ae98	-0.059736818
118	0xbf1f61e2	-0.6225873
119	0x3d21b313	0.03947742
120	0xbf3f722d	-0.74783593
121	0x3cc90939	0.02454053
122	0xbf5a6b78	-0.85320234
123	0xbc836b6c	-0.016042434
124	0xbde7be34	-0.11315575
125	0x3d6d2406	0.057895683
126	0x3d64e385	0.055881042
127	0xbdcf5b38	-0.101248205
128	0xbd95fce4	-0.07323626
129	0x3dad4040	0.0845952
130	0xbd2e2203	-0.042512905
131	0xbe3455c1	-0.17610838
132	0xbd7baf65	-0.061446566
133	0x3c9c5569	0.019083695
134	0xbd8672bb	-0.06564852
135	0xbe510fd9	-0.20416202
136	0x3c31ca3f	0.010851442
137	0xbd69ae58	-0.057051033
138	0x3d8cd91b	0.06877347
139	0xbb8d63f5	-0.0043148943
140	0xbd84aa54	-0.064778
141	0x3d190f77	0.037368264
142	0xbcf8bf38	-0.030364618
143	0xbe077319	-0.132275
144	0xbdb25e22	-0.08709361
145	0x3d937536	0.072000906
146	0xbdbfd910	-0.09367573
147	0xbe06575e	-0.13119265
148	0xbc3f0762	-0.011659475
149	0xba420b88	-0.0007402231
150	0x3d93910b	0.07205399
151	0xbd9344a2	-0.07190825
152	0x3d187872	0.03722424
153	0xbc470045	-0.01214606
154	0xbcfab00b	-0.030601522
155	0xbe0212cb	-0.12702481
156	0xbdc721fb	-0.09723278
157	0x3d9b18af	0.075730674
158	0xbde87613	-0.11350646
159	0xbd038f56	-0.032119118
160	0x3d281e49	0.041044507
161	0x3df30ddb	0.11867877
162	0xbda6fcff	-0.08153724
163	0xbdce972d	-0.10087428
164	0xbcab0711	-0.020877393
165	0x3d96c3c0	0.07361555
166	0x3e55672f	0.20840143
167	0xbd70a9d2	-0.058755703
168	0x3d7633df	0.060108062
169	0x3c89d0e5	0.016823241
170	0xbd2fb3ab	-0.042895954
171	0x3daeb27e	0.085301384
172	0xbdbb340a	-0.09140785
173	0x3f050969	0.51967484
174	0x3ddfafc4	0.109221965
175	0xbe5bd8e9	-0.21469463
176	0xbee88437	-0.45413372
177	0x3efbebc4	0.49203312
178	0xbebe2c5d	-0.37143221
179	0xbcf57326	-0.029962134
180	0xbf2bcb6b	-0.67107266
181	0xbda932e2	-0.08261658
182	0xbf4d67a6	-0.8023628
183	0xbb5a67a7	-0.0033325942
184	0xbf458da7	-0.7716927
185	0x3c59ef64	0.013301704
186	0x3cd27534	0.025690652
187	0x3e0d4549	0.13795961
188	0x3db7d5ad	0.08976302
189	0xbdf9cc8d	-0.12197218
190	0x3d86ecd7	0.06588142
191	0x3d4d4973	0.050118875
192	0x380315e0	3.1253207e-05
193	0xbdf87f6f	-0.12133681
194	0x3d66fd78	0.05639407
195	0x3d80e7a3	0.06294181
196	0xbd466ece	-0.048445515
197	0xbe59fb20	-0.21287203
198	0xbd1b1224	-0.037859097
199	0x3c1410bf	0.009037196
200	0x3dd1171f	0.10209488
201	0xbdb2a9a7	-0.08723765
202	0x3dbe1867	0.09281998
203	0xbc18762a	-0.009305516
204	0x3d2579bf	0.04039931
205	0xbd6b7dc1	-0.057492975
206	0x3dd66b44	0.10469678
207	0x3ba4468a	0.0050132917
208	0xbc320459	-0.010865294
209	0xbe143391	-0.14472796
210	0xbb83ae55	-0.0040185847
211	0xbd4eec13	-0.050518107
212	0xbd923149	-0.07138307
213	0xbd1a3787	-0.03765061
214	0x3d93d341	0.07218028
215	0x3ca6fe1c	0.02038484
216	0xbd8a0670	-0.06739509
217	0xbbda125c	-0.0066550206
218	0x3debe044	0.11517385
219	0x3bb70bd7	0.005586128
220	0x3da0bd6b	0.078486286
221	0xbdb4cfa6	-0.08828668
222	0x3c7a9f8d	0.015296829
223	0x3d1fb9e7	0.03899565
224	0xbcd4ce23	-0.0259772
225	0xbdb837aa	-0.08994992
226	0xbc2877ba	-0.010282451
227	0xbd8bbc96	-0.06823079
228	0x3e130be4	0.14360005
229	0xbd61435a	-0.054995872
230	0x3d85b9d1	0.06529582
231	0xbb95b443	-0.004568608
232	0xbdde117d	-0.108431794
233	0x3c3c8553	0.011506396
234	0x3d778fb9	0.0604398
235	0x3efb2920	0.49054813
236	0x3e1e4d50	0.1545918
237	0xbe306b2b	-0.17228381
238	0xbee6a0f3	-0.4504467
239	0x3ec7b28f	0.39003417
240	0xbe673d5f	-0.22582005
241	0xbd8fa9d0	-0.07014811
242	0xbf0161bd	-0.5053976
243	0xbdcf74d0	-0.10129702
244	0xbf4d7223	-0.80252284
245	0x3ccfe407	0.025377287
246	0xbf3c21c9	-0.7348905
247	0x3c4175eb	0.011807899
248	0x3e14be8f	0.14525817
249	0x3dbeaf52	0.093107834
250	0x3b092a1b	0.0020929638
251	0xbddbc23f	-0.10730409
252	0x3e11bc8e	0.14232084
253	0x3d21f035	0.03953572
254	0x3d736340	0.059420824
255	0xbd975c94	-0.07390705

linear.bias f4 [3]
0	0x4000a5cd	2.0101197
1	0xc07b9fa7	-3.9316194
2	0x3ff346fc	1.9006038
