Pretrained/model/LogReg/logreg_horizon_10.pth (torch, 9044 bytes, 2 tensors)

linear.weight f4 [3, 620]
000000 6a ad d8 be fb 29 ae bd ea 3e d2 be 4d de 45 3c
       -0.42319804 -0.08504101 -0.41063625 0.012076926
000010 a4 93 e4 be a1 be f4 bd 0d d0 e3 be 63 21 0e be
       -0.4464389 -0.11950422 -0.44494668 -0.13879924
000020 8f db e4 be ac 1b 89 bb 97 eb d7 be 55 1a 71 bd
       -0.4469876 -0.004184207 -0.42171928 -0.058863003
000030 49 a8 98 be de b0 b4 bd 7c 6e d1 be 88 ad a9 bc
       -0.2981589 -0.08822797 -0.40904605 -0.020712629
000040 86 f1 d4 be d3 4c 5b bd 4e cf b7 be ae 3b da 3c
       -0.41590518 -0.053540062 -0.35900348 0.026639786
000050 ba ef c9 be 01 84 40 bd ee d2 e0 be 2b e7 01 bc
       -0.3944071 -0.04700089 -0.43910927 -0.00792865
000060 14 d2 af be 0c f2 1c bd 73 09 85 be 37 28 b1 3d
       -0.34339964 -0.03831677 -0.25983772 0.086502485
000070 4a 22 ac be ca 63 87 bd c6 cb 8a be dc 2f a4 bd
       -0.3361991 -0.0661083 -0.27108592 -0.08016941
000080 db b8 b3 be ac a2 78 bd d3 68 d1 be 83 e0 ab 3c
       -0.3510197 -0.06070201 -0.40900287 0.020981079
000090 2d 0c 83 be d3 1d e2 bb 28 de 88 be fa 23 dd 3d
       -0.25595227 -0.006900528 -0.26731992 0.107978776
0000a0 e4 f8 cb be 02 eb cc be d7 cc d3 3d 4a 54 c4 3b
       -0.39838326 -0.40023047 0.103418045 0.0059914934
0000b0 8f 26 03 bc 10 6a 2b 3d fd e4 c9 3d 96 08 a3 3d
       -0.008004799 0.041849196 0.09858129 0.07960622
0000c0 99 b6 5e bc 91 74 b5 3e 63 7c b7 bd 57 65 62 be
       -0.013593339 0.35440496 -0.08959272 -0.2210897
0000d0 ce 66 a4 be 83 f3 cd 3e f2 6c b7 be 5a 9c d2 3e
       -0.32109684 0.40224847 -0.35825306 0.41134912
0000e0 01 83 bd be b7 97 6b 3e dc a8 91 be 77 b4 2a 3e
       -0.3701401 0.23007093 -0.28449142 0.16670404
0000f0 0c 88 39 be cf 0c ed bd 5c ea a9 be 8e c4 aa bd
       -0.18118304 -0.11574709 -0.33186615 -0.08338271
000100 34 1f b3 be d9 52 8e 3d d8 3e ba be 7e be ca bd
       -0.34984744 0.06949396 -0.3637607 -0.09899615
000110 ba 9c 77 be 8a 6d f4 bd 4e 02 a2 be 77 b2 06 3d
       -0.2418088 -0.119349554 -0.31642383 0.03288504
000120 34 02 ba be a1 94 9e bd 74 d1 a2 be ea 6b a0 3c
       -0.36329806 -0.077431925 -0.31800425 0.019582707
000130 9f 0c ac be ed 1c 8a bc 7f e1 ca be 43 9e 93 bd
       -0.3360338 -0.016859496 -0.39625165 -0.072079204
000140 6a 0a 8d be 18 4c 52 bd 25 08 6d be 18 a8 b8 3c
       -0.27547008 -0.0513421 -0.23147638 0.02254109
000150 4b ac ac be ed f9 18 be 5d 8d b7 be 12 13 a8 bd
       -0.337252 -0.14939089 -0.3585004 -0.082067624
000160 81 73 ca be a7 e0 dc bd 10 6e 91 be 96 7a 83 bd
       -0.39541247 -0.107850365 -0.28404284 -0.06419866
000170 4c 78 a3 be 2d 75 10 be 43 3d aa be 7d ca 0a be
       -0.31927717 -0.14107199 -0.33249864 -0.13553806
000180 01 0f cf be df 08 26 be f5 81 99 be 3c 79 10 be
       -0.40441135 -0.16214322 -0.29981962 -0.14108747
000190 52 a9 c4 be 96 85 5c bd e0 2a da be 04 c2 c6 be
       -0.3841043 -0.053838335 -0.42610836 -0.38819897
0001a0 0c f1 ab 3d 79 ff d9 bd c9 c4 2b bd 70 b6 ca 3c
       0.083955854 -0.10644431 -0.041935716 0.024745196
0001b0 7b fb 51 3b 9e ab 4d bd 6b 64 c3 bd 03 11 0e 3f
       0.0032040763 -0.050212495 -0.095406376 0.5549471
0001c0 80 7e 80 3e 63 e6 ea bd 81 37 a6 be b7 16 fd be
       0.25096512 -0.11469724 -0.3246422 -0.49431393
0001d0 4a 1c bd be 65 6b 82 be 3c 57 e0 be 46 dd 4d 3c
       -0.36935645 -0.2547256 -0.43816555 0.012564963
0001e0 88 29 b1 be 67 8c aa 3c e9 c0 1c be c4 50 1c bd
       -0.34601998 0.020818902 -0.15307964 -0.03816296
0001f0 9b 21 fe bd 5f 1c 9f bc 3b f1 9a be 82 da 98 3d
       -0.124087535 -0.019422708 -0.3026217 0.07463552
000200 13 34 6d be 81 64 98 3d 36 38 76 be 6d bc d2 bd
       -0.23164396 0.074410446 -0.2404488 -0.102898456
000210 f6 f1 8e be 90 eb b4 3d a8 e3 81 be 59 9e 1b bd
       -0.27918977 0.088339925 -0.25369 -0.03799281
000220 97 6a 93 be 2f 80 08 3e f9 b4 e6 bd f1 a0 82 bd
       -0.2879226 0.13330148 -0.112649865 -0.063783534
000230 15 04 3e be 6e f7 9a 3c 13 08 37 be 16 09 b7 bd
       -0.18556245 0.018916812 -0.17874174 -0.0893728
000240 93 d7 20 be 12 c1 41 3e bf e3 9a be dc 98 05 be
       -0.15707235 0.18921307 -0.3025188 -0.13046592
000250 84 4b 7b be 9d 00 1e 3e 7e 77 87 be 9e 1f 82 bd
       -0.24540526 0.15429921 -0.26458353 -0.06353687
000260 2a 06 d8 bd 47 7a ac 3d fb f3 52 be 63 df 4c bd
       -0.10548051 0.0842176 -0.20600884 -0.050017726
000270 85 a0 32 be a2 ed 8b 3a d1 3b 07 be d0 63 e8 bd
       -0.17444046 0.0010675678 -0.13206412 -0.11347163
000280 df d0 0b be 3b 2f 40 3e 47 aa 95 be 06 f6 9f ba
       -0.13653897 0.18768017 -0.29231474 -0.0012204058
000290 ac 96 33 be 16 f9 82 be 85 f2 e0 3d b8 e2 5c bd
       -0.17537946 -0.25580662 0.10983757 -0.053927153
0002a0 d1 e9 e7 39 e9 23 9a bd 52 0e 9d bd 1a fd 2d 3e
       0.0004423396 -0.075263806 -0.07668747 0.16991082
0002b0 c0 44 5f 3d 72 72 06 3f b2 65 96 3c fd f1 85 bd
       0.054508924 0.5251838 0.018359039 -0.06540296
0002c0 3e a5 9c be f0 ad 1c be 07 1a c0 be a6 7d 60 be
       -0.3059482 -0.15300727 -0.37519857 -0.21922931
0002d0 38 eb 88 be 01 30 9c bc ff 09 bc be 16 73 62 bd
       -0.26741958 -0.019065859 -0.36726376 -0.055285536
0002e0 61 0a 8c be c1 48 9a b9 75 8c 30 be e8 14 14 be
       -0.27351668 -0.00029427375 -0.1724108 -0.144611
0002f0 6d b0 3c be 65 48 2a 3d 7b cc 09 be ca 41 20 3e
       -0.18426676 0.041572947 -0.1345691 0.15650097
000300 83 7b 45 be e8 e7 07 be 55 b2 4a bd 1f 53 2e 3e
       -0.19285397 -0.13272059 -0.049486477 0.17023896
000310 4b 7d 81 bd 13 b2 d4 bd 01 f3 ea bd 11 ed 87 3d
       -0.06322726 -0.103855275 -0.114721306 0.06637014
000320 8a dd 94 bd 42 51 9a bb de f2 a6 bd 4e 8d 52 3d
       -0.07268818 -0.0047093937 -0.08151792 0.05140429
000330 cb 83 0f be 4e 69 d9 bd d4 cf 40 be e2 55 8e 3d
       -0.14015119 -0.106157884 -0.1882928 0.069499746
000340 14 97 c3 bd a1 03 72 bd 9a 35 09 be b2 d7 74 bd
       -0.095503 -0.059085492 -0.13399354 -0.059776016
000350 db 0e 0b be 51 48 10 bc 5f c0 2c be c1 06 bc 3d
       -0.13579886 -0.008806304 -0.16870259 0.09180976
000360 c3 03 04 be 69 ab 0e bd 4c 09 93 bd f6 d6 3f bd
       -0.1289206 -0.03483144 -0.071795076 -0.046835862
000370 4f 44 0b be 2a bc 27 be dd df b2 bd 43 2a 83 3d
       -0.13600276 -0.16380373 -0.08734105 0.06404545
000380 6f 09 0a be 07 63 27 bd b3 4b be bd 8e e9 43 be
       -0.13480161 -0.040865924 -0.09291782 -0.19132063
000390 c3 a2 8f 3d d2 5e 86 bd 32 cf 9d bd 28 94 27 bd
       0.07013466 -0.06561054 -0.07705535 -0.040912777
0003a0 4b c4 d3 bd a9 40 88 3d 99 e0 88 3d dc 81 f0 3e
       -0.10340174 0.06652958 0.066834636 0.46974075
0003b0 bd 46 ad 3d d7 e7 cb bd 5a 8b ba be 73 c9 52 3b
       0.08460758 -0.09956329 -0.36434442 0.003216353
0003c0 88 34 b3 be 2e 73 2c bc 41 7f d6 be 4f a0 22 be
       -0.35001016 -0.010525508 -0.41893962 -0.15881465
0003d0 36 a4 50 be 56 50 bd 3d c5 f2 79 be ff 52 f6 3c
       -0.20375142 0.092438385 -0.24409015 0.030068872
0003e0 51 1c 66 b9 39 74 88 3c 38 72 92 bd 80 06 7b 3d
       -0.00021945058 0.016656982 -0.07150692 0.061285496
0003f0 92 fa 06 bc 05 0e 91 3d ab d7 b9 3d b9 2e d2 bd
       -0.008238452 0.07082752 0.090743385 -0.10262818

linear.bias f4 [3]
000000 41 39 76 3d b5 99 a5 3d 6c 9e 10 be
       0.060113195 0.08085958 -0.14122933
