Pretrained/Transformer/BiTran_50.pt (torch, 455484 bytes, 34 tensors)

embed_layer.0.weight f4 [64, 64]
0	0xbddc6537	-0.10761493
1	0x3e71f5d3	0.23628931
2	0xbe600fc0	-0.21881008
3	0x3e2b0405	0.16700752
4	0xbd9ea564	-0.077463895
5	0x3d3a4da0	0.045484185
6	0x3f4a4256	0.7900747
7	0x3e46827a	0.1938571
8	0xbed37a27	-0.41304132
9	0x3e57b072	0.21063402
10	0x3ec6f639	0.38859728
11	0x3e14ed32	0.14543608
12	0x3d8bc269	0.0682419
13	0x3e577d39	0.21043862
14	0x3ed41b44	0.41427052
15	0x3df6916a	0.12039454
16	0xbca23264	-0.019799419
17	0x3c9d6ce2	0.019216958
18	0x3dd5e2db	0.1044366
19	0xbcb7b1e3	-0.02242369
20	0xbd696d03	-0.056988727
21	0x3e4edaf4	0.20200711
22	0x3de21dc2	0.11040832
23	0x3d04bfd4	0.032409504
24	0xbd8850e8	-0.06656057
25	0x3e6b4c1e	0.22978255
26	0x3e5529b6	0.20816693
27	0x3dd9bddc	0.10631916
28	0xbdcfc3bf	-0.101447575
29	0x3e7d0677	0.24709497
30	0x3e10e614	0.14150268
31	0x3e2a6eff	0.16643904
32	0x3dc88932	0.09791793
33	0x3e3f8847	0.1870433
34	0x3d852594	0.06501308
35	0x3e572be7	0.21012841
36	0x3dbae7f2	0.09126271
37	0x3e380219	0.1796955
38	0x3e4f2617	0.20229374
39	0xbc45b68f	-0.012067451
40	0xbc679626	-0.014134919
41	0x3e513876	0.20431694
42	0x3e498856	0.19680914
43	0x3dc530b4	0.0962843
44	0x3d30cd31	0.043164436
45	0xbe71e90f	-0.23624061
46	0xbdf052d2	-0.11734547
47	0x3c2c99c8	0.010534711
48	0xbd29cd2e	-0.04145544
49	0x3dc52522	0.09626223
50	0xbc921630	-0.017832845
51	0x3d662e68	0.0561966
52	0xbd7953fb	-0.060871106
53	0xbdfe53cd	-0.124183275
54	0xbdff9274	-0.124791056
55	0xbd6c55e8	-0.057699114
56	0x3d80365f	0.062603705
57	0xbe4fe023	-0.20300345
58	0x3f300cba	0.6876942
59	0xbf91f76e	-1.1403635
60	0xbf417c0c	-0.75579906
61	0xbfa6baf5	-1.3025805
62	0x3e28f2ff	0.16498946
63	0x3e1a9960	0.1509757
64	0x3d24005b	0.0400394
65	0xbdf51f10	-0.11968815
66	0x3d11436f	0.0354647
67	0xbd58689e	-0.052834146
68	0x3d78ab82	0.060710438
69	0xbd98546d	-0.07437978
70	0xbbb3da0a	-0.0054886388
71	0x3dacf2cd	0.08444748
72	0xbbd0ef7c	-0.006376205
73	0x3ccf1622	0.025279108
74	0xbcb10f54	-0.021613754
75	0xbd3dee7e	-0.046370022
76	0x3a88326c	0.0010391003
77	0x3dbed07e	0.093171105
78	0xbd2a57ea	-0.041587748
79	0xbdabba72	-0.08385171
80	0xbca210c6	-0.019783389
81	0x3d2beb1c	0.041972265
82	0xbc04d216	-0.008106729
83	0x3da4009d	0.080079295
84	0xbd23d6da	-0.03999982
85	0x3c69643f	0.014245092
86	0xbc450a78	-0.012026422
87	0x3d9a4beb	0.075340115
88	0xbccdbfb9	-0.025115835
89	0xbd8963ec	-0.06708512
90	0x3c70f73d	0.014707384
91	0x3deafa4b	0.11473521
92	0x3c0bdc4f	0.008536412
93	0xbe0b9074	-0.13629323
94	0x3bb3c68b	0.0054863147
95	0x3e0aad73	0.13542728
96	0xbb4db2bd	-0.0031387054
97	0x3c925938	0.017864808
98	0x3c5358be	0.012899576
99	0xbbb9370a	-0.005652313
100	0x3d0172fa	0.03160379
101	0x3d3cf13d	0.0461285
102	0x3dbb5ead	0.09148917
103	0x3dec1d8a	0.11529072
104	0x3b87e6ca	0.0041473852
105	0x3b9fc7b2	0.0048761005
106	0xbdab45b2	-0.08362903
107	0xbe2726e1	-0.16323425
108	0x3d399d66	0.045316122
109	0x3c439790	0.011937991
110	0x3d8443ae	0.064582214
111	0xbd94131e	-0.07230209
112	0xbd33f6bf	-0.043936487
113	0x3db7e222	0.08978678
114	0xbd2fa71c	-0.042883977
115	0xbda34d97	-0.079737835
116	0x3dbb0a2d	0.091328
117	0x3bbafd2b	0.0057064495
118	0xbf02ed8d	-0.51143724
119	0x3d651225	0.055925507
120	0xbf47cb86	-0.7804493
121	0xbdb70a89	-0.08937556
122	0xc06a6259	-3.6622527
123	0x3e14dbec	0.14537019
124	0x3b75ff34	0.0037536146
125	0xbd9d555e	-0.07682298
126	0xbd63b4dc	-0.055592403
127	0xbb5a0328	-0.0033266041
128	0x3ea2c0a9	0.31787613
129	0x3d8dcf4e	0.06924306
130	0xbddc2b0b	-0.10750397
131	0xbddb30e7	-0.10702687
132	0x3e476971	0.19473816
133	0xbbd4f6fe	-0.0064991703
134	0xbe6e5180	-0.23273277
135	0xbc04b4d8	-0.008099757
136	0xbe5a562a	-0.21321931
137	0xbd8b19a6	-0.067920014
138	0x3ec697f4	0.38787806
139	0x3e12d8aa	0.14340463
140	0x3eebe3c0	0.46072197
141	0xbd1bf8d4	-0.038079098
142	0x3eba14a9	0.36343887
143	0xbd600246	-0.054689668
144	0x3eb043e7	0.34426805
145	0x3d5fed29	0.054669533
146	0x3e07dff8	0.13269031
147	0xbd78ab87	-0.060710456
148	0x3eb44072	0.35205418
149	0x3d1e1362	0.038592704
150	0x3ecc21e3	0.39869604
151	0x3cf0f428	0.029413298
152	0x3ea2033d	0.31643096
153	0x3dba703f	0.091034405
154	0x3e97e9df	0.29670617
155	0x3de6f83a	0.11277814
156	0x3eb57b7d	0.35445777
157	0xbdbab42e	-0.09116398
158	0x3ef780e8	0.48340535
159	0xbd4934b0	-0.049122512
160	0x3e6c4b01	0.23075487
161	0x3da3a756	0.07990901
162	0x3e3bb875	0.18332084
163	0xbc5cbed3	-0.01347323
164	0x3e869d90	0.26292086
165	0x3deb82a8	0.1149953
166	0x3ec7364e	0.3890862
167	0xbc40dc00	-0.011771202
168	0x3e63394f	0.2218983
169	0x3dbbba05	0.0916634
170	0xbdd4ed1d	-0.10396788
171	0x3ef0c9aa	0.47028857
172	0xbd575af2	-0.052576967
173	0x3e476aee	0.19474384
174	0xbd5eeffc	-0.054428086
175	0x3d79f771	0.061026994
176	0x3e4e556f	0.20149778
177	0x3bdaa880	0.006672919
178	0x3bd1eea4	0.006406622
179	0x3dfcd287	0.123448424
180	0xbd51afff	-0.051193234
181	0x3e74974e	0.23885843
182	0x3f9d88c4	1.2307363
183	0x3e0e0774	0.1387003
184	0x3fa4e335	1.2881838
185	0x3e5727d9	0.21011294
186	0xbd80c7c9	-0.06288106
187	0x3e4bc3da	0.1989893
188	0xbf0d0ba7	-0.55095905
189	0x3e8114d5	0.25211206
190	0x3e39e9c9	0.18155588
191	0x3c8fb7c8	0.017543688
192	0xbe50d0ed	-0.20392199
193	0xbd26c55b	-0.040715557
194	0xbde33e8c	-0.11095914
195	0x3d60ee04	0.05491449
196	0xbda3ef5f	-0.08004641
197	0xbe201787	-0.15633975
198	0x3e4c8c73	0.19975452
199	0xbe1f582d	-0.1556098
200	0x3d8225f8	0.06354898
201	0x3d16529d	0.03669988
202	0x3dd916f5	0.10600082
203	0x3d8407ae	0.06446777
204	0x3cba77f8	0.022762284
205	0x3d2c9f20	0.04214394
206	0xbdba99dc	-0.091113776
207	0xbaa38696	-0.0012476023
208	0xbd7a4550	-0.061101258
209	0x3dc1ce55	0.09463183
210	0x3e31ee24	0.17376
211	0xbdfc659e	-0.123240694
212	0x3de85fa9	0.11346371
213	0xbdf45f85	-0.119322814
214	0x3d49e242	0.049288042
215	0x3d37e4aa	0.044895805
216	0x3e4e27c8	0.20132363
217	0x3d88d3d7	0.0668103
218	0x3d5d8d7e	0.054090016
219	0x3db9e785	0.09077362
220	0x3e563213	0.2091754
221	0xbc91418c	-0.01773145
222	0x3c898d78	0.01679109
223	0xbdc92d9a	-0.09823151
224	0x3e166ffa	0.14691153
225	0xbd4049a5	-0.046945233
226	0x3e56627a	0.20936003
227	0xbdf35bc2	-0.11882736
228	0x3e66bb02	0.22532275
229	0x3d3df82f	0.046379264
230	0x3e5e592a	0.21713701
231	0xbd5b0c37	-0.053478446
232	0x3ea841e2	0.32862765
233	0xbe16fc64	-0.14744717
234	0xbe1fa1b9	-0.15589036
235	0xbe577398	-0.2104019
236	0xbc388b17	-0.01126363
237	0x3d2ed769	0.0426859
238	0xbde09794	-0.10966411
239	0x3e07de30	0.13268352
240	0x3e9ae711	0.30254415
241	0x3d899a14	0.06718841
242	0xbdac5217	-0.08414095
243	0xbb931895	-0.0044890144
244	0x3e0bb73f	0.13644122
245	0x3e099149	0.13434328
246	0xbf454908	-0.7706456
247	0xbdd0aa55	-0.10188738
248	0xbf70767b	-0.93930787
249	0x3e1306b3	0.14358024
250	0xbfbc51d8	-1.4712477
251	0x3f02655b	0.50935906
252	0x3f8f7ba4	1.1209607
253	0x3eb3fbfe	0.35153192
254	0xbcbe79e6	-0.023251485
255	0x3e3b9512	0.18318585

embed_layer.0.bias f4 [64]
0	0x3d57afcc	0.052657887
1	0xc017d3df	-2.3723066
2	0xbfff3b60	-1.9939995
3	0x4006214b	2.095782
4	0x3fccbf99	1.5995971
5	0x3e8d024e	0.2754082
6	0x3ed1b3c9	0.40957478
7	0xc0077a6b	-2.1168468
8	0x3eda27a0	0.42608356
9	0x3ec72f1e	0.38903135
10	0xc042165a	-3.0326142
11	0xbee67d54	-0.45017493
12	0xbf77eb76	-0.9684366
13	0x401d7feb	2.4609325
14	0x3ee7251f	0.4514551
15	0x3ec1c92c	0.37848794
16	0x3fc7e1af	1.5615748
17	0x3f172f0d	0.5905617
18	0x4007ea5f	2.1236799
19	0xbf234058	-0.63770056
20	0xbffeff68	-1.9921694
21	0x3c9c6f78	0.019096121
22	0xbeaa6f64	-0.3328811
23	0xc0166003	-2.34961
24	0x3fdf367d	1.7438504
25	0xbf0dbb9d	-0.553644
26	0x3fa1f5d0	1.2653141
27	0xbd31e0dd	-0.043427337
28	0x40104a8e	2.2545505
29	0x400ba0c7	2.181688
30	0x401eae23	2.4793785
31	0xbfb9f90a	-1.4529126
32	0xbec68ef0	-0.38780928
33	0x3932309f	0.00016993516
34	0x3e457e02	0.1928635
35	0xbf2e8c19	-0.6818252
36	0xbcefe58d	-0.029284263
37	0xbe9aaeb2	-0.30211407
38	0xc01d0320	-2.4533157
39	0x3eeaca8d	0.4585766
40	0xc00e3169	-2.2217658
41	0xbe8c7fd0	-0.27441263
42	0x401777e2	2.366692
43	0xbf8055be	-1.0026166
44	0xbf96c522	-1.177891
45	0xc01d5972	-2.4585843
46	0xbf99d9e1	-1.2019616
47	0x4026be62	2.60537
48	0xbfaa71b8	-1.3315954
49	0xbd3f8d37	-0.046765532
50	0x3fbfc547	1.4982079
51	0xbd2e1b24	-0.042506352
52	0xc024063a	-2.56288
53	0x3b866c42	0.004102261
54	0xbd38a658	-0.045080513
55	0x3f6a7970	0.9159155
56	0x401ee4e7	2.482721
57	0xc045be44	-3.089738
58	0x3fec7e9f	1.8476142
59	0x400ed157	2.231527
60	0xbf6cc5db	-0.92489403
61	0xbd82d81e	-0.06388877
62	0xbf947c5a	-1.1600449
63	0xbcfed2b6	-0.031106334

embed_layer.1.weight f4 [64]
0	0x3eab195e	0.3341779
1	0x3f2d4d4f	0.6769609
2	0x3e498d7d	0.1968288
3	0x3e4e01ea	0.20117918
4	0x3e265874	0.1624468
5	0x3dee64f8	0.11640352
6	0x3e72da62	0.23716119
7	0x3e2812ff	0.16413496
8	0x3e0ed3f5	0.13948043
9	0x3dd682b2	0.10474147
10	0x3e18402c	0.1486823
11	0x3e298291	0.16553713
12	0x3eaad350	0.33364344
13	0x3f3b17ca	0.73083174
14	0x3dd4fa22	0.103992715
15	0x3e09b49a	0.134478
16	0x3dc5de20	0.096615076
17	0x3e7078ae	0.23483536
18	0x3e83256f	0.25614497
19	0x3e143c8a	0.14476219
20	0x3e3e3162	0.18573526
21	0x3e947fcc	0.2900375
22	0x3e895695	0.2682387
23	0x3f08b980	0.5340805
24	0x3e86a688	0.26298928
25	0x3e23afdc	0.15985054
26	0x3e039df0	0.12853217
27	0x40348139	2.8203871
28	0x3ecc4f07	0.39904043
29	0x3e5ccd99	0.21562804
30	0x3f29dcb0	0.6635237
31	0x3df4db68	0.11955911
32	0x3dfee244	0.124455005
33	0x3e78667a	0.24257842
34	0x3ec72136	0.38892525
35	0x3e1121b0	0.14173007
36	0x403f33eb	2.9875438
37	0x3e8208bf	0.25397298
38	0x3f51693f	0.8180122
39	0x3e448d02	0.19194415
40	0x3e4a3957	0.19748436
41	0x3e1e5544	0.15462214
42	0x3f124dc4	0.5714991
43	0x3e57c594	0.21071464
44	0x3e00a81a	0.12564126
45	0x3f0a25e0	0.5396404
46	0x3ebdc912	0.37067467
47	0x3ddf8f62	0.1091602
48	0x3e0f7ccb	0.14012448
49	0x40424463	3.035424
50	0x3e7f9bc8	0.2496177
51	0x403ff01d	2.9990304
52	0x3e5a2322	0.21302465
53	0x3fc1e26c	1.5147223
54	0x40338401	2.8049319
55	0x3dc29674	0.09501353
56	0x3f0936ef	0.53599447
57	0x3e08645c	0.13319534
58	0x3e100860	0.14065695
59	0x3d90c732	0.070692435
60	0x3e6e69af	0.23282503
61	0x403a85fa	2.9144273
62	0x3e850d0e	0.25986522
63	0x40344115	2.8164723

embed_layer.1.bias f4 [64]
0	0xbc6dae25	-0.014506851
1	0xbdeb02e5	-0.114751615
2	0x3e77a4e2	0.24183992
3	0xbe81fc8e	-0.25387996
4	0xbe13ed52	-0.14446
5	0xbcc1793a	-0.023617376
6	0xbd982609	-0.0742913
7	0x3e772200	0.24134064
8	0xbd1cc067	-0.038269427
9	0xbb30a1a2	-0.002695181
10	0x3e91197f	0.28339764
11	0x3d17f07b	0.037094574
12	0x3e04355c	0.1291098
13	0x3e10b92d	0.14133139
14	0xbd60f9c5	-0.0549257
15	0xbd2ab547	-0.041676786
16	0xbdf36e42	-0.118862644
17	0xbd7de5d9	-0.061986778
18	0xbe84c063	-0.2592803
19	0x3d248706	0.04016783
20	0x3dfddbc5	0.12395433
21	0x3c13ffd7	0.009033165
22	0x3c766222	0.015038045
23	0xbdd15fab	-0.10223325
24	0x3d30aa87	0.043131378
25	0xbd03d1ca	-0.032182492
26	0xbdebe151	-0.11517585
27	0x3c793d70	0.015212402
28	0x3dd084f9	0.101816125
29	0xbe78fa08	-0.2431413
30	0x3e2e1428	0.16999876
31	0x3d61e031	0.055145446
32	0xbbd5fa1d	-0.00653006
33	0xbbb399c1	-0.0054809754
34	0xbc6167f5	-0.013757695
35	0x3d286aaa	0.041117348
36	0xbb8c01e2	-0.0042726854
37	0x3d50ce77	0.05097815
38	0xbe01960e	-0.12654898
39	0xbd402493	-0.04690988
40	0x3e8eef93	0.27917156
41	0x3c227b39	0.009917074
42	0x3dd8c8d4	0.1058518
43	0x3da2cb0b	0.079488836
44	0xbd947273	-0.07248392
45	0xbe04076f	-0.1289346
46	0x3e324562	0.1740928
47	0xbe303c93	-0.17210607
48	0x3dfd1e27	0.12359267
49	0xb9ef38c4	-0.00045627926
50	0xbe02b82b	-0.12765567
51	0x3bd98742	0.0066384384
52	0x3ea420a1	0.32056144
53	0xbcb3eebe	-0.021964427
54	0x3aef3ed7	0.0018252981
55	0xbd612ac0	-0.05497241
56	0x3e086888	0.13321126
57	0x3ea27eea	0.31737453
58	0xbe0e2c5e	-0.13884112
59	0xbe14fd32	-0.14549711
60	0x3e1a942f	0.1509559
61	0x3bf610c8	0.0075093247
62	0x3e1e5b4d	0.15464516
63	0xbc8bf64f	-0.017085223

positional_encoder.feature_projection.weight f4 [64, 64]
0	0x3d3845d7	0.04498848
1	0xbe9edb02	-0.31026465
2	0x3e0bb7ce	0.13644335
3	0x3d798de2	0.060926326
4	0xbe470b1b	-0.1943783
5	0xbe8e1230	-0.2774825
6	0xbe46fd82	-0.19432643
7	0x3ed1f6fc	0.41008747
8	0xbe0c7a62	-0.1371856
9	0xbdc3918d	-0.09549246
10	0x3ec44fc2	0.383421
11	0xbe1a83cf	-0.15089343
12	0x3e747f62	0.23876718
13	0xbd828fa9	-0.06375057
14	0xbecd42d7	-0.40090057
15	0xbeb607fa	-0.3555296
16	0xbeabb83d	-0.33539
17	0x3e416a48	0.188882
18	0x3e8ce150	0.2751565
19	0x3cb927a5	0.022601912
20	0x3e254708	0.16140378
21	0xbee46e1a	-0.4461525
22	0x3d76b645	0.06023242
23	0xbdb45923	-0.08806064
24	0x3e3d749f	0.18501519
25	0xbe5db1b9	-0.21649827
26	0xbd677c67	-0.056515124
27	0xbe0450c7	-0.12921439
28	0x3df5dafa	0.12004657
29	0xbe5c5ad2	-0.2151902
30	0x3e4a540f	0.19758628
31	0x3ec5c302	0.38625342
32	0xbe219245	-0.15778454
33	0x3e503b9a	0.20335236
34	0x3e27f949	0.16403688
35	0x3e0d5689	0.13802542
36	0x3e5332ec	0.20624894
37	0xbdb7c11f	-0.08972382
38	0xbd7a1842	-0.06105829
39	0xbe11432a	-0.14185777
40	0x3d309063	0.043106448
41	0xbee24c15	-0.4419867
42	0xbd93d001	-0.07217408
43	0xbd75fc97	-0.06005534
44	0xbe97a76e	-0.29619926
45	0xbe675ee1	-0.22594787
46	0x3da91239	0.08255429
47	0xbeda2d7d	-0.4261283
48	0x3eed6df0	0.46372938
49	0x3e6be534	0.23036653
50	0x3f06f7c0	0.52721786
51	0x3c86c51c	0.016451411
52	0x3c0a550b	0.008443127
53	0x3e00ad31	0.12566067
54	0x3e3aacfd	0.18230052
55	0x3e41d93c	0.18930525
56	0x3d3e2c79	0.04642913
57	0x3f1068e8	0.56410074
58	0xbded4660	-0.115856886
59	0xbe2ce042	-0.16882423
60	0x3e9a069a	0.30083162
61	0xbe1d4c48	-0.1536113
62	0xbd96d6e3	-0.07365205
63	0x3eaa37e9	0.3324578
64	0xbe787e0f	-0.24266838
65	0x3e9967a5	0.29961887
66	0x3ed05e4a	0.40696937
67	0xbea98704	-0.3311082
68	0xbe52f0ca	-0.20599666
69	0x3d305f35	0.043059547
70	0x3d01fb2b	0.031733673
71	0x3eb5a646	0.3547842
72	0x3dd32929	0.10310585
73	0xbe12fec3	-0.14354996
74	0x3f03b52e	0.51448333
75	0x3e9336af	0.28752658
76	0xbdc561f8	-0.09637827
77	0xbdfae6e1	-0.12251068
78	0x3db44e23	0.08803966
79	0xbd841688	-0.0644961
80	0x3e2a23dc	0.16615242
81	0x3d09502f	0.033523735
82	0xbea16cfa	-0.31528455
83	0x3c2f7900	0.010710001
84	0x3eaf8cb4	0.34287035
85	0xbcb3d878	-0.021953806
86	0x3e5f4fff	0.2180786
87	0x3d86e873	0.06587305
88	0xbdbf5169	-0.093417
89	0xbe15acbf	-0.14616679
90	0xbe1d4852	-0.1535962
91	0xbe32b45c	-0.17451614
92	0xbdcb3bf7	-0.09923547
93	0xbed008c6	-0.40631694
94	0xbe0d892f	-0.13821863
95	0xbce1988b	-0.027538558
96	0x3cfdd841	0.030986907
97	0xbe8a7e10	-0.27049303
98	0x3d967ed4	0.07348409
99	0x3e33c714	0.17556411
100	0x3d1ea5b3	0.03873224
101	0x3dabbce4	0.083856374
102	0x3d938b9d	0.072043635
103	0xbe91e390	-0.2849393
104	0x3ef6b9a5	0.4818851
105	0x3dfd0987	0.12355333
106	0x3cdaf8d8	0.026729986
107	0x3e64178a	0.22274604
108	0xbd3f0c00	-0.046642303
109	0xbddd5ac1	-0.108083256
110	0xbdabc3e8	-0.083869755
111	0xbd839b9c	-0.064261645
112	0x3e6643ae	0.22486755
113	0xbe5029fa	-0.20328513
114	0xbe3779d3	-0.17917566
115	0x3e20f315	0.15717728
116	0x3f1b785c	0.6073053
117	0x3d9799a4	0.074023515
118	0xbd448bc2	-0.047984846
119	0xbe6c0813	-0.23049955
120	0x3e3ed107	0.18634425
121	0x3f1d0924	0.6134207
122	0xbefaacce	-0.48959965
123	0x3d458d75	0.048230607
124	0xbe133154	-0.14374286
125	0x3d74f3ff	0.059803005
126	0x3e9a2687	0.3010752
127	0xbd7b7d69	-0.061398897
128	0xbf6fdb6c	-0.93694186
129	0xbdd0372d	-0.10166774
130	0xbf19fbb2	-0.6014968
131	0x3da52c76	0.08065121
132	0xbd57cec7	-0.052687433
133	0x3e45530e	0.19269964
134	0x3f1ba356	0.60796106
135	0xbeabe0de	-0.33569998
136	0x3eaca438	0.3371904
137	0x3e83cf37	0.2574403
138	0xbee32e91	-0.44371465
139	0x3f1b1597	0.6057982
140	0x3e707b71	0.23484589
141	0x3e856157	0.26050827
142	0xbb9c0e94	-0.00476248
143	0x3e39a034	0.18127519
144	0x3e4f4914	0.20242721
145	0x3e47b794	0.19503623
146	0x3ee1f0fa	0.44129163
147	0xbef81a0e	-0.48457378
148	0xbe802d3d	-0.25034514
149	0xbcbe8c86	-0.023260366
150	0xbe6facc6	-0.23405752
151	0xbd346b1a	-0.044047453
152	0x3e2d5847	0.16928206
153	0x3edec40e	0.43508953
154	0xbe5efe9c	-0.21776813
155	0xbf1743cc	-0.59087825
156	0x3e00cacd	0.12577362
157	0x3e1b5940	0.15170765
158	0x3d3d74a6	0.046253823
159	0xbe032b7d	-0.12809558
160	0x3e78cb8b	0.24296395
161	0xbf0779b6	-0.5292009
162	0x3e8bab0f	0.27278945
163	0xbea96a35	-0.33088842
164	0x3f0a1493	0.53937644
165	0x3e4e50b3	0.20147972
166	0xbc5824f0	-0.0131924
167	0xbe8d1baf	-0.27560183
168	0xbf5c7838	-0.8612094
169	0x3e36b5de	0.17842814
170	0x3d84550b	0.06461533
171	0x3e3b163a	0.18270198
172	0x3e969cc3	0.29416475
173	0xbd702f56	-0.058638893
174	0x3eff196a	0.49824077
175	0x3e8c35b1	0.27384713
176	0xbe625ece	-0.22106478
177	0x3ef244df	0.4731817
178	0x3caa4595	0.020785132
179	0xbf193498	-0.59845877
180	0xbecbca62	-0.39802843
181	0x3e85bbf1	0.2611995
182	0xbf1a7c91	-0.60346323
183	0x3ea5c2ce	0.32375187
184	0xbcba17fe	-0.022716518
185	0xbf0a94cf	-0.54133314
186	0x3e9842ba	0.29738408
187	0x3e11dddc	0.14244789
188	0x3e4389ec	0.19095582
189	0xbebe151c	-0.3712548
190	0x3df53821	0.11973596
191	0x3ef7af9e	0.48376173
192	0xbd5af21d	-0.053453553
193	0x3ea25665	0.3170654
194	0xbf471efb	-0.7778165
195	0xbd65c94f	-0.056100186
196	0xbee966fe	-0.4558639
197	0x3d9b9582	0.07596876
198	0x3ecdc0a5	0.4018604
199	0x3eb89bf4	0.36056483
200	0x3d46cb4e	0.04853373
201	0x3e71ac3b	0.23600857
202	0x3e1e64a8	0.15468085
203	0xbe40ff7b	-0.18847458
204	0x3ee3de77	0.44505665
205	0xbd8e7d0d	-0.06957445
206	0xbde48acd	-0.11159287
207	0xbe3f1a85	-0.1866246
208	0xbe9ad753	-0.30242404
209	0xbef91275	-0.48646894
210	0x3c30a65b	0.01078185
211	0x3edcbfdf	0.43115136
212	0x3f018ff3	0.50610274
213	0x3e9194bb	0.28433785
214	0xbd8adaa5	-0.067799844
215	0x3e1ad34e	0.15119669
216	0x3e933ab5	0.28755727
217	0x3f19d0fd	0.60084516
218	0xbea43ec1	-0.32079127
219	0x3e15874a	0.1460239
220	0xbe60c0ce	-0.21948549
221	0x3e632141	0.22180654
222	0xbd8fa7e6	-0.07014446
223	0xbd7b0a40	-0.061289072
224	0x3e016511	0.1263621
225	0x3ce7da9a	0.02830248
226	0xbe86d345	-0.2633306
227	0x3e56ffc0	0.20995998
228	0xbe5a29ca	-0.21305004
229	0x3cc08e6c	0.023505412
230	0x3d5dacd4	0.0541199
231	0x3e879ff7	0.2648923
232	0xbe7f85fa	-0.24953452
233	0xbdb95701	-0.09049798
234	0x3e552e9d	0.20818563
235	0xbe844429	-0.25833252
236	0x3d8321f2	0.06402959
237	0x3e318bdc	0.17338508
238	0x3f1d206f	0.61377615
239	0x3df5f6b1	0.12009943
240	0x3f0a9c99	0.541452
241	0x3e18e121	0.1492963
242	0xbee64f8b	-0.4498256
243	0xbdeef8de	-0.116685614
244	0x3ea106cb	0.31450495
245	0xbe134aa7	-0.14383946
246	0x3e621616	0.22078738
247	0x3d45ec0d	0.04832082
248	0xbd8c97c0	-0.068648815
249	0xbeb09308	-0.34487176
250	0xbe550dab	-0.20805995
251	0xbe689032	-0.22711256
252	0xbe87a586	-0.26493472
253	0x3d9faa16	0.07796113
254	0x3f84408a	1.0332196
255	0xbeda4e28	-0.42637753

positional_encoder.feature_projection.bias f4 [64]
0	0xbe9e350c	-0.30899847
1	0xbe6a1e48	-0.22863114
2	0x3ed3485a	0.41266137
3	0xbf1ff3a8	-0.62481165
4	0xbf52de41	-0.8237038
5	0xbf150bef	-0.58221334
6	0x3f4f03d0	0.8086519
7	0xbedb5af3	-0.42842826
8	0x3e5aebcb	0.2137901
9	0xbed67a43	-0.41890153
10	0xbed29273	-0.41127357
11	0xbe4843c0	-0.19557095
12	0x3e7571ca	0.23969188
13	0x3d8df4bd	0.06931446
14	0xbf343d83	-0.7040636
15	0xbdae90af	-0.0852369
16	0x3f36a034	0.713382
17	0xbf30af80	-0.6901779
18	0x3f414242	0.75491726
19	0x3edc0035	0.42968908
20	0xbe10ab23	-0.14127783
21	0x3f1dbc3f	0.61615366
22	0xbee105d3	-0.43949756
23	0x3ec5e11f	0.38648316
24	0xbf884498	-1.0645933
25	0x3e96b3f5	0.2943417
26	0xbe595423	-0.21223502
27	0xbe85b462	-0.26114184
28	0xbf49c4dd	-0.78816015
29	0xbeaf7968	-0.34272313
30	0xbf0c347d	-0.5476759
31	0xbf2b31b3	-0.6687271
32	0xbe6bc0f3	-0.23022823
33	0xbf60e89a	-0.8785492
34	0x3dc067c9	0.093947954
35	0xbee556b4	-0.44792712
36	0xbf327473	-0.6970894
37	0xbf8867f3	-1.0656723
38	0xbdcf9307	-0.10135465
39	0xbf332a0a	-0.6998602
40	0xbe896d21	-0.2684107
41	0xbf3b8e57	-0.7326407
42	0xbdac4285	-0.08411125
43	0xbf375151	-0.71608454
44	0x3d48e4eb	0.04904644
45	0xbea6a80a	-0.3255008
46	0xbee769de	-0.45197958
47	0xbefa3a31	-0.48872522
48	0x3d429a04	0.047510162
49	0xbf4395a2	-0.76400197
50	0xbe524e9e	-0.20537803
51	0xbef086a4	-0.46977723
52	0xbe81a2ee	-0.25319618
53	0xbe7a73e9	-0.24458279
54	0xbde78608	-0.11304861
55	0xbf27b95f	-0.6551723
56	0xbe1364e3	-0.14393954
57	0xbefdc5cc	-0.4956497
58	0x3e0bdfe1	0.13659622
59	0xbf34a358	-0.7056174
60	0xbde175ac	-0.11008772
61	0xbf094376	-0.5361856
62	0x3e674280	0.22583961
63	0xbf28333b	-0.6570317

transformer_encoder.layers.0.self_attn.in_proj_weight f4 [192, 64]
0	0xbe4be1bf	-0.19910334
1	0x3da00915	0.07814232
2	0x3ea02934	0.31281435
3	0x3ef3fd52	0.47654206
4	0xbcbbbef7	-0.022918208
5	0x3e9efaf7	0.31050846
6	0x3e14f12a	0.14545122
7	0xbcabea6a	-0.0209858
8	0xbe5f8181	-0.21826746
9	0x3d9f228f	0.077702634
10	0xbe551640	-0.20809269
11	0x3de3c10f	0.111208074
12	0xbd0573b8	-0.03258106
13	0xb9935efc	-0.00028108794
14	0xbe44e2cf	-0.19227146
15	0x3d848323	0.06470325
16	0xbcd564c1	-0.02604902
17	0xbdefe8ef	-0.117143504
18	0x3d95aaa3	0.07307937
19	0x3d9c3073	0.076264285
20	0xbedb7490	-0.42862368
21	0xbdb25464	-0.087075025
22	0xbe20bd0f	-0.1569712
23	0x3dddd786	0.108321235
24	0x3d7680e5	0.060181517
25	0xbdf11edd	-0.11773465
26	0xbdca5dc7	-0.09881168
27	0x3d718dbb	0.058973055
28	0x3eb181cf	0.3466935
29	0x3d892720	0.066969156
30	0x3e730193	0.2373107
31	0x3e44699f	0.19180916
32	0x3e9ac693	0.30229625
33	0x3d9461ba	0.07245202
34	0x3de47e69	0.11156923
35	0x3e2fce97	0.17168652
36	0x3e019a50	0.12656522
37	0xbda06390	-0.0783149
38	0x3e0a2a65	0.13492735
39	0x3d641cd0	0.05569154
40	0x3e3e4578	0.18581188
41	0xbd3dc327	-0.04632869
42	0x3d0c639d	0.034274686
43	0xbc6eb153	-0.014568645
44	0xbe2409b1	-0.16019322
45	0x3e579e70	0.21056533
46	0xbdeab0bc	-0.11459491
47	0xbe8340ae	-0.25635284
48	0xbd0039db	-0.031305175
49	0xbda0b858	-0.07847661
50	0x3d96d6c0	0.07365179
51	0xbe526098	-0.2054466
52	0x3c8c77e5	0.017147014
53	0x3deeec04	0.1166611
54	0x3bea5e54	0.007152358
55	0xbee03247	-0.4378836
56	0x3d5756cb	0.052573007
57	0x3e89b62f	0.26896808
58	0x3dfbded4	0.122983605
59	0x3e457c47	0.1928569
60	0xbf03ff42	-0.5156137
61	0x3dd4249d	0.10358546
62	0xbd223c8e	-0.03960853
63	0x3e2460bc	0.16052526
64	0x3db8f1b8	0.09030479
65	0x3e38ad23	0.18034796
66	0xbe29a08b	-0.16565149
67	0x3df577e7	0.1198576
68	0x3ec023c4	0.37527287
69	0x3e1c202c	0.15246648
70	0xbe177dd5	-0.14794095
71	0x3e79b815	0.24386628
72	0xbd334916	-0.043770872
73	0x3dec72b6	0.11545317
74	0x3f093757	0.53600067
75	0x3ea8b30d	0.32949105
76	0xbe36cdd2	-0.17851952
77	0xbe141bce	-0.14463732
78	0xbe6172df	-0.22016476
79	0x3ead7945	0.33881584
80	0x3ed3ffb6	0.4140603
81	0x3ddcf1ee	0.10788332
82	0x3de8bd90	0.11364281
83	0x3ef9d16c	0.4879259
84	0xbe4f432a	-0.20240465
85	0xbeab2394	-0.3342558
86	0xbb9e7cae	-0.0048366403
87	0xbe9076b7	-0.28215572
88	0x3e3493ca	0.17634502
89	0xbed44eab	-0.4146627
90	0x3e362b57	0.1778997
91	0xbe17db43	-0.14829735
92	0x3e4936ab	0.1964976
93	0x3e9c3231	0.30507043
94	0x3eab3876	0.33441514
95	0xbda377c2	-0.07981826
96	0x3e344bc2	0.17607024
97	0x3e859395	0.2608916
98	0x3e5d9316	0.2163814
99	0x3eb2355f	0.34806344
100	0xbe77708a	-0.24164024
101	0x3e810fde	0.25207418
102	0x3eec35d4	0.46134818
103	0x3ec8adb6	0.3919503
104	0xbe5697c1	-0.20956327
105	0x3e466a55	0.193765
106	0x3ed9124a	0.42396766
107	0x3ea42187	0.3205683
108	0xbd0a5ccc	-0.033779904
109	0x3eb06195	0.3444945
110	0xbe670e6c	-0.22564095
111	0x3c2719e7	0.010199047
112	0x3e623d32	0.22093657
113	0x3dbedd03	0.093194984
114	0x3d49d7fa	0.049278237
115	0xbe7244f7	-0.2365912
116	0x3e232ea1	0.15935756
117	0x3edab469	0.42715767
118	0xbd1481ff	-0.036256786
119	0x3d588822	0.0528642
120	0x3e1b100e	0.15142843
121	0x3dcd116e	0.1001309
122	0x3ecbe089	0.39819744
123	0x3d3ab67b	0.045584183
124	0xbf025123	-0.50905055
125	0xbe05427a	-0.1301364
126	0x3d0f78fc	0.03502749
127	0x3e7398d6	0.23788771
128	0xbde92ae1	-0.113851316
129	0xbc11a859	-0.008890235
130	0x3dafac4c	0.08577785
131	0xbe75da5c	-0.24009079
132	0x3e218175	0.1577204
133	0xbd9849e5	-0.07435969
134	0x3d751679	0.059835885
135	0x3e1268d2	0.14297798
136	0x3e2abac9	0.16672815
137	0xbddd68c6	-0.108109996
138	0x3dffc2d1	0.1248833
139	0x3dcdffcd	0.10058556
140	0xbde932d1	-0.113866456
141	0xbe1f64d5	-0.15565808
142	0xbd6d5070	-0.05793804
143	0xbc6b9163	-0.014377925
144	0xbda45233	-0.08023491
145	0x3e53fa4f	0.20700954
146	0x3d40ce79	0.047071908
147	0x3d9cccd7	0.076562576
148	0x3e3761ee	0.17908451
149	0xbe3f261f	-0.18666886
150	0xbb3c3c1e	-0.0028722356
151	0xbd6de206	-0.05807688
152	0xbe5d540f	-0.21614097
153	0x3d5784a6	0.052616738
154	0x3d964388	0.07337099
155	0x3e164657	0.1467527
156	0xbd4c05ab	-0.049810093
157	0x3e82ec83	0.2557107
158	0xbeba071a	-0.36333543
159	0x3e20f409	0.15718092
160	0x3d2b379c	0.04180108
161	0x3e9fe9db	0.31233105
162	0x3e4fc429	0.20289673
163	0xba8b80ca	-0.001064324
164	0x3d4552f3	0.04817481
165	0xbdc33587	-0.09531694
166	0x3e66b252	0.22528961
167	0xbe3684b7	-0.17824064
168	0xbe06e250	-0.13172269
169	0x3d3ffb5d	0.046870578
170	0xbdd84a0e	-0.10561
171	0xbea1d9ee	-0.3161158
172	0xbe491b29	-0.19639267
173	0x3e0aa89c	0.13540882
174	0x3e2a68b9	0.16641511
175	0x3e09e1d1	0.13465048
176	0xbe3374fc	-0.17525095
177	0xbea65ee1	-0.32494262
178	0x3dd43e86	0.10363488
179	0x3e44f5d3	0.192344
180	0x3d8af412	0.06784834
181	0x3cfc72eb	0.030816516
182	0xbec3fce8	-0.3827889
183	0x3daab1b8	0.083346784
184	0xbcebae7a	-0.02876972
185	0xbde74aec	-0.11293587
186	0x3e675f6e	0.22594997
187	0xbeb1c183	-0.3471795
188	0x3dd3dc74	0.103447825
189	0x3de1a651	0.110180505
190	0x3d221693	0.03957231
191	0x39d30406	0.00040248054
192	0xbd74741a	-0.059681036
193	0x3ddb8bd6	0.10720031
194	0xbe8547df	-0.26031396
195	0x3ec99a5a	0.39375573
196	0xbe001a2e	-0.12509987
197	0x3db23b46	0.08702712
198	0xbe6ff679	-0.23433866
199	0xbd822bcd	-0.063560106
200	0x3ca98fac	0.02069839
201	0xbd88ed49	-0.066858836
202	0x3e3ba3d1	0.1832421
203	0x3e02bce9	0.12767376
204	0xbe9fce07	-0.31211874
205	0xbcc7d360	-0.024392784
206	0xbe2f96a2	-0.17147306
207	0x3de6a7db	0.11262485
208	0xbe6922dc	-0.22767204
209	0xbc5f220d	-0.013618958
210	0xbdb9846c	-0.090584606
211	0x3dd0c0da	0.101930335
212	0x3de04517	0.10950678
213	0xbdb9a213	-0.09064116
214	0x3e8c9460	0.2745695
215	0xbd36e358	-0.044650406
216	0x3da76980	0.081744194
217	0xbd43366f	-0.047659334
218	0xbdbc6d39	-0.0920052
219	0xbe9cc512	-0.30619103
220	0x3e5f9b17	0.21836506
221	0x3e164d02	0.14677814
222	0x3e44b1ff	0.19208525
223	0xbea0f4e1	-0.31436828
224	0x3f0f993f	0.5609321
225	0xbba0ca5b	-0.004906935
226	0xbcf4291b	-0.029804757
227	0x3e37fbf8	0.17967212
228	0xbe3ab096	-0.18231425
229	0xbe4eb880	-0.20187569
230	0x3b0fff19	0.0021972118
231	0x3ddad6c8	0.106854975
232	0xbe1d234d	-0.15345497
233	0x3ea0f4e0	0.31436825
234	0xbd20952d	-0.039204765
235	0x3e690d6f	0.22759031
236	0x3ebc2fb6	0.3675515
237	0xbd96eb59	-0.07369108
238	0xbe80e643	-0.25175676
239	0x3d61983a	0.055076815
240	0xbd979372	-0.0740117
241	0xbd92446d	-0.071419574
242	0x3e3d8132	0.18506315
243	0x3e02978f	0.12753128
244	0xbecf5cf3	-0.40500602
245	0xbea6fd5c	-0.32615173
246	0xbd95ab1a	-0.07308026
247	0x3bb696ab	0.0055721602
248	0x3e003efa	0.12524024
249	0x3e7640c0	0.24048138
250	0xbe7eb1ff	-0.24872588
251	0xbc323627	-0.010877169
252	0x3e79e890	0.24405122
253	0xbea7d0c8	-0.32776475
254	0xbd0a1eba	-0.03372071
255	0x3e09e9de	0.1346812

transformer_encoder.layers.0.self_attn.in_proj_bias f4 [192]
0	0x3e9b2b6b	0.30306563
1	0x3f761aac	0.9613445
2	0xbec2f4fe	-0.3807754
3	0x3eacc627	0.33744928
4	0xbe7fc131	-0.2497604
5	0x3f27823a	0.65433085
6	0x3e33606f	0.17517255
7	0x3e19777b	0.14986984
8	0x3fa68b19	1.3011199
9	0xbed793bd	-0.42104903
10	0x3d2c03cb	0.041995805
11	0x3c8bbb40	0.017057061
12	0xbefad665	-0.48991695
13	0x3f49bd01	0.7880402
14	0x3ea66354	0.32497656
15	0xbd09ebd7	-0.03367218
16	0x3eba7f04	0.3642503
17	0x3d628a51	0.05530769
18	0x3f33179f	0.6995792
19	0x3f2e005a	0.67969286
20	0x3e36f3a5	0.1786638
21	0xbfd20177	-1.6406697
22	0x3ebacfd4	0.36486685
23	0x3f860b17	1.0472134
24	0xbc95db7c	-0.018293135
25	0x3ec196e8	0.37810445
26	0xbf514d32	-0.81758416
27	0xbe0099be	-0.12558648
28	0x3fc1d1cd	1.5142151
29	0x3e843c06	0.25827044
30	0xbf1f211f	-0.62159914
31	0x3ea1d623	0.31608686
32	0x3f05abe8	0.52215433
33	0xbe81a900	-0.2532425
34	0x3f16f4cf	0.589673
35	0x3e9872c3	0.29775056
36	0x3ed5ef44	0.41784108
37	0x3d8f0312	0.069830075
38	0xbfd0721f	-1.6284827
39	0x3b892723	0.0041855737
40	0x3ef5075c	0.47857177
41	0xbf0104f4	-0.5039818
42	0x3e099ee7	0.13439523
43	0xbe765567	-0.24056016
44	0x3f925e56	1.1435039
45	0x3e96ec8b	0.29477343
46	0x3f7c0e0b	0.9845893
47	0x3f7943cd	0.9736908
48	0xbf2461d0	-0.6421175
49	0xbe2fd2c9	-0.17170252
50	0x3d978976	0.073992655
51	0x3fcb69e6	1.5891693
52	0x3e4ac6fa	0.19802466
53	0xbebfc307	-0.37453482
54	0x3e59ddbf	0.21275996
55	0xbf14a5ef	-0.58065695
56	0xbf5a1379	-0.8518596
57	0xbf14d46b	-0.58136624
58	0x3f0fab9e	0.5612124
59	0x3f230fa4	0.6369574
60	0xbf3a23dc	-0.7271097
61	0xbf610f9f	-0.8791446
62	0x3fa5d700	1.2956238
63	0x3f43abe5	0.76434165
64	0xbebbbcba	-0.36667424
65	0xc0168ee1	-2.3524706
66	0x3e19e681	0.15029337
67	0xbe821ceb	-0.25412688
68	0x3e819747	0.25310728
69	0xbf538e65	-0.8263915
70	0xbd3a3ffe	-0.045471184
71	0x3eb05141	0.34436992
72	0xc00a6321	-2.1623003
73	0xbdcd7be1	-0.10033394
74	0x3da3556b	0.079752766
75	0xbd9fd294	-0.078038365
76	0x3ef80339	0.4843996
77	0xbfa59d8a	-1.2938702
78	0xbdc7ab5c	-0.09749481
79	0xbf2ac206	-0.66702306
80	0xbe0c0e57	-0.13677345
81	0xbeb72f22	-0.35778147
82	0xbf20e365	-0.62846977
83	0xbf0fcc97	-0.56171554
84	0xbeb6cc8c	-0.35702932
85	0x3fe7f5ba	1.8121865
86	0xbec24049	-0.3793967
87	0xbf88271a	-1.0636933
88	0x3e9d8a2e	0.30769485
89	0xbef7262d	-0.48271313
90	0x4004f5a1	2.077492
91	0x3e1841e0	0.1486888
92	0xc01602f2	-2.3439298
93	0x3d58e0d0	0.052948773
94	0x3f1537ac	0.58288074
95	0xbf719976	-0.9437479
96	0xbd21fd9b	-0.039548498
97	0x3d0c5b06	0.034266494
98	0xbef92ad6	-0.48665494
99	0x3f149bcb	0.5805022
100	0xbee0aed1	-0.43883374
101	0x3ec416c8	0.3829863
102	0x4009e951	2.1548655
103	0x3e0bca3a	0.13651362
104	0xbf3041e3	-0.68850535
105	0x3f7363f2	0.9507438
106	0xbf03ddab	-0.51510113
107	0x3e90efa6	0.28307837
108	0xbffde5dc	-1.9835773
109	0xbb4af986	-0.0030971481
110	0xbfb40684	-1.4064488
111	0xbfd00faf	-1.6254786
112	0x3c2cbf42	0.010543646
113	0x3e239636	0.1597527
114	0xbe836141	-0.25660136
115	0xc0119017	-2.2744195
116	0x3d3fb6d8	0.046805233
117	0x3ef72ec6	0.48277873
118	0xbee370a2	-0.4442187
119	0x3f270c4a	0.65253127
120	0x3f9e8e69	1.238721
121	0x3f1d2fe7	0.6140122
122	0xbf9e0299	-1.2344543
123	0xbf3a54a8	-0.72785425
124	0x3e2b41c2	0.16724303
125	0x3f970860	1.1799431
126	0xbffdd052	-1.9829199
127	0xbfcaa4a6	-1.5831497
128	0x3db6a69e	0.089184985
129	0xbd6b9d14	-0.05752285
130	0xbbc0b498	-0.0058809035
131	0x3c5a7d38	0.013335519
132	0x3c66f938	0.014097504
133	0xbcd09d9d	-0.02546578
134	0xbd209a46	-0.039209627
135	0x3c6bf8a8	0.014402546
136	0xbcde1455	-0.027109304
137	0x3da06f3c	0.07833716
138	0x3cdf9b4f	0.027295737
139	0x3bdaf548	0.006682072
140	0xbc9377ba	-0.018001426
141	0xbd19fcc4	-0.03759457
142	0xbd435103	-0.04768468
143	0x3c19cbae	0.00938694
144	0x3d1319b3	0.03591318
145	0xbd803715	-0.06260506
146	0xbdb8448e	-0.08997451
147	0x3ba1f357	0.0049423384
148	0xbb4359ad	-0.002980809
149	0x3d5c3977	0.05376574
150	0x3d83830d	0.0642148
151	0x3d43ddba	0.047818877
152	0x3d89a157	0.06720226
153	0x3d50d080	0.05098009
154	0x3c0943a8	0.008377947
155	0xbd808c26	-0.06276731
156	0xbdd58036	-0.10424845
157	0xbbfc5cdb	-0.007701499
158	0x3d19b4a3	0.037525784
159	0xbd2f50e3	-0.04280175
160	0xbed9ed72	-0.4256397
161	0x3d80aeaf	0.06283318
162	0x3db0153f	0.08597802
163	0xbc0f09df	-0.008730381
164	0xbdc007f3	-0.09376516
165	0x3d7cdd0c	0.061734244
166	0xbd828255	-0.06372515
167	0xbd722906	-0.059121154
168	0x3d6553af	0.05598801
169	0xbd13df2f	-0.036101516
170	0x3b938e2c	0.004503032
171	0xbdd95552	-0.10611977
172	0xbcffcd62	-0.031225864
173	0xbd669ab3	-0.056299876
174	0xba6207fc	-0.00086224056
175	0xbd74f2bb	-0.0598018
176	0x3dbdb0f2	0.09262265
177	0xbefeaed2	-0.49742752
178	0x3cc3e41c	0.023912482
179	0x3dad4257	0.08459919
180	0xbd28ecf6	-0.04124161
181	0xbd6af27e	-0.057360165
182	0xbde3c44e	-0.111214265
183	0xbdc6a9c4	-0.09700349
184	0x3b423423	0.0029633127
185	0x3b8c7b53	0.0042871623
186	0xbebfd6b5	-0.37468496
187	0xbc819523	-0.015818184
188	0xbe06cf36	-0.13164982
189	0x3aa1bb60	0.0012339167
190	0x3d92440b	0.071418844
191	0x3d6bfd8e	0.057614855

transformer_encoder.layers.0.self_attn.out_proj.weight f4 [64, 64]
0	0xbda5b125	-0.08090428
1	0xbddec699	-0.10877723
2	0x3c8c15d3	0.01710025
3	0xbdd131dd	-0.10214589
4	0x3dae5ed9	0.085141845
5	0x3d9fbb7c	0.07799432
6	0xbca2e23c	-0.019883268
7	0x3e74633d	0.23865981
8	0xbde4fe63	-0.11181333
9	0xbc5ee763	-0.013604972
10	0xbdcfc112	-0.10144247
11	0xbd82edc5	-0.06393007
12	0x3e661478	0.22468746
13	0xbc1e3efa	-0.0096585695
14	0xbd72f0e3	-0.05931176
15	0xbded6aa8	-0.11592609
16	0xbd211bae	-0.039333038
17	0xbe3ae21c	-0.18250316
18	0xbc61a7b8	-0.013772897
19	0xbe82aee2	-0.2552405
20	0x3e169a18	0.1470722
21	0xbd8b1bd7	-0.067924194
22	0xbd16d2d2	-0.036822148
23	0x3e06d38d	0.13166638
24	0x3dcaae02	0.098964706
25	0x3e1ed98d	0.15512677
26	0x3d3ec10e	0.04657083
27	0xbdd2d4f9	-0.102945276
28	0x3cf76b40	0.030202508
29	0xbdc89d8d	-0.097956754
30	0x3d01d2bf	0.031695124
31	0x3d8a63bb	0.06757303
32	0x3cf13348	0.029443398
33	0x3e103f85	0.14086731
34	0x3d3b4b49	0.045726094
35	0x3d9aac80	0.07552433
36	0xbd299244	-0.041399255
37	0xbe1dd736	-0.15414128
38	0xbd6eb85b	-0.058281284
39	0xbdf4daaa	-0.11955769
40	0x3e22eef8	0.15911472
41	0xbd7a7857	-0.06114992
42	0xbe20c109	-0.15698637
43	0xbe7573d7	-0.2396997
44	0x3dc017ed	0.093795635
45	0xbd899a21	-0.06718851
46	0xbd91261f	-0.07087349
47	0x3de28f30	0.11062467
48	0x38d6f6de	0.00010250298
49	0xbcb19d09	-0.021681326
50	0x3e0787a2	0.13235334
51	0xbdeabc68	-0.11461717
52	0x3d89314f	0.06698858
53	0x3d796794	0.060889795
54	0xbc59e4bb	-0.0132991625
55	0x3c8ae14f	0.016953139
56	0x3d02a1d6	0.03189262
57	0x3d95b270	0.07309425
58	0x3e647e2a	0.22313753
59	0x3e471a5e	0.19443652
60	0x3d3d4aa1	0.04621375
61	0x3d7f2fc8	0.062301427
62	0x3c9d823e	0.019227143
63	0xbd53310a	-0.05156044
64	0xbde1b2dc	-0.11020443
65	0xbe29e84e	-0.16592523
66	0xbd92163b	-0.071331464
67	0x3da8a627	0.08234816
68	0x3e063479	0.13105954
69	0xbba66cb6	-0.0050788773
70	0xbe1d5fa0	-0.1536851
71	0x3d345925	0.044030327
72	0xbe1ac33e	-0.15113541
73	0xbd668832	-0.05628223
74	0x3e1de1b9	0.15418138
75	0xbd1bea90	-0.038065493
76	0xbd6aaef0	-0.05729574
77	0xbcba0f2c	-0.022712313
78	0x3dd885c5	0.105723895
79	0x3d290918	0.041268438
80	0xbe205d43	-0.15660577
81	0x3dd8af55	0.10580317
82	0x3e6960c9	0.22790827
83	0xbd659ea3	-0.05605949
84	0xbd34c7f4	-0.044136003
85	0xbd9a42d1	-0.075322755
86	0x3c5b1cc8	0.013373561
87	0x3d638598	0.055547327
88	0xbdc839ca	-0.097766474
89	0x3dda8155	0.106691994
90	0xbe0a42d5	-0.13502057
91	0x3e448656	0.1919187
92	0x3da678b6	0.081284925
93	0x3db189ab	0.08668836
94	0x3d246d01	0.040143017
95	0x3db9784b	0.09056147
96	0xbe516720	-0.20449495
97	0x3e199f98	0.15002286
98	0x3999f410	0.00029364275
99	0xbbdc98b5	-0.0067320713
100	0x3e61db33	0.22056274
101	0x3d6b46f5	0.057440717
102	0xbdf7fc35	-0.121086515
103	0x3e0cf3a4	0.13764817
104	0xbc2454fd	-0.010030028
105	0x3e47280c	0.1944887
106	0xbd95f387	-0.0732184
107	0x3e01c2d9	0.12671985
108	0xbd2174a4	-0.039417878
109	0xbe20199e	-0.15634772
110	0x3e9424a2	0.289342
111	0xbd7e3a03	-0.062067043
112	0x3e5a30bf	0.21307658
113	0xbe2a2ef3	-0.16619472
114	0x3d6f365b	0.058401447
115	0x3e20d5a4	0.15706497
116	0x3c5a32a8	0.013317741
117	0xbde35ca6	-0.11101656
118	0xbd41c3b5	-0.04730578
119	0x3e0654b6	0.13118252
120	0xbe5b3287	-0.21405993
121	0xbd56e7d5	-0.052467186
122	0xbd915bf3	-0.07097616
123	0xbd3afcf3	-0.045651387
124	0xbe06f3d0	-0.13178945
125	0xbcfd7106	-0.030937683
126	0xbd5a8984	-0.0533538
127	0xbe9c5ade	-0.30538076
128	0x3c66edba	0.014094764
129	0xbb66c213	-0.0035210892
130	0x3de7b45e	0.11313699
131	0xbe2b8172	-0.16748598
132	0xbd86d650	-0.065838456
133	0x3e0c0dfc	0.1367721
134	0x389d2d8e	7.4948286e-05
135	0x3e1926d7	0.14956222
136	0x3d030051	0.031982724
137	0x3d507650	0.05089408
138	0x3dec909d	0.1155102
139	0xbbc5cdc6	-0.006036493
140	0xbd1e1a35	-0.03859921
141	0x3e0d73de	0.13813731
142	0x3d82127a	0.063511804
143	0x3c89652b	0.016771873
144	0x3ca8f6cd	0.020625496
145	0x3d1757ee	0.03694909
146	0xbd08ca5a	-0.033396102
147	0xbc71776f	-0.014737948
148	0x3ab1e7bd	0.0013573092
149	0x3d4de2dc	0.050265178
150	0x3cc62d27	0.024191452
151	0xbbc8c890	-0.0061274245
152	0x3d6d3e04	0.05792047
153	0xbdc8b4be	-0.09800099
154	0xbe33787f	-0.17526434
155	0xbbed259b	-0.007237149
156	0xbe232df8	-0.15935504
157	0x3e0abaa6	0.13547763
158	0x3d58b285	0.052904624
159	0xbda56f74	-0.080778986
160	0x3e50c954	0.203893
161	0xbcb7da24	-0.022442885
162	0x3e2f00eb	0.17090194
163	0xbc937b53	-0.018003142
164	0x3984135f	0.00025191435
165	0xbcba122f	-0.022713749
166	0xbde82746	-0.11335616
167	0x3da9aab0	0.08284509
168	0x3d317a6b	0.043329637
169	0xbd5a6b91	-0.05332524
170	0xbda49764	-0.08036688
171	0xbcab76a6	-0.0209306
172	0xbe0b7f3a	-0.13622752
173	0x3cdf0a67	0.02722664
174	0xbd2400d5	-0.040039856
175	0x3d2d2d6a	0.04227964
176	0x3cb28f28	0.021796778
177	0xbd567a2d	-0.05236261
178	0xbd4843c1	-0.04889274
179	0x3d8c866d	0.06861577
180	0xbcc4fbe4	-0.024045892
181	0xbe9c3648	-0.30510163
182	0x3b9aae48	0.004720483
183	0xbdc86adb	-0.09786006
184	0x3da5eb41	0.08101512
185	0xbd1464d0	-0.036228955
186	0xbdeff99d	-0.11717532
187	0xbdd7cd3c	-0.10537192
188	0xbd74cb34	-0.059764102
189	0x3c20057b	0.009766932
190	0x3e0b54e5	0.13606603
191	0x3da2a35b	0.07941314
192	0xbd76a1d7	-0.060212936
193	0x3e199231	0.14997174
194	0xbe311ba5	-0.17295702
195	0xbd986415	-0.07440964
196	0xbd71d76d	-0.059043337
197	0xbe7e9fcf	-0.2486565
198	0x3ca79fc0	0.020461917
199	0x3e07fa42	0.1327906
200	0x3e4b1c63	0.19835047
201	0xbdd60449	-0.10450036
202	0x3e0edbca	0.1395103
203	0xbe14f738	-0.14547431
204	0xbba52195	-0.0050394037
205	0x3df40f48	0.11916977
206	0xbdcbe952	-0.09956612
207	0x3d0d037d	0.034427155
208	0xbe49a2f4	-0.19691068
209	0x3d061f38	0.032744616
210	0x3e05cc7e	0.13066289
211	0xbe0bb618	-0.13643682
212	0x3da5ef52	0.08102287
213	0xbd90e714	-0.07075325
214	0xbc3e6a82	-0.011622073
215	0x3cf62269	0.030045705
216	0xbc0ffcb6	-0.008788278
217	0xbd8eb953	-0.069689415
218	0xbd65ac31	-0.056072418
219	0xbd93b996	-0.07213132
220	0x3da741aa	0.08166821
221	0xbaa6ad21	-0.0012716391
222	0xbc1bbb94	-0.009505171
223	0xbdcd2272	-0.100163355
224	0xbe29ed63	-0.16594462
225	0xbd9979b9	-0.0749392
226	0xbcd2fe28	-0.025755957
227	0x3dd7ff66	0.1054676
228	0x3de5b6aa	0.11216481
229	0xbe6440c9	-0.22290339
230	0x3d502fa9	0.050826702
231	0xbe4528ad	-0.19253798
232	0x3d89ad14	0.06722465
233	0xbcb36b5c	-0.021901779
234	0xbe2e7fc7	-0.1704093
235	0xbdc8833d	-0.09790657
236	0x3de25418	0.11051196
237	0x3cbbfd66	0.022947978
238	0xbde21a95	-0.11040226
239	0xbe747c9d	-0.23875661
240	0x3d68a6ef	0.056799825
241	0xbcd929e1	-0.026509227
242	0xbe2a135d	-0.16608949
243	0x3b8ebe84	0.0043562073
244	0x3d1c3fa3	0.038146626
245	0xbc9bb204	-0.019005783
246	0x3d98f446	0.074684665
247	0x3d42c4c1	0.04755092
248	0xbd98203b	-0.074280225
249	0xbd5484d8	-0.051884502
250	0x3d9f709b	0.0778515
251	0xbd8e4261	-0.069462545
252	0xbccf779f	-0.025325594
253	0xbe4db688	-0.20089161
254	0x3cdcfdd5	0.026976505
255	0xbca5b578	-0.020228133

transformer_encoder.layers.0.self_attn.out_proj.bias f4 [64]
0	0x3e49d8f4	0.19711667
1	0xbe3c37eb	-0.18380706
2	0x3df7d8b5	0.121018805
3	0xbd2fa0b0	-0.042877853
4	0xba35cec7	-0.0006935414
5	0xbd4f7ab0	-0.050654113
6	0xbc8b8cc8	-0.017034903
7	0x3c84f4b1	0.01622996
8	0x3d20c0c0	0.03924632
9	0xbe41c6d4	-0.18923503
10	0x3f789585	0.9710315
11	0x3d8a0b26	0.06740408
12	0x3d96b11b	0.07357999
13	0xbe399234	-0.18122178
14	0xbd38b321	-0.045092706
15	0xbe87c425	-0.26516834
16	0x3f18e86a	0.59729636
17	0x3b47c8cb	0.0030484672
18	0xbdbf068e	-0.09327422
19	0x3eb397bb	0.350767
20	0x3d2a2daa	0.041547455
21	0x3d8d3108	0.068941176
22	0x3d1f9189	0.038957153
23	0xbd739fb1	-0.059478465
24	0xbcd365dd	-0.025805408
25	0xbd74addb	-0.059736114
26	0x3e285504	0.16438681
27	0xbe971320	-0.2950678
28	0x3e132936	0.1437119
29	0xbcbca9ac	-0.023030125
30	0xbdf869f0	-0.12129581
31	0x3da638d7	0.0811631
32	0x3e7c1406	0.24617013
33	0x3d6ae89f	0.05735075
34	0x3e37668e	0.17910215
35	0x3e708882	0.23489574
36	0xbe6accfe	-0.22929761
37	0xbca39a9a	-0.01997118
38	0x3dce6feb	0.100799404
39	0xbce359d8	-0.027752802
40	0xbe036268	-0.12830508
41	0xbe7e5021	-0.24835254
42	0xbe20e2d9	-0.15711536
43	0xbf0334cf	-0.51252455
44	0xbc7a3f06	-0.015273815
45	0xbed9764e	-0.42473072
46	0xbeba087c	-0.36334598
47	0x3dbe19db	0.09282275
48	0xbe0dd9b9	-0.13852586
49	0xbc4636af	-0.0120979985
50	0x3a080836	0.0005189212
51	0xbe83a89c	-0.25714576
52	0x3df228c8	0.11824185
53	0x3e2dc6ec	0.16970414
54	0xbdc709bb	-0.09718653
55	0x3cfb8666	0.030703735
56	0xbd84be9e	-0.0648167
57	0x3d22db34	0.03975983
58	0x3dc108ff	0.09425544
59	0xbdde4602	-0.10853197
60	0x3e929ef1	0.28636888
61	0xbd05aad0	-0.032633603
62	0x3dd2b506	0.10288434
63	0x3ecf6e59	0.40513876

transformer_encoder.layers.0.linear1.weight f4 [256, 64]
0	0x3d06a60c	0.0328732
1	0x3ed1a263	0.40944204
2	0x3ea0b532	0.3138824
3	0xbec6f522	-0.38858896
4	0x3d805250	0.062657
5	0x3e053540	0.13008595
6	0xbc4d326a	-0.012524227
7	0x3f1b3951	0.6063433
8	0x3c513fe6	0.012771582
9	0xbd01a3c9	-0.03165034
10	0xbe986877	-0.297672
11	0x3ed96023	0.4245616
12	0x3e5a60dc	0.21326011
13	0x3d41d6ab	0.047323864
14	0xbebe2692	-0.37138802
15	0x3e88ac85	0.26694122
16	0x3e946649	0.28984287
17	0xbe0b5cc4	-0.13609606
18	0x3f006d4b	0.5016677
19	0xbcc83faf	-0.02444443
20	0x3e16532d	0.14680167
21	0x3ed96dc2	0.4246655
22	0x3f2ec036	0.6826204
23	0xbd02f2b2	-0.031969734
24	0x3cf0dbd4	0.029401697
25	0xbdc61dda	-0.096736625
26	0xbfc0ea85	-1.507157
27	0x3da573a1	0.08078695
28	0xbe33f825	-0.17575128
29	0xbea626d6	-0.32451504
30	0xbf45ffd1	-0.7734347
31	0x3f13dd16	0.57759225
32	0xbe25403f	-0.16137789
33	0x3d4a183c	0.049339518
34	0xbf43a856	-0.76428735
35	0x3e905f60	0.28197765
36	0xbe23a60a	-0.15981308
37	0x3dba3f40	0.09094095
38	0x3f81a72d	1.0129143
39	0xbd596d76	-0.053082906
40	0x3e85eaf5	0.2615582
41	0x3f3f3ed8	0.74705267
42	0xbc40b3f9	-0.011761659
43	0xbe0ace18	-0.13555181
44	0x3d5aa732	0.053382106
45	0xbe071076	-0.13189873
46	0x3f6e3a88	0.9305806
47	0xba99db87	-0.0011738398
48	0xbdb5c20e	-0.088749036
49	0xbc58216b	-0.013191561
50	0x3f5ec0fd	0.87013227
51	0xba7bce31	-0.0009605615
52	0xbe7077ff	-0.23483275
53	0xbfac817d	-1.3477017
54	0xbe730fe9	-0.23736538
55	0x3e69d2a3	0.22834258
56	0xbe5ea813	-0.21743803
57	0x3e922406	0.2854311
58	0x3f20da0d	0.6283272
59	0xbdfc04e1	-0.12305618
60	0xbd9444b1	-0.07239664
61	0x3e124b50	0.14286542
62	0xbef2e0a1	-0.47437003
63	0xbea7c94e	-0.3277077
64	0xbee1e835	-0.44122472
65	0x3e9d56b7	0.3073022
66	0x3ec0a5ce	0.376265
67	0x3ddc2344	0.10748914
68	0xbfc1e1e6	-1.5147064
69	0x3d87a810	0.06623852
70	0x3fae1ee2	1.3603175
71	0x3ef75244	0.4830495
72	0x3e2e4bc6	0.17021093
73	0x3bc44cdf	0.005990609
74	0xbd99a5bb	-0.07502314
75	0xbf3829c9	-0.7193876
76	0xbc263e2d	-0.01014666
77	0xbda3aeeb	-0.07992347
78	0xbed44d54	-0.41465247
79	0xbe9e7992	-0.30952126
80	0xbe92a9d9	-0.28645208
81	0x3e533d0e	0.2062876
82	0xbcafd879	-0.021465527
83	0xbeb8cd5d	-0.3609418
84	0x3e6fe5fd	0.23427577
85	0x3ecadea6	0.39622992
86	0xbecf4057	-0.40478775
87	0xbe808fd0	-0.2510972
88	0xbfe385fb	-1.7775263
89	0x3fbcc6d0	1.4748173
90	0x3d65f1fd	0.05613898
91	0xbe6d0e51	-0.23149993
92	0xbe15e81c	-0.14639324
93	0xbe58f9f9	-0.21189107
94	0xbe9bf882	-0.30463034
95	0x3f1e6df9	0.61886555
96	0xbec7843b	-0.3896807
97	0xbfee03db	-1.8594927
98	0x3e3921e6	0.18079337
99	0x3e5dfad0	0.21677709
100	0x3ce04580	0.02737689
101	0xbff1fe69	-1.8905765
102	0x3eba1163	0.3634139
103	0xbeda657e	-0.42655557
104	0x3ebfb647	0.37443754
105	0xbeb9149a	-0.3614853
106	0xbf3d4bdb	-0.7394387
107	0xbe6fcf55	-0.23418935
108	0x3ff518ee	1.9148233
109	0x3dffdb85	0.12493042
110	0x3dd6166f	0.104534976
111	0x3d98c700	0.07459831
112	0x3e9ad38a	0.30239516
113	0xbc6ec006	-0.014572149
114	0x3d96c792	0.07362284
115	0xbecdf32e	-0.40224594
116	0x3e0e36c3	0.13888077
117	0x3c96ef52	0.018424664
118	0x3ed35ccd	0.4128174
119	0x3e2fcd7c	0.1716823
120	0x3edeafe9	0.43493584
121	0x3dd5e086	0.10443215
122	0x3dffeffc	0.12496945
123	0xbedbc7f4	-0.4292599
124	0x3f1958e1	0.59901243
125	0x3eaab26e	0.33339256
126	0xbf01d86e	-0.5072087
127	0x3e84591a	0.2584923
128	0xbe4b91e4	-0.19879872
129	0x3ebf8547	0.3740637
130	0xbd815ef0	-0.06316936
131	0x3e4dd2e9	0.20099987
132	0xbfa10be3	-1.2581753
133	0xbf3dcf76	-0.74144685
134	0x3ef8e20b	0.48609957
135	0x3f5b97f7	0.85778755
136	0x3c7c7fce	0.01541133
137	0xbf0e7699	-0.55649716
138	0x3e559a63	0.20859675
139	0xbed8b8e3	-0.42328557
140	0xbefe0bcf	-0.49618384
141	0xbe87280a	-0.26397735
142	0xbd142fb1	-0.036178295
143	0xbf417603	-0.75570697
144	0xbdc853e8	-0.09781629
145	0x3e8ca89b	0.27472386
146	0xbea23553	-0.31681308
147	0xbd0cf9df	-0.034417983
148	0xbec5f333	-0.3866211
149	0xbdf95ee7	-0.12176304
150	0xbe109832	-0.14120558
151	0xbec60e50	-0.38682795
152	0xbf75ca14	-0.9601147
153	0x3f192d22	0.5983449
154	0x3ecf40de	0.40479177
155	0xbf2230d9	-0.63355786
156	0x3f3bfd5d	0.73433477
157	0x3ed807d7	0.4219348
158	0x3d9034c8	0.07041317
159	0x3e8e6a86	0.27815646
160	0xbe988eeb	-0.29796538
161	0xbf7bd243	-0.9836771
162	0x3ea94298	0.3305862
163	0x3e07582c	0.13217229
164	0xbe3c5431	-0.18391491
165	0xbf7a0e6c	-0.97678256
166	0x3f2e3799	0.68053585
167	0xbf6a1ff4	-0.91455007
168	0x3f3cf19a	0.73806155
169	0xbe7f63a4	-0.24940354
170	0xbe73d813	-0.23812895
171	0x3e1152ed	0.1419179
172	0x3f32ea1e	0.69888484
173	0xbdf33714	-0.1187574
174	0xbe683a4e	-0.22678491
175	0x3edc129d	0.4298295
176	0x3f0f7d5e	0.5605067
177	0x3e0181ef	0.12647222
178	0x3cc982c3	0.024598485
179	0xbf31a4c6	-0.6939205
180	0x3eb6eb6e	0.35726494
181	0x3ee2f39e	0.4432649
182	0x3eaa2378	0.33230186
183	0x3f0a6532	0.5406066
184	0x3ef0b179	0.470104
185	0xbd1a9516	-0.037739836
186	0x3ebd2bc0	0.3694744
187	0xbdea45be	-0.114390835
188	0x3f064307	0.52446026
189	0x3ed72240	0.42018318
190	0xbf048e39	-0.51779515
191	0x3f099634	0.53744817
192	0xbebd345a	-0.36954004
193	0xbea78e0e	-0.32725567
194	0xbe74a24a	-0.23890033
195	0xbe20815c	-0.15674347
196	0xbbd09f21	-0.006366626
197	0xbead6ab6	-0.33870476
198	0x3c23ab91	0.009989635
199	0x3f19d1fe	0.6008605
200	0x3e85f46f	0.2616305
201	0xbcea2dd6	-0.02858631
202	0xbe949d76	-0.29026383
203	0xbd875d91	-0.06609643
204	0xbd927521	-0.07151247
205	0x3ea5043e	0.322298
206	0xbec0bfd8	-0.37646365
207	0xbe9fa365	-0.31179348
208	0x3f1d7b40	0.6151619
209	0xbe4143c7	-0.18873511
210	0x3fb091cf	1.3794497
211	0x3ea2c5cd	0.31791535
212	0x3f293b28	0.6610589
213	0x3e115f68	0.14196551
214	0xbe52a264	-0.2056976
215	0x3effdc18	0.49972606
216	0x3df69975	0.12040988
217	0x3e1d3872	0.15353563
218	0x3e821068	0.25403142
219	0xbe00ac6b	-0.12565772
220	0xbeb2ea5c	-0.34944427
221	0x3ea1a144	0.31568348
222	0xbee83385	-0.45351806
223	0x3ea456a1	0.32097343
224	0x3dfed81e	0.12443565
225	0x3dc113de	0.094276175
226	0x3e87a5f4	0.264938
227	0xbf19aeed	-0.6003254
228	0x3eac55ae	0.33659118
229	0x3d5d06a5	0.053961415
230	0x3f2c9282	0.67411053
231	0xbe2f8e38	-0.17144096
232	0x3c93903a	0.018013109
233	0xbbe4970a	-0.006976013
234	0xbcde4394	-0.027131833
235	0xbf0236ee	-0.50865066
236	0x3d529ba5	0.051417965
237	0x3e02cc84	0.12773329
238	0xbece7943	-0.4032689
239	0x3e638c1f	0.2222142
240	0x3ea0886a	0.31354076
241	0x3efc4824	0.4927379
242	0x3dcfd400	0.10147858
243	0xbf37fba8	-0.7186837
244	0xbea3fb10	-0.32027483
245	0x3c9f7164	0.019463249
246	0xbf3501a7	-0.70705646
247	0x3e0d7c0f	0.13816856
248	0x3e924a2d	0.28572217
249	0xbf1edc7d	-0.6205519
250	0xbec09e94	-0.37620986
251	0xbe6651e0	-0.2249217
252	0x3e893a44	0.26802266
253	0x3e9f018b	0.31055865
254	0xbf16757f	-0.58773035
255	0x3dbf5b5f	0.093435995
