Pretrained/model/LSTM/lstm_horizon_10.pth (torch, 176852 bytes, 12 tensors)

lstm.weight_ih_l0 f4 [200, 62]
0	0x3c8b1e3f	0.016982196
1	0x3db6bc7d	0.0892267
2	0xbde6287f	-0.11238193
3	0x3eb65395	0.35610643
4	0xbe1d44b5	-0.15358241
5	0x3fe71400	1.8052979
6	0xbe1aae74	-0.15105611
7	0xbe07c7ae	-0.13259766
8	0xbdb7e88f	-0.08979904
9	0x3f8e52f6	1.1119068
10	0xbe4d046e	-0.20021221
11	0x3f193b3c	0.5985601
12	0x3d03f9a0	0.032220483
13	0x3e7aeb46	0.24503812
14	0x3d795440	0.060871363
15	0x3d55d548	0.052205354
16	0xbb989deb	-0.004657497
17	0x3efb5f77	0.4909627
18	0x3dcace95	0.09902684
19	0x3e1e8a1a	0.15482369
20	0x3ca00662	0.019534294
21	0xbc650a92	-0.013979571
22	0xbc93b96e	-0.018032756
23	0x3efcc338	0.4936769
24	0xbe26c402	-0.16285709
25	0xbe298499	-0.16554488
26	0xbd54b213	-0.051927637
27	0xbd52d9e3	-0.051477324
28	0xbd2fe777	-0.04294535
29	0x3e45a109	0.19299711
30	0x3d72a22b	0.059236687
31	0x3f28c650	0.659276
32	0xbe4833b3	-0.19550972
33	0x3e89e0e0	0.26929379
34	0xbe2bca4d	-0.1677639
35	0x3f12f965	0.57411796
36	0xbdc2c0f7	-0.095094614
37	0x3ca0bae9	0.019620376
38	0xbdac16a7	-0.08402758
39	0x3f4f7051	0.81030756
40	0xbd80d0d7	-0.06289833
41	0xbdafac03	-0.085777305
42	0x3faa694c	1.3313384
43	0x3f148f8f	0.58031553
44	0x3eb77795	0.3583342
45	0xbd1a672a	-0.03769604
46	0x3f1834a3	0.5945532
47	0x3ed71659	0.42009237
48	0xbca50eb3	-0.02014861
49	0x3e9ddc7d	0.30832282
50	0x3f052638	0.5201144
51	0x3ed40cb2	0.41415936
52	0x3ee36424	0.4441234
53	0x3e189312	0.14899853
54	0xbe5ba1be	-0.21448418
55	0x3d8a8be0	0.0676496
56	0xbe42c68e	-0.19021055
57	0x3935276b	0.0001727619
58	0x3d5e673f	0.054297682
59	0xbcb86bea	-0.022512395
60	0xbdbc2e2a	-0.091884926
61	0xbdff8ed5	-0.12478415
62	0x3e0b9be4	0.13633686
63	0xbcfc85c7	-0.030825509
64	0x3da33cd5	0.07970587
65	0xbdd9be9d	-0.1063206
66	0x3d4fd9a5	0.05074467
67	0x3e5b1867	0.21396028
68	0x3defb406	0.117042586
69	0x3e5f82c2	0.21827224
70	0x3c2bb22b	0.01047949
71	0xbca0a6b2	-0.019610737
72	0xbdc5f612	-0.09666075
73	0xbe6f581b	-0.23373453
74	0xbc7255c4	-0.014790956
75	0xbe4106da	-0.1885027
76	0x3cb77102	0.022392754
77	0x3d8d787a	0.06907745
78	0x3d5ef992	0.054437228
79	0xbd2035ad	-0.03911369
80	0x3c758823	0.014986071
81	0x3c9c5f81	0.019088509
82	0xbd9397f3	-0.072067164
83	0xbe5e6860	-0.21719503
84	0x3e084ab2	0.13309744
85	0x3e67432b	0.22584216
86	0xbd32a99b	-0.04361878
87	0xbf2a7091	-0.6657801
88	0x3d5aaabc	0.05338548
89	0x3edff026	0.43737906
90	0x3d71b6f7	0.05901238
91	0x3e7d63c6	0.24745092
92	0xbd979794	-0.07401958
93	0x3f0a204a	0.5395552
94	0xbddf181c	-0.108932704
95	0x3f08c740	0.5342903
96	0xbdbe0c54	-0.09279695
97	0x3e9e1475	0.30874982
98	0x3e29c1b4	0.16577798
99	0x3f09f954	0.5389607
100	0xbd1d672c	-0.03842847
101	0x3f2186fc	0.63096595
102	0xbdce3c6f	-0.100701205
103	0xbda580a1	-0.08081175
104	0x3d6d6d75	0.057965714
105	0xbd0db1a2	-0.034593232
106	0xbddc2508	-0.10749251
107	0x3d548c74	0.05189176
108	0xbe932dfb	-0.28746018
109	0xbe732c91	-0.2374747
110	0x3dd9188f	0.10600387
111	0x3e92385e	0.2855863
112	0x3e2d251a	0.16908684
113	0x3d7552f1	0.059893552
114	0x3e0c7766	0.13717422
115	0xbfc84eff	-1.5649108
116	0xbd67bdd6	-0.056577526
117	0xbe03bbf9	-0.12864675
118	0x3e1d7a8b	0.15378778
119	0x3def9c05	0.1169968
120	0x3e22e91c	0.15909237
121	0x3d132dd8	0.035932392
122	0xbd70c043	-0.058777105
123	0x3e42197c	0.18955034
124	0x3ca513f2	0.020151112
125	0xbeaeb680	-0.3412361
126	0xbe7545a3	-0.23952346
127	0x3f1238f1	0.57118136
128	0xbcfa5e69	-0.030562596
129	0xbeb2072f	-0.34771106
130	0x3d04d6e7	0.03243151
131	0x3e0ef849	0.13961901
132	0x3d3c9266	0.046038054
133	0xbfcaf125	-1.5854841
134	0xbe1adc13	-0.15123014
135	0x3f4cf2de	0.80058086
136	0xbcdb2154	-0.02674929
137	0xbf2d5178	-0.67702436
138	0xbcf6c6ce	-0.030124094
139	0x3f52c620	0.82333565
140	0x3cff57b3	0.031169748
141	0xbf1a689a	-0.6031586
142	0xbc3a8084	-0.01138318
143	0x3e665a47	0.22495376
144	0xbe109026	-0.14117488
145	0xbcacdfae	-0.021102753
146	0xbe692c3f	-0.22770785
147	0xbea35c02	-0.31906134
148	0x3d1842e7	0.037173178
149	0xbf6f0466	-0.93366086
150	0xbd8f2b45	-0.06990675
151	0x3ed7c828	0.42144895
152	0x3ccbd1c7	0.024880303
153	0xbf5367f4	-0.82580495
154	0xbd278fe0	-0.040908694
155	0x3f176e3c	0.5915258
156	0xbe5a7c5b	-0.213365
157	0xbf0ce1a1	-0.5503178
158	0xbe6ba00d	-0.23010273
159	0x3e9d5b28	0.3073361
160	0xbb2be387	-0.0026228146
161	0xbf47a371	-0.77983767
162	0xbe245b4e	-0.16050455
163	0xbdd2d44f	-0.10294401
164	0xbd91c895	-0.07118336
165	0xbdf276d2	-0.118390694
166	0x3e32c71f	0.17458771
167	0xbf157a8e	-0.5839013
168	0x3eea38c6	0.4574644
169	0xbd2ee3b6	-0.04269763
170	0xbf63f553	-0.8904621
171	0x3f249b84	0.642998
172	0xbdb49277	-0.088169985
173	0xbf23e166	-0.64015806
174	0xbf7f5848	-0.9974408
175	0xbf8d5349	-1.1041042
176	0xbfc544ae	-1.5411584
177	0xbe40ec99	-0.18840255
178	0x3d444e7f	0.047926422
179	0xbea0a606	-0.31376666
180	0xbe1ece09	-0.15508284
181	0xbe8a252e	-0.2698149
182	0xbdb7142f	-0.089393966
183	0x3e4c2a82	0.1993809
184	0xbdad71b0	-0.0846895
185	0xbe319e16	-0.17345461
186	0xbc1401b0	-0.009033605
187	0xbef63bba	-0.48092443
188	0x3deb3e94	0.11486545
189	0xbd9c89b4	-0.07643452
190	0x3e0523d9	0.13001956
191	0xbd465614	-0.048421934
192	0x3d6c64c8	0.0577133
193	0x3f188a17	0.5958571
194	0x3c543d61	0.012954087
195	0x3e46f71f	0.19430207
196	0x39a7d63d	0.00032012342
197	0x3d51f33f	0.05125737
198	0x3d191141	0.03736997
199	0x3de79184	0.11307052
200	0x3d31e951	0.0434354
201	0x3e558f4f	0.20855449
202	0x3e414e45	0.18877514
203	0xbe711e6a	-0.23546758
204	0x3e246857	0.16055427
205	0x3ea47b1e	0.3212518
206	0xbd21a7c1	-0.039466623
207	0xbeba0b44	-0.3633672
208	0x3cc9ad25	0.024618695
209	0x3f1ed675	0.62045985
210	0x3e51d44e	0.20491144
211	0x3d7265ab	0.05917899
212	0x3da4c411	0.08045209
213	0x3f271ec3	0.65281314
214	0xbd67a585	-0.056554336
215	0x3df13762	0.117781416
216	0x3df533dc	0.11972782
217	0x3f3064c2	0.68903744
218	0x3b6ce737	0.0036148557
219	0x3e65d797	0.22445522
220	0x3ce049d1	0.027378948
221	0x3f758c77	0.9591746
222	0x3e43e9f7	0.1913222
223	0xbeef099e	-0.46687025
224	0x3d8d0b0a	0.06886871
225	0x3f8cf9f2	1.1013777
226	0x3dedf1b3	0.11618366
227	0x3cd9ca89	0.026585834
228	0x3e337da7	0.17528401
229	0xbf3baeee	-0.73313797
230	0xbdb8d3cd	-0.09024773
231	0xbe156236	-0.14588246
232	0xbf6c5a9c	-0.9232576
233	0xbd1747d7	-0.036933746
234	0xbd624aa6	-0.05524697
235	0x3e36be29	0.17845978
236	0x3e0f1b31	0.13975216
237	0x3e324ea0	0.17412806
238	0xbdad8315	-0.084722675
239	0xbf534e9a	-0.8254181
240	0x3dd501de	0.10400747
241	0xbd7a5410	-0.061115324
242	0x3d9c8411	0.07642377
243	0x3d5d53bc	0.054034933
244	0x3d209c39	0.039211486
245	0xbd971dc9	-0.07378728
246	0x3caee5d5	0.021349827
247	0x3eb08243	0.34474382
248	0x3cc13409	0.023584383
249	0xbf19f1b8	-0.6013446
250	0x3dead6ac	0.11466727
251	0x3ec7cbe1	0.39022735
252	0x3e5992fe	0.2124748
253	0x3ede727f	0.4344673
254	0x3c32b011	0.010906235
255	0x3f051ca1	0.5199681

lstm.weight_hh_l0 f4 [200, 50]
0	0xbcee9ac3	-0.02912653
1	0xbde4f787	-0.111800246
2	0xbeaefa7e	-0.34175485
3	0xbf4e5e7f	-0.8061294
4	0x3de05ed6	0.109555885
5	0xbdac472b	-0.08412012
6	0xbf49a28e	-0.78763664
7	0xbedf3eb2	-0.4360252
8	0x3f39b142	0.725361
9	0x3de40529	0.11133797
10	0x3f1d3cfa	0.6142117
11	0xbef64d32	-0.4810577
12	0x3eb4d9e6	0.35322493
13	0xbfa1c6ac	-1.2638755
14	0x3f385a33	0.72012633
15	0x3f098d2b	0.5373103
16	0xbd46a582	-0.048497684
17	0xbdc6e0f8	-0.09710878
18	0x3f8b1327	1.086522
19	0x3f0a587a	0.54041255
20	0xbebd46e6	-0.36968154
21	0x3f972875	1.1809222
22	0x3fb06eab	1.3783773
23	0xbf7ae23c	-0.98001456
24	0xbedf682d	-0.43634167
25	0x3f2f10d3	0.68385047
26	0xbd9ceacd	-0.07661972
27	0xbd14cf25	-0.03633036
28	0x3f295b4f	0.6615495
29	0x3fb9b322	1.4507792
30	0x3f39e447	0.7261395
31	0xbf7ad59f	-0.9798221
32	0xbe645781	-0.22299005
33	0x3f555f5a	0.8334862
34	0xbfa97c1b	-1.3240999
35	0x3f087a20	0.5331135
36	0xbf8ae434	-1.0850892
37	0xbf0001ec	-0.5000293
38	0xbe8124be	-0.25223345
39	0xbc64b0de	-0.013958184
40	0xbf0a25c7	-0.53963894
41	0xbe09d9f1	-0.13462044
42	0x3e422675	0.18959983
43	0xbea1e3c3	-0.3161908
44	0xbfa6dc19	-1.3035918
45	0xbf43ec0d	-0.7653206
46	0x3f8690bd	1.0512921
47	0x3f1babb3	0.6080887
48	0x3f521789	0.8206716
49	0xbf808f7b	-1.0043787
50	0x3ea7f8ad	0.32806912
51	0x3e622277	0.2208346
52	0xbed31fc9	-0.41235188
53	0xbf878d3b	-1.0589975
54	0x3e57cd29	0.21074356
55	0x3f169515	0.5882123
56	0xbe81d6cd	-0.25359192
57	0x3e83a2d6	0.2571017
58	0xbf7fd7d8	-0.99938726
59	0x3e5ad885	0.21371658
60	0xbea4dc76	-0.32199448
61	0x3edb60db	0.42847332
62	0x3eca8df8	0.3956144
63	0x3ea62220	0.3244791
64	0x3cb1848d	0.02166965
65	0x3f7141b5	0.94240886
66	0x3dd7946f	0.10526358
67	0x3cb3b6a0	0.021937668
68	0xbfb2687c	-1.3938136
69	0xbdc273d4	-0.09494749
70	0x3f807a59	1.0037338
71	0xbf17ca4b	-0.5929305
72	0xbf77f3cf	-0.968564
73	0xbd92fdca	-0.07177313
74	0xbd7e0007	-0.062011745
75	0x3f093946	0.5360302
76	0xbefc2e38	-0.49254012
77	0xbef4e82e	-0.4783339
78	0xbf079164	-0.52956223
79	0x3f2bc15c	0.6709192
80	0x3ea839dc	0.32856643
81	0x3f3c9aa7	0.7367348
82	0x3efa1f3b	0.48851952
83	0xbe50bfb2	-0.20385626
84	0xbe6b022c	-0.22950047
85	0xbd6e9e52	-0.058256455
86	0xbf898739	-1.0744392
87	0x3e2fbe30	0.17162395
88	0x3ef93aa5	0.48677555
89	0x3eec5cd6	0.46164578
90	0xbf29f7e0	-0.6639385
91	0x3f0f8848	0.56067324
92	0x3e48f9db	0.19626562
93	0xbf07020c	-0.527375
94	0xbeaa7c7d	-0.33298102
95	0xbe9b48d5	-0.30329004
96	0xbd9b6a13	-0.075885914
97	0xbeb15f4c	-0.34643018
98	0x3f6a2d4e	0.9147538
99	0xbf3602c5	-0.71097976
100	0x3f2f4d38	0.684772
101	0xbae8bd92	-0.0017756692
102	0x3f3e2670	0.742774
103	0xbdf13296	-0.117772266
104	0xbf06b623	-0.5262167
105	0xbe092f2a	-0.13396898
106	0x3e55d9f2	0.20883921
107	0xbed0a336	-0.4074952
108	0x3e88c48a	0.26712447
109	0x3dd4b70b	0.10386475
110	0x3f435894	0.76307034
111	0xbe872b3e	-0.2640018
112	0xbf1974f7	-0.599441
113	0x3dea3801	0.11436463
114	0x3e3a76c0	0.18209362
115	0x3de9f53f	0.1142373
116	0x3c734af5	0.014849414
117	0xbecf9c62	-0.40548998
118	0xbd665793	-0.05623586
119	0xbebcd066	-0.36877745
120	0x3e890f30	0.267694
121	0xbd65e856	-0.056129776
122	0xbd0657ff	-0.032798763
123	0xbe99be1a	-0.30027848
124	0xbe839db6	-0.2570626
125	0x3e90f1aa	0.28309375
126	0xbedf2b95	-0.43587938
127	0xbdf56d77	-0.119837694
128	0xbedfa1bb	-0.43678078
129	0x3e481ad7	0.19541489
130	0x3c9f4e40	0.019446492
131	0xbe33a058	-0.17541635
132	0x3defa749	0.11701829
133	0x3f11fdd4	0.57027936
134	0xbed36d4d	-0.41294327
135	0xbdb2b9b2	-0.08726825
136	0xbf26848d	-0.65046006
137	0x3da799dc	0.08183643
138	0xbf4e0816	-0.8048109
139	0xbf10581c	-0.56384444
140	0xbe4f3f8d	-0.20239086
141	0xbe675d9f	-0.22594307
142	0x3dd589b7	0.10426658
143	0x3e969e5c	0.29417694
144	0xbe0e1ce2	-0.13878205
145	0xbe721cdc	-0.23643821
146	0x3e4b6d17	0.19865833
147	0x3bea9695	0.007159064
148	0x3e92be20	0.2866068
149	0x3f53bcd2	0.8270999
150	0x3f4bd6f3	0.7962486
151	0xbf016578	-0.50545454
152	0xbe667668	-0.22506106
153	0xbf972d82	-1.1810763
154	0xbf1ab3c1	-0.6043053
155	0x3e3051d6	0.17218718
156	0xbd8f8ba0	-0.07009053
157	0xbebeb2a2	-0.3724566
158	0xbededb5a	-0.43526727
159	0x3f247c65	0.6425231
160	0xbe784c26	-0.24247798
161	0xbd095be6	-0.033534907
162	0x3ee2e714	0.44316924
163	0x3d45710d	0.048203517
164	0x3e529670	0.205652
165	0x3e8b34c0	0.27188683
166	0x3efc046e	0.4922213
167	0xbec63683	-0.38713464
168	0xbfa455c3	-1.2838672
169	0x3d7e03d0	0.062015355
170	0x3f70ec95	0.94110996
171	0x3e64f2bf	0.22358225
172	0xbe7ded7c	-0.24797624
173	0xbf094f2e	-0.53636444
174	0xbd493deb	-0.049131315
175	0x3ec4c17e	0.38428873
176	0xbf7fbc94	-0.9989712
177	0xbf308d33	-0.6896545
178	0xbf6dffd4	-0.9296849
179	0xbf2c8e8b	-0.67405003
180	0x3e9b0a51	0.30281308
181	0x3e473b10	0.19456124
182	0x3f05a7a4	0.52208924
183	0xbf0791c1	-0.5295678
184	0xbe8603b5	-0.26174703
185	0x3e3cc6b9	0.18435182
186	0xbe0010b1	-0.12506367
187	0x3fa7e555	1.3116862
188	0xbebca66c	-0.3684572
189	0xbbbb6b43	-0.0057195737
190	0x3e9a1672	0.3009525
191	0x3ec76ee7	0.389518
192	0x3f6ea30b	0.93217534
193	0xbead58c3	-0.33856782
194	0xbeef8655	-0.46782175
195	0xbf27ccfc	-0.65547156
196	0xbf231b3b	-0.63713425
197	0xbe95a15f	-0.2922468
198	0x3f26f2c7	0.652142
199	0x3c5e01c1	0.013550223
200	0xbe0f9861	-0.14022972
201	0xbe07b5f8	-0.1325301
202	0x3f1b5ed0	0.6069155
203	0xbef0425d	-0.4692563
204	0xbdc8ca2b	-0.098041855
205	0x3f19bb11	0.60051066
206	0xbee63dad	-0.4496893
207	0x3c926044	0.017868169
208	0xbdb82a56	-0.0899245
209	0xbcade701	-0.021228315
210	0xbe9835ca	-0.29728538
211	0xbcf8a030	-0.03034982
212	0x3d55933e	0.052142374
213	0x3eb356b3	0.35027084
214	0xbeb0e418	-0.34549022
215	0xbf2e5135	-0.6809266
216	0xbe7be423	-0.24598746
217	0xbebf3af2	-0.3734966
218	0xbe67095d	-0.22562166
219	0xbf864e47	-1.0492638
220	0x3f4f6e91	0.81028086
221	0x3cc84960	0.02444905
222	0xbf71daf6	-0.9447473
223	0x3ea0156e	0.3126635
224	0x3d885e4d	0.066586114
225	0xbf2de724	-0.6793082
226	0xbf4984cb	-0.7871825
227	0xbe84d97d	-0.2594718
228	0xbf52becb	-0.82322377
229	0xbea7389a	-0.3266037
230	0xbee2d2be	-0.4430141
231	0x3f1f4e9d	0.6222933
232	0x3ef233ed	0.4730524
233	0xbf8ebad6	-1.1150768
234	0x3e46161c	0.19344372
235	0xbedf7cd4	-0.43649924
236	0xbd40034c	-0.046878144
237	0x3eadf2e5	0.33974376
238	0xbea93ff4	-0.33056605
239	0x3e394f81	0.18096735
240	0xbea267f3	-0.31719932
241	0x3ef7844c	0.48343122
242	0x3e4bb27f	0.1989231
243	0x3f597faa	0.84960425
244	0x3dbb6e1c	0.09151861
245	0xbeacc8e9	-0.33747032
246	0xbeaf0b20	-0.34188175
247	0xbdf0304e	-0.117279634
248	0xbec96e82	-0.39342123
249	0xbf1b0c2f	-0.60565466
250	0x3ecbefd5	0.39831415
251	0xbf956454	-1.1671243
252	0x3f0f0730	0.5587034
253	0xbeb39778	-0.350765
254	0xbf867734	-1.0505128
255	0xbf8934d9	-1.0719253

lstm.bias_ih_l0 f4 [200]
0	0xbf4c9f4f	-0.79930586
1	0xbe8a04c7	-0.2695677
2	0xbe1f6aa9	-0.15568031
3	0x3df146ce	0.11781083
4	0xbedd9fb5	-0.4328591
5	0xbe3b205e	-0.18274066
6	0xbecdc7a7	-0.40191385
7	0x3db13815	0.08653275
8	0xbee4075b	-0.44536862
9	0x3f865552	1.0494788
10	0xbee90369	-0.45510414
11	0x3e9da3f6	0.30789155
12	0xbf4cf343	-0.8005869
13	0xbf0e4773	-0.5557777
14	0xbd0495ef	-0.03236955
15	0xbee14f52	-0.4400583
16	0x3eabbd95	0.33543077
17	0xbf534a27	-0.8253502
18	0x3e734b74	0.23759252
19	0xbe97e30a	-0.29665405
20	0xbed959b9	-0.42451265
21	0xbf03317d	-0.5124739
22	0x3e8fd175	0.2808949
23	0xbe8a5aea	-0.27022487
24	0xbf1e423f	-0.61819834
25	0xbeeb237d	-0.45925513
26	0x3dac385b	0.084091865
27	0xbefa7cc9	-0.4892333
28	0xbfa377df	-1.2770957
29	0x3ea54a0b	0.32283053
30	0xbe8bb14e	-0.2728371
31	0x3dc6f882	0.09715368
32	0xbf422674	-0.75839925
33	0xbc9136f1	-0.017726393
34	0x3f5fab04	0.87370324
35	0x3e9e4143	0.30909166
36	0xbe6ac120	-0.22925234
37	0xbce54e93	-0.027991569
38	0x3eac665f	0.33671853
39	0xbf0f0295	-0.55863315
40	0xbed30c4c	-0.4122032
41	0x3ef2ab9e	0.4739656
42	0x3daaf9af	0.083484046
43	0xbd5deb2c	-0.054179356
44	0xbf10ca4e	-0.5655869
45	0xbecb7e45	-0.39744774
46	0xbf0be2f5	-0.54643184
47	0xbe402af8	-0.18766391
48	0x3f4e2fa1	0.80541426
49	0xbed08e78	-0.40733695
50	0x3d877fdc	0.06616184
51	0x3e8d6ac0	0.27620506
52	0x3e91ae03	0.28453073
53	0xbdc2402a	-0.094848946
54	0xbeda04dd	-0.42581835
55	0x3edd0359	0.43166617
56	0xbf78a29f	-0.9712314
57	0xbe198a70	-0.14994216
58	0xbe844bfa	-0.25839216
59	0xbfa52127	-1.2900742
60	0xbf2e3d4f	-0.680623
61	0xbf7e8032	-0.9941436
62	0x3eaadfea	0.33373958
63	0x3ef99846	0.48748988
64	0xbfa9609e	-1.323261
65	0x3e133d71	0.14378907
66	0xbf8edf47	-1.1161889
67	0xbf8e3bf3	-1.1112045
68	0xbee7d09c	-0.45276344
69	0xbfab7661	-1.3395501
70	0x3e5413c5	0.20710666
71	0xbe505b9d	-0.20347448
72	0x3e7f45c4	0.24928957
73	0xbfaaa774	-1.3332353
74	0xbd21a8ea	-0.03946773
75	0xbee95020	-0.45568943
76	0xbf6976ec	-0.91197085
77	0xbef622da	-0.48073465
78	0xbfae0445	-1.3595053
79	0xbf4c7867	-0.7987122
80	0xbf94d0bb	-1.16262
81	0x3d642759	0.055701587
82	0xbef6bb3e	-0.4818973
83	0xbedd4e56	-0.43223828
84	0xbf7dd3c1	-0.99151236
85	0xbfeb0681	-1.836136
86	0xbf837f81	-1.0273286
87	0xbfa10226	-1.2578781
88	0xbf955a03	-1.1668094
89	0x3ef364fe	0.47537988
90	0xbf38a82c	-0.7213161
91	0xbf9b566d	-1.213575
92	0xbf8c47c9	-1.0959407
93	0xbfb444e7	-1.4083527
94	0xbed92503	-0.4241105
95	0x3e237767	0.15963517
96	0xbf2b01f7	-0.66799873
97	0xbeb67ae6	-0.3564064
98	0xbe472085	-0.19445999
99	0x3c45f3d3	0.012082058
100	0xbea37198	-0.31922603
101	0xbe4cff1e	-0.20019194
102	0xbf80020d	-1.0000626
103	0x3de350b5	0.11099378
104	0xbe96c5f7	-0.2944791
105	0x3f03e741	0.5152474
106	0x3cf9f8db	0.030514171
107	0x3f909280	1.1294708
108	0xbedcba5c	-0.4311093
109	0xbebc62e9	-0.36794212
110	0x3dcb45d6	0.099254295
111	0xbd5a6f3c	-0.053328738
112	0xbe3cfbaf	-0.18455385
113	0x3e802e62	0.25035387
114	0xbf0eed30	-0.5583067
115	0x3e36595a	0.17807522
116	0x3e328767	0.17434464
117	0x3ed2db20	0.41182804
118	0xbf2d8107	-0.67775005
119	0x3e852d57	0.26011154
120	0x3f03368a	0.51255095
121	0xbf5cd5d5	-0.8626378
122	0xbf69f293	-0.91385764
123	0x3f68a9b3	0.9088394
124	0x3ea19fa9	0.31567124
125	0xbebe2816	-0.37139958
126	0x3f43c201	0.764679
127	0x3f043a7e	0.5165175
128	0xbd541470	-0.051777303
129	0x3e473963	0.19455485
130	0xbea7e78b	-0.3279384
131	0x3f43503a	0.7629429
132	0xbf75885d	-0.959112
133	0xbec9deb3	-0.3942772
134	0x3d916029	0.07098419
135	0xbf4c54d7	-0.79816955
136	0x3f1efab3	0.62101287
137	0xbf46d9f0	-0.77676296
138	0x3edccd70	0.43125486
139	0xbeb4727c	-0.35243595
140	0x3e291651	0.1651242
141	0x3e91f965	0.28510585
142	0xbf044bc2	-0.516781
143	0x3f0f3ee6	0.5595535
144	0x3f3a9b49	0.72893196
145	0x3ed6af01	0.41930392
146	0xbd425124	-0.047440663
147	0xbea33575	-0.31876722
148	0x3fa85625	1.3151289
149	0xbe9265db	-0.28593335
150	0x3f018d51	0.50606257
151	0x3eb61465	0.35562435
152	0xbeed06c6	-0.4629423
153	0x3e1bf33e	0.15229508
154	0xbf16d5ab	-0.5891978
155	0xbe85ade6	-0.26109236
156	0xbf1ba1b2	-0.607936
157	0xbf1665fc	-0.58749366
158	0xbe6d8ec9	-0.23199
159	0x3e097011	0.13421656
160	0xbf2c4273	-0.67288893
161	0x3eab37a0	0.33440876
162	0x3f13c1ad	0.577174
163	0x3f1ec827	0.6202416
164	0xbf0c877a	-0.5489422
165	0xbf0910de	-0.5354136
166	0x3eeeae6d	0.4661745
167	0xbf1562e5	-0.58354026
168	0xbe715e33	-0.2357109
169	0xbe75c461	-0.24000694
170	0xbf2fdb58	-0.68694067
171	0x3d7d7caa	0.061886467
172	0xbeafc7b6	-0.34332055
173	0xbd8560a1	-0.06512571
174	0x3f21e9f0	0.63247585
175	0xbe8b685e	-0.27228063
176	0x3f10f438	0.5662265
177	0x3ebcfc04	0.36911023
178	0xbf540ed2	-0.82835114
179	0x3f41e1db	0.75735253
180	0xbd5e945e	-0.054340713
181	0xbf1debf3	-0.61688155
182	0xbeda8c33	-0.4268509
183	0x3dad2194	0.0845367
184	0x3f3f7fc8	0.74804354
185	0x3ec1db3f	0.37862584
186	0xbeeec26c	-0.46632707
187	0x3e774159	0.24146022
188	0x3f844a99	1.0335265
189	0xbe30630e	-0.17225286
190	0xbf776a2c	-0.9664638
191	0xbdd34f8f	-0.10317909
192	0x3f8be7d4	1.0930123
193	0x3df8ca06	0.12147908
194	0xbef3e3de	-0.47634786
195	0x3f2f1198	0.6838622
196	0xbf5644c1	-0.8369866
197	0xbdc7ae9a	-0.097500995
198	0xbf5ea777	-0.8697428
199	0xbec3a2d7	-0.38210174

lstm.bias_hh_l0 f4 [200]
0	0xbf4c9f4f	-0.79930586
1	0xbe8a04c7	-0.2695677
2	0xbe1f6aa9	-0.15568031
3	0x3df146ce	0.11781083
4	0xbedd9fb5	-0.4328591
5	0xbe3b205e	-0.18274066
6	0xbecdc7a7	-0.40191385
7	0x3db13815	0.08653275
8	0xbee4075b	-0.44536862
9	0x3f865552	1.0494788
10	0xbee90369	-0.45510414
11	0x3e9da3f6	0.30789155
12	0xbf4cf343	-0.8005869
13	0xbf0e4773	-0.5557777
14	0xbd0495ef	-0.03236955
15	0xbee14f52	-0.4400583
16	0x3eabbd95	0.33543077
17	0xbf534a27	-0.8253502
18	0x3e734b74	0.23759252
19	0xbe97e30a	-0.29665405
20	0xbed959b9	-0.42451265
21	0xbf03317d	-0.5124739
22	0x3e8fd175	0.2808949
23	0xbe8a5aea	-0.27022487
24	0xbf1e423f	-0.61819834
25	0xbeeb237d	-0.45925513
26	0x3dac385b	0.084091865
27	0xbefa7cc9	-0.4892333
28	0xbfa377df	-1.2770957
29	0x3ea54a0b	0.32283053
30	0xbe8bb14e	-0.2728371
31	0x3dc6f882	0.09715368
32	0xbf422674	-0.75839925
33	0xbc9136f1	-0.017726393
34	0x3f5fab04	0.87370324
35	0x3e9e4143	0.30909166
36	0xbe6ac120	-0.22925234
37	0xbce54e93	-0.027991569
38	0x3eac665f	0.33671853
39	0xbf0f0295	-0.55863315
40	0xbed30c4c	-0.4122032
41	0x3ef2ab9e	0.4739656
42	0x3daaf9af	0.083484046
43	0xbd5deb2c	-0.054179356
44	0xbf10ca4e	-0.5655869
45	0xbecb7e45	-0.39744774
46	0xbf0be2f5	-0.54643184
47	0xbe402af8	-0.18766391
48	0x3f4e2fa1	0.80541426
49	0xbed08e78	-0.40733695
50	0x3d877fdc	0.06616184
51	0x3e8d6ac0	0.27620506
52	0x3e91ae03	0.28453073
53	0xbdc2402a	-0.094848946
54	0xbeda04dd	-0.42581835
55	0x3edd0359	0.43166617
56	0xbf78a29f	-0.9712314
57	0xbe198a70	-0.14994216
58	0xbe844bfa	-0.25839216
59	0xbfa52127	-1.2900742
60	0xbf2e3d4f	-0.680623
61	0xbf7e8032	-0.9941436
62	0x3eaadfea	0.33373958
63	0x3ef99846	0.48748988
64	0xbfa9609e	-1.323261
65	0x3e133d71	0.14378907
66	0xbf8edf47	-1.1161889
67	0xbf8e3bf3	-1.1112045
68	0xbee7d09c	-0.45276344
69	0xbfab7661	-1.3395501
70	0x3e5413c5	0.20710666
71	0xbe505b9d	-0.20347448
72	0x3e7f45c4	0.24928957
73	0xbfaaa774	-1.3332353
74	0xbd21a8ea	-0.03946773
75	0xbee95020	-0.45568943
76	0xbf6976ec	-0.91197085
77	0xbef622da	-0.48073465
78	0xbfae0445	-1.3595053
79	0xbf4c7867	-0.7987122
80	0xbf94d0bb	-1.16262
81	0x3d642759	0.055701587
82	0xbef6bb3e	-0.4818973
83	0xbedd4e56	-0.43223828
84	0xbf7dd3c1	-0.99151236
85	0xbfeb0681	-1.836136
86	0xbf837f81	-1.0273286
87	0xbfa10226	-1.2578781
88	0xbf955a03	-1.1668094
89	0x3ef364fe	0.47537988
90	0xbf38a82c	-0.7213161
91	0xbf9b566d	-1.213575
92	0xbf8c47c9	-1.0959407
93	0xbfb444e7	-1.4083527
94	0xbed92503	-0.4241105
95	0x3e237767	0.15963517
96	0xbf2b01f7	-0.66799873
97	0xbeb67ae6	-0.3564064
98	0xbe472085	-0.19445999
99	0x3c45f3d3	0.012082058
100	0xbea37198	-0.31922603
101	0xbe4cff1e	-0.20019194
102	0xbf80020d	-1.0000626
103	0x3de350b5	0.11099378
104	0xbe96c5f7	-0.2944791
105	0x3f03e741	0.5152474
106	0x3cf9f8db	0.030514171
107	0x3f909280	1.1294708
108	0xbedcba5c	-0.4311093
109	0xbebc62e9	-0.36794212
110	0x3dcb45d6	0.099254295
111	0xbd5a6f3c	-0.053328738
112	0xbe3cfbaf	-0.18455385
113	0x3e802e62	0.25035387
114	0xbf0eed30	-0.5583067
115	0x3e36595a	0.17807522
116	0x3e328767	0.17434464
117	0x3ed2db20	0.41182804
118	0xbf2d8107	-0.67775005
119	0x3e852d57	0.26011154
120	0x3f03368a	0.51255095
121	0xbf5cd5d5	-0.8626378
122	0xbf69f293	-0.91385764
123	0x3f68a9b3	0.9088394
124	0x3ea19fa9	0.31567124
125	0xbebe2816	-0.37139958
126	0x3f43c201	0.764679
127	0x3f043a7e	0.5165175
128	0xbd541470	-0.051777303
129	0x3e473963	0.19455485
130	0xbea7e78b	-0.3279384
131	0x3f43503a	0.7629429
132	0xbf75885d	-0.959112
133	0xbec9deb3	-0.3942772
134	0x3d916029	0.07098419
135	0xbf4c54d7	-0.79816955
136	0x3f1efab3	0.62101287
137	0xbf46d9f0	-0.77676296
138	0x3edccd70	0.43125486
139	0xbeb4727c	-0.35243595
140	0x3e291651	0.1651242
141	0x3e91f965	0.28510585
142	0xbf044bc2	-0.516781
143	0x3f0f3ee6	0.5595535
144	0x3f3a9b49	0.72893196
145	0x3ed6af01	0.41930392
146	0xbd425124	-0.047440663
147	0xbea33575	-0.31876722
148	0x3fa85625	1.3151289
149	0xbe9265db	-0.28593335
150	0x3f018d51	0.50606257
151	0x3eb61465	0.35562435
152	0xbeed06c6	-0.4629423
153	0x3e1bf33e	0.15229508
154	0xbf16d5ab	-0.5891978
155	0xbe85ade6	-0.26109236
156	0xbf1ba1b2	-0.607936
157	0xbf1665fc	-0.58749366
158	0xbe6d8ec9	-0.23199
159	0x3e097011	0.13421656
160	0xbf2c4273	-0.67288893
161	0x3eab37a0	0.33440876
162	0x3f13c1ad	0.577174
163	0x3f1ec827	0.6202416
164	0xbf0c877a	-0.5489422
165	0xbf0910de	-0.5354136
166	0x3eeeae6d	0.4661745
167	0xbf1562e5	-0.58354026
168	0xbe715e33	-0.2357109
169	0xbe75c461	-0.24000694
170	0xbf2fdb58	-0.68694067
171	0x3d7d7caa	0.061886467
172	0xbeafc7b6	-0.34332055
173	0xbd8560a1	-0.06512571
174	0x3f21e9f0	0.63247585
175	0xbe8b685e	-0.27228063
176	0x3f10f438	0.5662265
177	0x3ebcfc04	0.36911023
178	0xbf540ed2	-0.82835114
179	0x3f41e1db	0.75735253
180	0xbd5e945e	-0.054340713
181	0xbf1debf3	-0.61688155
182	0xbeda8c33	-0.4268509
183	0x3dad2194	0.0845367
184	0x3f3f7fc8	0.74804354
185	0x3ec1db3f	0.37862584
186	0xbeeec26c	-0.46632707
187	0x3e774159	0.24146022
188	0x3f844a99	1.0335265
189	0xbe30630e	-0.17225286
190	0xbf776a2c	-0.9664638
191	0xbdd34f8f	-0.10317909
192	0x3f8be7d4	1.0930123
193	0x3df8ca06	0.12147908
194	0xbef3e3de	-0.47634786
195	0x3f2f1198	0.6838622
196	0xbf5644c1	-0.8369866
197	0xbdc7ae9a	-0.097500995
198	0xbf5ea777	-0.8697428
199	0xbec3a2d7	-0.38210174

lstm.weight_ih_l1 f4 [200, 50]
0	0xbf719513	-0.94368094
1	0xbe83897b	-0.25690827
2	0x3d2d448f	0.04230171
3	0xbf871a49	-1.0554897
4	0xbf85853d	-1.0431286
5	0x3de168cc	0.110063165
6	0x3f1ab8cf	0.60438246
7	0x3f3e1645	0.7425273
8	0x3ec525b7	0.38505337
9	0xbdf4ba03	-0.119495414
10	0xbe9764bf	-0.2956905
11	0x3f0dd70a	0.5540625
12	0x3f2c12fe	0.6721648
13	0x3d402dec	0.046918795
14	0x3eb22f16	0.3480155
15	0x3f0fc6fa	0.5616299
16	0xbe988120	-0.29786015
17	0x3e6dbd56	0.23216757
18	0x3ed03be5	0.40670696
19	0x3efa2584	0.48856747
20	0xbf36b682	-0.71372235
21	0x3e98575d	0.29754153
22	0x3f431942	0.76210415
23	0xbe3c5181	-0.18390466
24	0xbf2280a2	-0.6347753
25	0x3e3e465f	0.18581532
26	0x3ec7cab2	0.39021832
27	0x3d0b2454	0.033970192
28	0x3f216a63	0.6305296
29	0xbf643de8	-0.8915696
30	0x3f27269e	0.652933
31	0xbf1e8c64	-0.6193297
32	0xbf06ac86	-0.52607
33	0x3f3594c6	0.70930135
34	0xbd0940fd	-0.033509243
35	0xbd018926	-0.031624936
36	0xbc426940	-0.011865914
37	0xbc58a927	-0.013223923
38	0x3dec30ea	0.11532767
39	0xbe1d7298	-0.15375745
40	0x3ea1290c	0.3147663
41	0xbaaab747	-0.0013024592
42	0xbe684012	-0.22680691
43	0x3d4732d6	0.048632465
44	0xbe1a9ab1	-0.15098073
45	0x3d82cb9d	0.063864924
46	0x3f67e826	0.90588605
47	0x3f4922a8	0.78568506
48	0xbf281b53	-0.65666693
49	0xbee8c0bf	-0.45459554
50	0x3d2e1427	0.042499688
51	0xbf4d59df	-0.8021526
52	0xbe9a9c66	-0.30197448
53	0xbfa56da8	-1.292409
54	0xbf1c55b3	-0.61068267
55	0xbed447df	-0.41461083
56	0xbf28ac71	-0.65888125
57	0x3e913d57	0.2836711
58	0x3eec9a73	0.46211585
59	0x3ec037f2	0.37542683
60	0xbe75c687	-0.24001513
61	0x3e8b285f	0.27179238
62	0x3f23bf23	0.63963526
63	0xbf1acd8d	-0.60469896
64	0xbe17e648	-0.14833939
65	0x3f87c0d0	1.0605717
66	0xbf3094fc	-0.6897733
67	0xbecc81ab	-0.3994268
68	0x3f2301c4	0.6367457
69	0x3f5a27f8	0.8521724
70	0xbf267a49	-0.6503034
71	0xbdab8827	-0.083755784
72	0x3e3786d1	0.17922522
73	0xbe42bfbb	-0.19018452
74	0xbe9f696d	-0.3113512
75	0x3d8589a0	0.065203905
76	0x3e99f1dc	0.30067337
77	0x3ef327a4	0.4749118
78	0x3e9bfad2	0.30464798
79	0xbe833fc3	-0.25634584
80	0x3f5b5ae6	0.85685575
81	0xbf5f7c0b	-0.8729865
82	0xbd47e33e	-0.0488007
83	0xbf6ff4b3	-0.93732756
84	0xbf54f208	-0.8318181
85	0x3e5b294e	0.21402475
86	0xbec40cbb	-0.38290963
87	0xbeb3a20b	-0.35084566
88	0x3ed6bf54	0.41942847
89	0xbfbb38cf	-1.4626712
90	0xbea0f76a	-0.31438762
91	0xbd84e81a	-0.06489582
92	0xbea64d54	-0.32480872
93	0xbf41cd3e	-0.757038
94	0xbe319fe5	-0.17346151
95	0xbe84a513	-0.25907192
96	0x3fad6318	1.3545866
97	0x3de08318	0.10962504
98	0x3f6b35fc	0.9187925
99	0x3d8602a1	0.0654347
100	0x3d37b160	0.044846892
101	0x3e48e47a	0.19618407
102	0x3f317a54	0.6932728
103	0x3f42832a	0.7598139
104	0x3e5d3bfd	0.21604915
105	0xbdd681db	-0.10473987
106	0x3eda2a89	0.42610577
107	0x3cde9510	0.027170688
108	0xbf0f63b5	-0.56011516
109	0xbee8c4ae	-0.45462555
110	0xbe87bf60	-0.26513195
111	0x3f1a97b7	0.6038775
112	0xbe36075b	-0.17776243
113	0x3f269371	0.6506873
114	0xbf14fa18	-0.5819411
115	0x3e902d62	0.28159624
116	0xbeb775f7	-0.35832188
117	0xbe8a3bb0	-0.26998663
118	0xbedb1100	-0.42786407
119	0xbf87197c	-1.0554652
120	0x3eafb68d	0.34318963
121	0x3e1a7da5	0.15086992
122	0xbe826507	-0.25467703
123	0x3eacc576	0.337444
124	0x3f738b5b	0.95134515
125	0xbe8a61e5	-0.27027813
126	0x3dd2e974	0.10298434
127	0xbdb6aaef	-0.08919322
128	0xbf9e6efa	-1.2377617
129	0xbf0f4472	-0.55963814
130	0xbecfc079	-0.40576532
131	0xbcef4d19	-0.029211568
132	0xbd67111c	-0.0564128
133	0xbed459a4	-0.4147464
134	0x3f1c7357	0.61113495
135	0xbde7638e	-0.112982854
136	0x3ee6b2e5	0.4505836
137	0x3f1f74ae	0.62287414
138	0x3f5cee69	0.86301285
139	0x3f7e5fba	0.9936482
140	0x3e5b5360	0.21418524
141	0xbee4d1a7	-0.44691202
142	0xbf094162	-0.5361539
143	0x3ed1ebfc	0.41000354
144	0x3f2d69d1	0.6773959
145	0xbf794a38	-0.97378874
146	0xbdc10c41	-0.09426165
147	0xbf3b32c1	-0.7312432
148	0xbf3b8065	-0.7324279
149	0x3ec8bdd2	0.3920732
150	0x3e31eb57	0.17374931
151	0xbe4ab70d	-0.19796391
152	0xbeff346d	-0.49844685
153	0xbea4f538	-0.32218337
154	0xbefbcaf7	-0.49178287
155	0xbcb22eeb	-0.021750888
156	0xbf94cd9b	-1.1625246
157	0x3f47c745	0.78038436
158	0x3c829882	0.015941862
159	0x3f887ae5	1.0662504
160	0xbee50662	-0.44731432
161	0x3ea35d58	0.31907153
162	0xbdc3c489	-0.095589705
163	0xbbce76ac	-0.006300768
164	0x3efd0297	0.49416038
165	0x3fc4e9f9	1.5383903
166	0xbf03d384	-0.5149462
167	0x3e1d7e06	0.15380105
168	0x3eaa0a7d	0.33211127
169	0x3eadcfc5	0.33947578
170	0xbfb3b7bc	-1.4040446
171	0x3e70b8ba	0.23507968
172	0x3efd3609	0.49455288
173	0xbf413d7a	-0.7548443
174	0xbce63b78	-0.028104529
175	0xbe1e6370	-0.1546762
176	0x3eef81d9	0.46778753
177	0x3cd6f093	0.026237762
178	0x3eec08de	0.46100515
179	0xbe997cc2	-0.29977995
180	0x3f1fe31a	0.62455904
181	0xbf11a766	-0.56896055
182	0xbe845e75	-0.25853315
183	0x3f48519c	0.78249526
184	0xbec00317	-0.37502357
185	0x3e51f03f	0.20501803
186	0xbe2578f6	-0.16159424
187	0x3dfd157f	0.12357616
188	0x3ea3b7e2	0.3197623
189	0x3b655fa1	0.0034999626
190	0xbeb8dae3	-0.36104497
191	0xbecb9db4	-0.39768755
192	0x3ed39223	0.4132243
193	0x3ecf8702	0.4053269
194	0xbfaadf5e	-1.3349416
195	0xbe9e1882	-0.30878073
196	0x3ecbb379	0.39785364
197	0x3f31499a	0.6925293
198	0x3ce3f191	0.027825149
199	0xbc6ec4e1	-0.014573307
200	0xbdb1e1f4	-0.08685675
201	0xbf84df6c	-1.0380683
202	0xbe26a9e0	-0.1627574
203	0xbc0b6f67	-0.008510447
204	0xbe13cb78	-0.14433086
205	0x3eff6749	0.49883488
206	0x3f3e6141	0.7436715
207	0xbeffb7f5	-0.49945036
208	0x3ea8be4f	0.32957694
209	0x3e77c9ef	0.24198125
210	0x3d8f7fd9	0.07006807
211	0x3ec5eab1	0.38655618
212	0x3e00e95b	0.12589018
213	0xbf22dbc4	-0.63616586
214	0xbf500018	-0.81250143
215	0xbe345910	-0.176121
216	0xbe20643b	-0.15663235
217	0xbe3d9233	-0.18512802
218	0xbe3723c4	-0.17884737
219	0x3ebb1d00	0.36545563
220	0xbd16b135	-0.03679009
221	0x3ed13050	0.40857172
222	0xbe1373e6	-0.1439968
223	0x3f3b569c	0.7317903
224	0xbec715e6	-0.38883895
225	0x3ef34640	0.47514534
226	0x3e934f72	0.2877155
227	0x3e3eb74a	0.18624607
228	0x3ea22756	0.31670636
229	0x3dadfd48	0.08495575
230	0xbe96729b	-0.29384312
231	0x3e822da6	0.25425452
232	0x3d00bb9c	0.03142892
233	0xbf2e70e2	-0.68140996
234	0x3ed47db7	0.41502163
235	0xbdb34627	-0.08753615
236	0x3f02a721	0.5103627
237	0xbeba7abd	-0.36421767
238	0x3e6a3c6e	0.22874615
239	0xbe5b1dea	-0.2139813
240	0xbe998cea	-0.2999032
241	0x3ef8b5d9	0.4857624
242	0x3ee50dae	0.44737
243	0x3f474bc6	0.77849996
244	0x3f6b1017	0.91821426
245	0x3e40c77a	0.18826094
246	0x3e3060b8	0.17224395
247	0xbea5a1a3	-0.32349882
248	0x3dabceba	0.08389039
249	0xbd81c96d	-0.06337247
250	0xbd5d226c	-0.053987905
251	0xbca60269	-0.020264821
252	0xbf896c48	-1.073617
253	0xbe2c3906	-0.16818628
254	0xbef9b33b	-0.48769554
255	0x3ee9fe55	0.45701852

lstm.weight_hh_l1 f4 [200, 50]
0	0x3ded9910	0.1160146
1	0x3d4d900c	0.050186202
2	0xbd55b921	-0.052178506
3	0xbf8a61e3	-1.0811123
4	0x3ea2db9f	0.31808183
5	0xbec401a2	-0.38282496
6	0xbe4ced15	-0.20012315
7	0xbe44a278	-0.19202602
8	0xbebf0f91	-0.37316564
9	0x3ea2683a	0.31720144
10	0x3eb58dd5	0.35459772
11	0x3f0ef18e	0.55837333
12	0x3f18fd3d	0.5976141
13	0xbcf55dcd	-0.029951954
14	0x3eb61f44	0.3557073
15	0x3e938725	0.28814045
16	0xbfa9d805	-1.3269049
17	0x3bf3c0a5	0.0074387365
18	0xbe46b266	-0.19403991
19	0x3f06b94b	0.52626485
20	0x3e23af46	0.1598483
21	0x3e6c3511	0.23067118
22	0xbf30e3c6	-0.69097555
23	0x3e818473	0.25296363
24	0xbefb3ff9	-0.49072245
25	0x3ed66eb5	0.41881338
26	0xbfea6ce6	-1.8314483
27	0xbe93c5cb	-0.28861842
28	0x3d8b4038	0.06799358
29	0x3e93d03b	0.28869805
30	0x3f0689b8	0.5255389
31	0xbd37b774	-0.04485269
32	0x3f033925	0.5125907
33	0x3f41b14e	0.7566117
34	0x3e582f97	0.21111904
35	0x3ee6fda0	0.45115376
36	0xbed3fd5b	-0.41404232
37	0x3d6ae577	0.05734774
38	0x3e59a00c	0.2125246
39	0xbe48f8c3	-0.19626145
40	0xbe93bf75	-0.28857008
41	0x3e74a672	0.23891619
42	0x3f3e6cec	0.7438495
43	0x3e95bdaf	0.2924628
44	0xbe172c70	-0.14763045
45	0x3e532724	0.206204
46	0x3ea777a9	0.3270848
47	0x3d9b0531	0.075693496
48	0xbf0c6e9d	-0.5485628
49	0x3e2fd150	0.1716969
50	0x3e3b6a81	0.18302347
51	0x3f3c314a	0.7351271
52	0x3ee6892c	0.4502653
53	0x3f0a2b85	0.53972656
54	0xbd4c1663	-0.049826037
55	0x3eb51a06	0.35371417
56	0x3e124224	0.14283043
57	0xbe2ec0ab	-0.17065684
58	0x3f34a7f2	0.70568764
59	0xbf051b02	-0.51994336
60	0xbeba44c3	-0.36380586
61	0xbe52e319	-0.20594443
62	0x3e826cd2	0.25473648
63	0x3ebe4a1e	0.37165922
64	0xbed076bb	-0.40715584
65	0x3da57b77	0.0808019
66	0xbe0ffbdd	-0.14060922
67	0x3e8855b8	0.26627898
68	0x3d945332	0.07242431
69	0xbdf9850d	-0.121835805
70	0x3f1c8238	0.611362
71	0x3e78960f	0.24275993
72	0x3aa4d8bc	0.0012576799
73	0x3ebda5d0	0.37040567
74	0x3ea6520c	0.32484472
75	0xbea0a266	-0.313739
76	0xbdc8cb2a	-0.098043755
77	0xbedbaecf	-0.42906806
78	0x3f0dcfe9	0.5539537
79	0x3f22a858	0.6353812
80	0x3d11f4e0	0.03563392
81	0x3f434501	0.76277167
82	0xbe7b9fd5	-0.2457269
83	0xbeb6fefe	-0.3574142
84	0x3eb62a70	0.35579252
85	0xbedcb624	-0.43107712
86	0x3f80a01f	1.0048865
87	0xbef7cd0e	-0.48398632
88	0xbe2dc651	-0.16970183
89	0xbd538122	-0.051636823
90	0x3ed6c089	0.41943768
91	0x3e837933	0.25678405
92	0xbec2254c	-0.3791908
93	0xbba850da	-0.0051365914
94	0xbf0bca29	-0.54605347
95	0x3d8c301d	0.068451144
96	0x3e9f2bfd	0.31088248
97	0x3e4511f6	0.19245133
98	0x3f074fc4	0.5285609
99	0xbd7de206	-0.06198313
100	0xbe965ef0	-0.29369307
101	0x3e5de56f	0.21669553
102	0x3e780618	0.24221075
103	0xbe25a7ac	-0.16177243
104	0x3e5d7981	0.21628381
105	0x3e9e07b2	0.30865246
106	0x3ef9f35b	0.48818478
107	0x3f1bd9ab	0.6087901
108	0x3f447a4a	0.767491
109	0x3ebde760	0.37090588
110	0xbe4eff09	-0.20214476
111	0x3ed91c98	0.42404628
112	0xbced29cd	-0.028950596
113	0x3f1fe5b8	0.624599
114	0x3e46a30a	0.19398132
115	0x3dae1ac0	0.08501196
116	0x3f071755	0.52769977
117	0x3f2f3467	0.68439335
118	0x3e76383b	0.24044888
119	0xbe9a74a4	-0.30167115
120	0x3f0bed8a	0.5465933
121	0xbddf9704	-0.10917476
122	0x3e4801ec	0.19531983
123	0x3e72ebd1	0.2372277
124	0x3edf18e5	0.4357368
125	0xbf060361	-0.52348906
126	0x3e048cb8	0.12944305
127	0xbbfa72d7	-0.0076430845
128	0x3e8c5381	0.27407458
129	0x3b27cb07	0.0025603191
130	0xbe81da8d	-0.25362054
131	0x3df5cd30	0.12002027
132	0x3ec575d7	0.38566467
133	0x3f7d8550	0.99031544
134	0x3d723996	0.05913695
135	0x3ea7f7dd	0.32806292
136	0xbe3b5a52	-0.18296173
137	0x3d4c8d7d	0.04993962
138	0xbdac0235	-0.083988585
139	0xbede6593	-0.4343687
140	0x3dc5ae1a	0.09652348
141	0x3f4159bf	0.75527567
142	0xbe100770	-0.14065337
143	0xbcba5ae6	-0.022748422
144	0x3cfbd2f3	0.030740237
145	0x3f121bb3	0.57073516
146	0x3efe1c2c	0.49630868
147	0xbf1a1e4f	-0.602025
148	0xbe8da2c3	-0.2766324
149	0x3f34872d	0.7051876
150	0xbe13c61e	-0.14431044
151	0xbd840d4a	-0.06447847
152	0x3f32201f	0.6958026
153	0x3eddde2c	0.43333566
154	0xbe1f9974	-0.15585881
155	0x3ddc089e	0.10743831
156	0xbdf5a2ad	-0.119939186
157	0xbe8174fa	-0.2528456
158	0x3d7f7dfa	0.062376
159	0xbf41eccd	-0.75751954
160	0x3f4022e4	0.7505324
161	0x3f873d7d	1.056564
162	0x3f030569	0.5118013
163	0x3c314104	0.010818724
164	0x3e7d4f3e	0.2473726
165	0x3e078ca4	0.13237244
166	0xbcd6046b	-0.026125154
167	0x3f243d1c	0.64155746
168	0x3d9c17d5	0.07621733
169	0xbdd73053	-0.10507264
170	0x3d410738	0.047126025
171	0xbdb6b31b	-0.089208804
172	0x3f55d543	0.83528537
173	0xbf0dc908	-0.55384874
174	0xbbe4fb3e	-0.006987958
175	0x3e1d886b	0.1538407
176	0x3ebf0be1	0.3731375
177	0xbe6c1604	-0.23055273
178	0xbcd6e5d5	-0.02623264
179	0xbe9f1dca	-0.31077415
180	0x3e9a1c1a	0.30099565
181	0x3de6e240	0.112736225
182	0xbe9a1d96	-0.30100697
183	0x3f0c9ca3	0.5492651
184	0xbf24d8f0	-0.6439352
185	0xbd52f48a	-0.051502742
186	0x3e7dc42e	0.24781868
187	0x3dc069a6	0.09395151
188	0xbf0df0a3	-0.5544531
189	0x3cd1c910	0.02560857
190	0x3dcfa37d	0.10138605
191	0xbe1e891d	-0.15481992
192	0xbea30a81	-0.3184395
193	0xbe4a9cd4	-0.19786388
194	0x3e8173ba	0.25283605
195	0xbce6e7b8	-0.028186664
196	0xbdf0eee2	-0.11764313
197	0x3eaefcfc	0.34177387
198	0x3ed09f46	0.40746516
199	0xbd571e61	-0.052519206
200	0x3e85c43b	0.26126274
201	0x3de50e2b	0.11184343
202	0x3ddb8778	0.10719198
203	0xbe38749f	-0.18013237
204	0x3d54420c	0.0518208
205	0xbf1e0f6a	-0.6174227
206	0x3d089211	0.033342425
207	0x3bda0050	0.0066528693
208	0xbd5f8574	-0.05457063
209	0xbf41d954	-0.7572224
210	0x3e463eb4	0.19359857
211	0xbef1ee43	-0.47252092
212	0xbd065ead	-0.032805134
213	0x3e4ade0d	0.19811268
214	0xbe7191b3	-0.23590736
215	0xbe3d59b3	-0.18491249
216	0x3df1a592	0.11799158
217	0x3e349385	0.17634399
218	0x3e827417	0.25479195
219	0x3d038d1d	0.032116998
220	0x3b10b433	0.0022080063
221	0x3eb903f5	0.3613583
222	0xbec98822	-0.39361674
223	0x3dec16e0	0.115278006
224	0xbd27921e	-0.040910833
225	0xbddaef13	-0.10690131
226	0xbf3532b8	-0.70780516
227	0x3d8097ce	0.062789544
228	0x3ea747fb	0.32672104
229	0xbe60215e	-0.21887729
230	0x3ecda051	0.40161374
231	0x3e719aea	0.23594251
232	0xbe4ea58a	-0.20180336
233	0xbcdc8af8	-0.026921734
234	0xbe128db4	-0.14311868
235	0xbe4342e5	-0.19068487
236	0xbee9ab99	-0.4563873
237	0xbe347bd2	-0.17625359
238	0xbf2ce473	-0.67536086
239	0x3f348490	0.70514774
240	0x3e842ce2	0.25815493
241	0x3e00a0fe	0.12561414
242	0x3f4c4adc	0.79801726
243	0x3e13404f	0.1438
244	0xbd8fd598	-0.07023162
245	0x3ae35144	0.0017342945
246	0x3d8a92b6	0.06766264
247	0xbedaf124	-0.427621
248	0x3e142971	0.14468934
249	0x3cbcae0f	0.023032216
250	0xbdf582d6	-0.119878456
251	0xbe28a88e	-0.16470549
252	0xbe9679b4	-0.29389727
253	0x3f6e246b	0.9302432
254	0x3ec26abb	0.37972054
255	0x3e905b97	0.28194878

lstm.bias_ih_l1 f4 [200]
0	0xbf03e561	-0.5152188
1	0xbf0a4573	-0.5401222
2	0xbeca9e29	-0.39573792
3	0xbf1c2f7b	-0.6100995
4	0xbdd3a8a5	-0.10334901
5	0xbebcae90	-0.3685193
6	0xbe611e61	-0.21984245
7	0xbecec87b	-0.4038733
8	0xbef4a259	-0.4778011
9	0xbe060607	-0.13088237
10	0xbe31576b	-0.17318504
11	0xbe9c4b64	-0.30526268
12	0x3ee11f3e	0.43969148
13	0x3e623eef	0.2209432
14	0xbde4d1ca	-0.111728266
15	0xbf501d00	-0.8129425
16	0xbe852416	-0.26004094
17	0xbf0a7cfb	-0.54096955
18	0x3e2fdbad	0.17173643
19	0xbf41ce45	-0.7570537
20	0xbf56eb1c	-0.839525
21	0xbeab21e5	-0.33424297
22	0xbf6b6c58	-0.91962194
23	0xbe89fece	-0.26952213
24	0x3b3b84bb	0.002861305
25	0x3e8215db	0.254073
26	0xbf745e29	-0.95456177
27	0x3e816115	0.2526938
28	0xbd83f6ba	-0.06443544
29	0xbe711470	-0.23542953
30	0x3e26599d	0.16245122
31	0xbf856c1e	-1.042362
32	0xbf2722b7	-0.65287346
33	0xbf03ddbb	-0.5151021
34	0x3e665f14	0.22497207
35	0xbf2758e5	-0.6537002
36	0xbf4a5dab	-0.79049176
37	0xbdc02a48	-0.093830645
38	0xbe94a2e1	-0.29030517
39	0xbe646303	-0.22303395
40	0xbf336e3e	-0.7009009
41	0xbeea651b	-0.45780262
42	0xbebbb5a5	-0.3666202
43	0xbf18a069	-0.59619766
44	0xbea616d5	-0.32439294
45	0x3f24ad14	0.64326596
46	0xbe8a9ebe	-0.27074236
47	0xbf04d380	-0.51885223
48	0xbe907f25	-0.28222004
49	0xbf494001	-0.7861329
50	0x3e84b280	0.25917435
51	0xbe60d4f1	-0.2195623
52	0xbdf132e5	-0.117772855
53	0xbf03a184	-0.5141833
54	0xbe86817c	-0.26270664
55	0x3f1ee857	0.6207327
56	0xbf74f61d	-0.9568804
57	0xbf08f03e	-0.5349158
58	0xbe0c027c	-0.13672823
59	0xbf4fffa7	-0.8124947
60	0xbebfb3b9	-0.37441805
61	0xbe3fbde0	-0.18724775
62	0x3ed1c338	0.40969253
63	0x3fa0054a	1.2501614
64	0xbda6843d	-0.08130691
65	0xbeb390ad	-0.35071316
66	0xbed1c431	-0.40969995
67	0xbf3504e5	-0.70710593
68	0x3d1d9282	0.0384698
69	0xbd136415	-0.035984118
70	0xbf369099	-0.7131439
71	0xbe2fed7e	-0.1718044
72	0xbe64d098	-0.22345197
73	0x3e868fba	0.2628153
74	0x3e15f251	0.14643218
75	0xbeea369c	-0.4574479
76	0xbeda209a	-0.42602998
77	0x3f2c627a	0.67337763
78	0x3d69618d	0.056977797
79	0xbd038805	-0.03211214
80	0x3e3c2fbb	0.18377583
81	0x3e6269cb	0.2211067
82	0xbed3ced1	-0.41368726
83	0xbee303fa	-0.4433897
84	0xbd3f1a26	-0.046655796
85	0xbeba0779	-0.36333826
86	0x3dd118a8	0.10209781
87	0xbee64332	-0.4497314
88	0xbeca5dad	-0.39524594
89	0xbe7bd7c4	-0.24594027
90	0xbf0fb48a	-0.56134856
91	0xbef2e106	-0.47437304
92	0x3ec74468	0.38919377
93	0xbf45ca0b	-0.7726142
94	0x3d68bbca	0.056819715
95	0x3e6c370f	0.23067878
96	0xbf79f7da	-0.97643816
97	0x3d89702e	0.0671085
98	0xbedd311a	-0.43201524
99	0x3d023624	0.031789914
100	0x3e8faf1a	0.2806328
101	0xbeecd625	-0.4625713
102	0xbeb006c7	-0.3438017
103	0xbd4e32d1	-0.05034143
104	0x3e7f3ed9	0.24926318
105	0xbe795b83	-0.24351315
106	0x3e50450e	0.20338842
107	0x3d298ab8	0.041392058
108	0x3c8bedfc	0.017081253
109	0xbc2e79aa	-0.010649124
110	0xbe065c07	-0.13121043
111	0x3e1a8949	0.15091433
112	0xbdffa926	-0.124834344
113	0xbce847c6	-0.028354537
114	0x3ea8a56b	0.32938704
115	0xbecc264d	-0.3987297
116	0x3d28e638	0.04123518
117	0xbe8e08a4	-0.27740967
118	0x3dcf9480	0.10135746
119	0xbe998399	-0.29983214
120	0xbe0afa63	-0.13572077
121	0x3da6edaf	0.08150803
122	0x3ebde09c	0.37085426
123	0xbe9a865f	-0.30180642
124	0xbdb8d59a	-0.09025116
125	0xbda7e05a	-0.081970885
126	0x3ed65301	0.41860202
127	0x3e811852	0.25213867
128	0xbf0212a3	-0.5080969
129	0xbefb840f	-0.4912419
130	0x3db58adc	0.08864376
131	0xbda8b359	-0.08237333
132	0xbe15fca2	-0.14647153
133	0xbe0a721f	-0.13520096
134	0xbf46165f	-0.77377886
135	0xbd96c22d	-0.07361255
136	0x3daf5297	0.08560675
137	0x3dae3941	0.08507014
138	0x3de25b43	0.11052563
139	0x3e0f351d	0.13985105
140	0x3c25535d	0.010090676
141	0xbed09335	-0.4073731
142	0x3ee32a50	0.4436822
143	0xbebd9829	-0.3703015
144	0xbe3375d1	-0.17525412
145	0xbead1df2	-0.3381191
146	0xbd130e34	-0.035902217
147	0x3e063cd8	0.13109148
148	0xbdf5c38c	-0.12000188
149	0xbe1dfab9	-0.15427674
150	0xbe99331f	-0.29921815
151	0xbf1110b7	-0.5666613
152	0xbe5fed2a	-0.21867815
153	0xbea2d3b4	-0.31802142
154	0xbeea0bd6	-0.45712155
155	0x3f3fe998	0.7496581
156	0xbe9a1aab	-0.3009847
157	0xbf288a94	-0.65836453
158	0xbeaeb04f	-0.34118888
159	0xbe5b57d9	-0.2142023
160	0xbe066bd6	-0.13127074
161	0x3e622761	0.22085334
162	0x3f500a73	0.81265944
163	0x3e014fdf	0.12628125
164	0x3e235070	0.15948653
165	0xbdd7fa84	-0.10545829
166	0xbe011f7e	-0.1260967
167	0xbf3f3b2b	-0.7469966
168	0x3f140fe3	0.5783674
169	0x3ee627f5	0.4495236
170	0xbf2cc572	-0.6748878
171	0xbeeb57d2	-0.4596544
172	0xbf52c058	-0.82324743
173	0x3e937181	0.28797534
174	0x3ee107ab	0.43951163
175	0xbe4bcbf6	-0.19902024
176	0xbe2ee75a	-0.17080441
177	0x3edaf825	0.42767444
178	0x3e442cd7	0.1915773
179	0x3e852bd1	0.26009992
180	0x3f1249db	0.57143945
181	0xbf280828	-0.65637445
182	0xbed53dde	-0.41648763
183	0xbe031867	-0.12802278
184	0x3d2258ec	0.039635584
185	0xbb5bd2a8	-0.003354231
186	0xbeb095f7	-0.34489414
187	0xbec2aa2f	-0.38020465
188	0xbd37f0b0	-0.04490727
189	0xbe8bc90e	-0.2730183
190	0xbf325d0d	-0.69673234
191	0xbe81d3bf	-0.25356862
192	0x3e40b42a	0.18818727
193	0xbf265c06	-0.64984167
194	0x3d9068c5	0.07051233
195	0xbdcba7e8	-0.09944135
196	0xbef3d0bd	-0.47620192
197	0x3e59f6f2	0.21285608
198	0x3f47e887	0.78089184
199	0xbe931d0a	-0.28733093

lstm.bias_hh_l1 f4 [200]
0	0xbf03e561	-0.5152188
1	0xbf0a4573	-0.5401222
2	0xbeca9e29	-0.39573792
3	0xbf1c2f7b	-0.6100995
4	0xbdd3a8a5	-0.10334901
5	0xbebcae90	-0.3685193
6	0xbe611e61	-0.21984245
7	0xbecec87b	-0.4038733
8	0xbef4a259	-0.4778011
9	0xbe060607	-0.13088237
10	0xbe31576b	-0.17318504
11	0xbe9c4b64	-0.30526268
12	0x3ee11f3e	0.43969148
13	0x3e623eef	0.2209432
14	0xbde4d1ca	-0.111728266
15	0xbf501d00	-0.8129425
16	0xbe852416	-0.26004094
17	0xbf0a7cfb	-0.54096955
18	0x3e2fdbad	0.17173643
19	0xbf41ce45	-0.7570537
20	0xbf56eb1c	-0.839525
21	0xbeab21e5	-0.33424297
22	0xbf6b6c58	-0.91962194
23	0xbe89fece	-0.26952213
24	0x3b3b84bb	0.002861305
25	0x3e8215db	0.254073
26	0xbf745e29	-0.95456177
27	0x3e816115	0.2526938
28	0xbd83f6ba	-0.06443544
29	0xbe711470	-0.23542953
30	0x3e26599d	0.16245122
31	0xbf856c1e	-1.042362
32	0xbf2722b7	-0.65287346
33	0xbf03ddbb	-0.5151021
34	0x3e665f14	0.22497207
35	0xbf2758e5	-0.6537002
36	0xbf4a5dab	-0.79049176
37	0xbdc02a48	-0.093830645
38	0xbe94a2e1	-0.29030517
39	0xbe646303	-0.22303395
40	0xbf336e3e	-0.7009009
41	0xbeea651b	-0.45780262
42	0xbebbb5a5	-0.3666202
43	0xbf18a069	-0.59619766
44	0xbea616d5	-0.32439294
45	0x3f24ad14	0.64326596
46	0xbe8a9ebe	-0.27074236
47	0xbf04d380	-0.51885223
48	0xbe907f25	-0.28222004
49	0xbf494001	-0.7861329
50	0x3e84b280	0.25917435
51	0xbe60d4f1	-0.2195623
52	0xbdf132e5	-0.117772855
53	0xbf03a184	-0.5141833
54	0xbe86817c	-0.26270664
55	0x3f1ee857	0.6207327
56	0xbf74f61d	-0.9568804
57	0xbf08f03e	-0.5349158
58	0xbe0c027c	-0.13672823
59	0xbf4fffa7	-0.8124947
60	0xbebfb3b9	-0.37441805
61	0xbe3fbde0	-0.18724775
62	0x3ed1c338	0.40969253
63	0x3fa0054a	1.2501614
64	0xbda6843d	-0.08130691
65	0xbeb390ad	-0.35071316
66	0xbed1c431	-0.40969995
67	0xbf3504e5	-0.70710593
68	0x3d1d9282	0.0384698
69	0xbd136415	-0.035984118
70	0xbf369099	-0.7131439
71	0xbe2fed7e	-0.1718044
72	0xbe64d098	-0.22345197
73	0x3e868fba	0.2628153
74	0x3e15f251	0.14643218
75	0xbeea369c	-0.4574479
76	0xbeda209a	-0.42602998
77	0x3f2c627a	0.67337763
78	0x3d69618d	0.056977797
79	0xbd038805	-0.03211214
80	0x3e3c2fbb	0.18377583
81	0x3e6269cb	0.2211067
82	0xbed3ced1	-0.41368726
83	0xbee303fa	-0.4433897
84	0xbd3f1a26	-0.046655796
85	0xbeba0779	-0.36333826
86	0x3dd118a8	0.10209781
87	0xbee64332	-0.4497314
88	0xbeca5dad	-0.39524594
89	0xbe7bd7c4	-0.24594027
90	0xbf0fb48a	-0.56134856
91	0xbef2e106	-0.47437304
92	0x3ec74468	0.38919377
93	0xbf45ca0b	-0.7726142
94	0x3d68bbca	0.056819715
95	0x3e6c370f	0.23067878
96	0xbf79f7da	-0.97643816
97	0x3d89702e	0.0671085
98	0xbedd311a	-0.43201524
99	0x3d023624	0.031789914
100	0x3e8faf1a	0.2806328
101	0xbeecd625	-0.4625713
102	0xbeb006c7	-0.3438017
103	0xbd4e32d1	-0.05034143
104	0x3e7f3ed9	0.24926318
105	0xbe795b83	-0.24351315
106	0x3e50450e	0.20338842
107	0x3d298ab8	0.041392058
108	0x3c8bedfc	0.017081253
109	0xbc2e79aa	-0.010649124
110	0xbe065c07	-0.13121043
111	0x3e1a8949	0.15091433
112	0xbdffa926	-0.124834344
113	0xbce847c6	-0.028354537
114	0x3ea8a56b	0.32938704
115	0xbecc264d	-0.3987297
116	0x3d28e638	0.04123518
117	0xbe8e08a4	-0.27740967
118	0x3dcf9480	0.10135746
119	0xbe998399	-0.29983214
120	0xbe0afa63	-0.13572077
121	0x3da6edaf	0.08150803
122	0x3ebde09c	0.37085426
123	0xbe9a865f	-0.30180642
124	0xbdb8d59a	-0.09025116
125	0xbda7e05a	-0.081970885
126	0x3ed65301	0.41860202
127	0x3e811852	0.25213867
128	0xbf0212a3	-0.5080969
129	0xbefb840f	-0.4912419
130	0x3db58adc	0.08864376
131	0xbda8b359	-0.08237333
132	0xbe15fca2	-0.14647153
133	0xbe0a721f	-0.13520096
134	0xbf46165f	-0.77377886
135	0xbd96c22d	-0.07361255
136	0x3daf5297	0.08560675
137	0x3dae3941	0.08507014
138	0x3de25b43	0.11052563
139	0x3e0f351d	0.13985105
140	0x3c25535d	0.010090676
141	0xbed09335	-0.4073731
142	0x3ee32a50	0.4436822
143	0xbebd9829	-0.3703015
144	0xbe3375d1	-0.17525412
145	0xbead1df2	-0.3381191
146	0xbd130e34	-0.035902217
147	0x3e063cd8	0.13109148
148	0xbdf5c38c	-0.12000188
149	0xbe1dfab9	-0.15427674
150	0xbe99331f	-0.29921815
151	0xbf1110b7	-0.5666613
152	0xbe5fed2a	-0.21867815
153	0xbea2d3b4	-0.31802142
154	0xbeea0bd6	-0.45712155
155	0x3f3fe998	0.7496581
156	0xbe9a1aab	-0.3009847
157	0xbf288a94	-0.65836453
158	0xbeaeb04f	-0.34118888
159	0xbe5b57d9	-0.2142023
160	0xbe066bd6	-0.13127074
161	0x3e622761	0.22085334
162	0x3f500a73	0.81265944
163	0x3e014fdf	0.12628125
164	0x3e235070	0.15948653
165	0xbdd7fa84	-0.10545829
166	0xbe011f7e	-0.1260967
167	0xbf3f3b2b	-0.7469966
168	0x3f140fe3	0.5783674
169	0x3ee627f5	0.4495236
170	0xbf2cc572	-0.6748878
171	0xbeeb57d2	-0.4596544
172	0xbf52c058	-0.82324743
173	0x3e937181	0.28797534
174	0x3ee107ab	0.43951163
175	0xbe4bcbf6	-0.19902024
176	0xbe2ee75a	-0.17080441
177	0x3edaf825	0.42767444
178	0x3e442cd7	0.1915773
179	0x3e852bd1	0.26009992
180	0x3f1249db	0.57143945
181	0xbf280828	-0.65637445
182	0xbed53dde	-0.41648763
183	0xbe031867	-0.12802278
184	0x3d2258ec	0.039635584
185	0xbb5bd2a8	-0.003354231
186	0xbeb095f7	-0.34489414
187	0xbec2aa2f	-0.38020465
188	0xbd37f0b0	-0.04490727
189	0xbe8bc90e	-0.2730183
190	0xbf325d0d	-0.69673234
191	0xbe81d3bf	-0.25356862
192	0x3e40b42a	0.18818727
193	0xbf265c06	-0.64984167
194	0x3d9068c5	0.07051233
195	0xbdcba7e8	-0.09944135
196	0xbef3d0bd	-0.47620192
197	0x3e59f6f2	0.21285608
198	0x3f47e887	0.78089184
199	0xbe931d0a	-0.28733093

layer_norm.weight f4 [50]
0	0x3f3cde8a	0.7377707
1	0x3f2ec277	0.6826548
2	0x3f3c4385	0.73540527
3	0x3ed53275	0.41640058
4	0x3f15b396	0.5847715
5	0x3e851d1e	0.25998777
6	0x3ee7a54d	0.45243302
7	0x3f5864f7	0.8452906
8	0x3ab1536f	0.0013528893
9	0x3ebd11e2	0.36927706
10	0x3eb1c1f1	0.34718278
11	0x3f030c6b	0.51190823
12	0x3eb68a24	0.35652268
13	0xbd9a169e	-0.07523845
14	0x3e660bef	0.2246549
15	0x3f7b32f4	0.98124623
16	0x3eb33573	0.35001716
17	0x3f2cf521	0.6756154
18	0x3eea6196	0.45777577
19	0x3efd41bd	0.49464217
20	0x3f1cea43	0.61294955
21	0x3f1bd298	0.60868216
22	0x3f876ebd	1.058067
23	0x3f01d56e	0.5071629
24	0x3eb180b4	0.34668505
25	0x3f00ec2f	0.5036039
26	0x3f46abc2	0.7760583
27	0x3d08e9bc	0.03342603
28	0x3f08da45	0.5345805
29	0x3f82e2b1	1.0225431
30	0x3dfef4c0	0.12449026
31	0x3f6f865f	0.9356441
32	0x3ec175f6	0.3778531
33	0x3f337f69	0.7011629
34	0x3f7f92ca	0.9983336
35	0x3f0d1ede	0.55125225
36	0x3f1b341d	0.60626394
37	0x3ed52771	0.41631654
38	0x3eaa741d	0.33291712
39	0x3f1a5b6d	0.60295755
40	0x3f3b877b	0.732536
41	0x3eb6b5d1	0.3568559
42	0x3ee76685	0.45195404
43	0x3f096a2f	0.5367765
44	0x3ec56ee7	0.38561174
45	0x3f24264b	0.6412093
46	0x3f27a31b	0.65483254
47	0x3f05cb10	0.52262974
48	0x3ef73875	0.4828526
49	0x3ef42f5d	0.47692385

layer_norm.bias f4 [50]
0	0xbe317d41	-0.17332937
1	0xbdb29e7f	-0.08721637
2	0xbc37cdb3	-0.011218476
3	0xbe28b4ae	-0.16475174
4	0xbdf77860	-0.120835066
5	0xbda1c296	-0.078984424
6	0x3ce51a2d	0.027966583
7	0xbb7ce196	-0.0038586608
8	0x3d2cf244	0.04222323
9	0x3d2b48c9	0.04181746
10	0xbcf85ea8	-0.030318573
11	0xbd9260d7	-0.07147377
12	0x3f626b88	0.8844533
13	0x3b08bae8	0.0020863358
14	0xbd389cd0	-0.045071423
15	0xbd5edf1e	-0.054412
16	0x3bfaf37d	0.0076584206
17	0x3d795ef9	0.06088159
18	0x3f0ea7df	0.557249
19	0xbdf981ad	-0.12182937
20	0xbd571326	-0.052508496
21	0xbda4ec18	-0.08052844
22	0xbd7aeea2	-0.061262734
23	0xbca837ed	-0.02053448
24	0x3f054cee	0.5207051
25	0xbe0f415c	-0.13989776
26	0xbdbce1a9	-0.09222729
27	0xbda44a22	-0.08021952
28	0xbd5fc639	-0.0546324
29	0xbd84ecd6	-0.06490485
30	0x3d39e93a	0.045388438
31	0xbd385a50	-0.045008004
32	0xbcd706d0	-0.026248366
33	0xbde8bd84	-0.11364272
34	0xbd9b4fe5	-0.07583598
35	0xbd93e06b	-0.07220539
36	0xbcf604ca	-0.03003158
37	0x3e0d3d32	0.13792875
38	0x3e3b6876	0.18301567
39	0xbe2060cc	-0.15661925
40	0xbccefd7a	-0.025267351
41	0x3d0a503d	0.033767927
42	0xbe7c0320	-0.24610567
43	0xbe1530fa	-0.14569464
44	0xbd9274d5	-0.0715119
45	0xbb08924d	-0.0020839155
46	0x3d1c9158	0.038224548
47	0x3cd3a732	0.02583656
48	0x3d9829d7	0.07429855
49	0xbd964234	-0.07336846
