Pretrained/model/LSTM/lstm_horizon_50.pth (torch, 176852 bytes, 12 tensors)

lstm.weight_ih_l0 f4 [200, 62]
00000000: b3ca e7bd a1b4 bfbd 3b2d 8cbd afef 0dbe
00000010: 4bd6 83bd 6fb1 8fbd 6481 62be 8041 86bf
00000020: 1cba 51bd 498b 8cbf 736f 8ebd 85f3 11bf
00000030: 2800 2bbe 7fa2 94bf a5b4 10be 49c4 ba3e
00000040: 0a53 4dbd b4ee 1dbf 9a63 92be 81a7 e4be
00000050: e814 083c f6f0 13bf 7180 8dbe 5052 4cbe
00000060: 80f3 71be 61f3 10bf cfa5 0fbe f0fa 52bf
00000070: 3929 7cbe 30d1 2fbf c1e7 31bd b00f b2be
00000080: 0f70 51be d2fd 61bf 8778 cdbd 6e79 a73d
00000090: 526e 3abe 3e6a 6bbe cbb0 45be 0dbb cabd
000000a0: d26d 8fbd 1dfd 4ebe d97f 0f3e 7b44 8cbe
000000b0: 07d6 58be cc30 4c3d cc9b c2be b342 65be
000000c0: e3f2 39bd fd57 47be 382d 08be bd3a b6bd
000000d0: 6768 47be 571a 1ebf 84b1 c3bd 8342 fabe
000000e0: f8f0 63bd 4563 b6be ff6b 6bbd 2dec 8b3e
000000f0: e9bf 92bd 9b09 e7be a510 5bbd 6668 7dbe
00000100: dd48 733b 7f9b e8bd 6c9e fb3d d245 5fbe
00000110: 1353 83bd c6bd 80be b167 5fbd acd9 bf3d
00000120: 869f 6a3d fb8a b5be b8fa f3bd 8600 2cbe
00000130: 9059 d13d 5c35 0fbe 4df7 01ba f738 2f3e
00000140: c551 243e f2a4 0d3e 07c4 183e 5681 5dbe
00000150: 8732 703d 05f1 d43e 85ac 0a3e 8146 553c
00000160: 1a6f 06be 5fe7 c0bd 3bbc 533d f15b 8bbd
00000170: 7390 c7bd db4a 53bd 6aa6 73bc 39b3 01bd
00000180: 8411 02be 0992 6d3b e94b c73c 65dd 053d
00000190: 7bbc 2a3d 5502 d83c 10fb be3d cfdc 113d
000001a0: 5a97 c5be 4a7f 4bbe b8da 6dbe b493 e5bd
000001b0: 5012 cdbe 8a0c a0bd 3575 b53d 9f0f e3ba
000001c0: 9d9e fa3d 0046 a4bd 4b46 37bd da17 96be
000001d0: 23a4 e33d 706a 14be 9c50 333e 107b 81bf
000001e0: 1fe0 e83d 9a1c ab3e 9126 d1bd 9f60 03be
000001f0: 9d77 b33d 08ff b33f c469 96bd 703d f53e
00000200: 00ab aa3d 7d39 cf3f 557a 8abd e429 923f
00000210: f1a0 5a3c 2118 043e 0f0d 153e 8454 5f3f
00000220: 2852 6e3d 7288 253e 0e33 d0bd 7968 943e
00000230: f45b c4bd 7a69 a23e ad1b 6f3d 0afb 423f
00000240: e710 0d3e b3f3 a63e 4b29 8f3d 4ac3 9c3f
00000250: 9807 9d3d a0de b63e 202b c8bc 4895 a03e
00000260: 1e22 e33d 2ede 083f db4a a0bd f5c0 893e
00000270: b694 46bd 86bb 273f 8729 273e abc0 143f
00000280: 0d05 713d 5578 1f3f 7c82 463e c9e6 18be
00000290: ed7f 2b3e a345 2d3c bbe1 3d3f f951 b13f
000002a0: 1973 0e3f 10b2 18be c46f bc3f b962 133f
000002b0: ab5f 093e 9453 973d ac09 d23d 9c1d 84ba
000002c0: a872 063e c7c6 983e 1946 a8bd 9e48 f23d
000002d0: 6eb2 303e dc14 503d b1d4 8bbd 8ab4 a9be
000002e0: bb30 3dbe a5cd d43e d3dc 5b3d a789 9f3f
000002f0: 8505 dabd 6931 823e 11c6 803c 1fbf 78be
00000300: ec18 06be e514 4e3e b8d5 14be 58b3 b23e
00000310: 460e b03d 883a 6bbf 3f5e a3bd a87e 0b3e
00000320: 9328 c3bc 5a60 98bf 0254 9d3d c7c7 77be
00000330: 98bb 04be c757 44bf faf2 0dbe b566 56be
00000340: aa0c 0abe 88cf 67bf 8ee7 9f3c 0a08 503f
00000350: 4b9f de3d 41fc 79bf fd90 ee3d 90de 063e
00000360: ffe4 093e b07c b2bf 1f20 b63c a7ad 823e
00000370: 25ce 78bd 3f93 5abf 5780 fabc fe40 dd3e
00000380: bdb0 30bd d9fe 7dbf efdd 403d 656a fa3d
00000390: 772b ae3e 4961 6e3f e77c 7d3d 5ed8 743d
000003a0: cdc5 143f 33cd 5cbd 0fc3 1abd 27cc 593f
000003b0: 54a6 213f a5e6 4b3f f0f0 353f 051a e03e
000003c0: 8498 42bd 51e2 ed3e 0e2a 3e3c 708a 69be
000003d0: 2c14 253e 1605 113e 1e64 753d bdbe 5e3d
000003e0: e30c cf3b 2927 71be f1e6 a43d 409f 95bd
000003f0: 2471 07be 082a 8e3e 57bd 653c 2d8b 9bba
-0.11317959 -0.09360624 -0.068445645 -0.13860963 -0.064373575 -0.07016265 -0.22119671 -1.0488739
-0.05120288 -1.0980006 -0.06954851 -0.57012206 -0.16699278 -1.161209 -0.1413141 0.3647788
-0.05012802 -0.6169236 -0.28591615 -0.44659045 0.008305766 -0.5778955 -0.27637056 -0.19953275
-0.23628044 -0.56621367 -0.14028095 -0.8241415 -0.246251 -0.6867857 -0.04343391 -0.34777594
-0.20452903 -0.88277924 -0.100327544 0.08177458 -0.18206146 -0.22989747 -0.19305722 -0.09898958
-0.070033684 -0.20213743 0.14013614 -0.27395996 -0.21175395 0.049851224 -0.3800949 -0.22388725
-0.04539765 -0.19467159 -0.132985 -0.08897922 -0.1947342 -0.6175894 -0.09555343 -0.4887887
-0.055649728 -0.35622612 -0.05747604 0.27328625 -0.0716551 -0.45124516 -0.05348267 -0.24746856
0.0037122287 -0.113577835 0.12286076 -0.21803978 -0.064123295 -0.25144786 -0.054542247 0.093676895
0.05728104 -0.35457596 -0.11913055 -0.16797075 0.10222161 -0.13985199 -0.000495781 0.17111574
0.16046818 0.13832453 0.14918528 -0.21631369 0.058641937 0.41590133 0.13542373 0.013017298
-0.1312832 -0.094191305 0.051693182 -0.06804646 -0.097443484 -0.05158506 -0.014871219 -0.03166506
-0.12701994 0.0036250374 0.024328189 0.03268184 0.041683655 0.0263683 0.0932523 0.03561097
-0.38592035 -0.19872776 -0.23227966 -0.11209813 -0.40053034 -0.07814892 0.08860246 -0.0017323381
0.12237284 -0.08021164 -0.04474477 -0.29315072 0.11115291 -0.14493728 0.17511219 -1.0115681
0.11370873 0.3342026 -0.10212434 -0.12829827 0.08763049 1.4062204 -0.07344392 0.47898436
0.08333397 1.6189419 -0.06761614 1.1419034 0.0133440355 0.1289983 0.14555763 0.87238336
0.05818382 0.16165331 -0.10165988 0.28985956 -0.09587851 0.31721097 0.058376003 0.76164305
0.13775979 0.32607803 0.06990298 1.2247097 0.07667464 0.35716724 -0.024434626 0.31363893
0.11090492 0.5346402 -0.078267775 0.26905027 -0.048481666 0.65520513 0.16324435 0.5810649
0.058842707 0.6229299 0.19385713 -0.14931788 0.16748019 0.010575685 0.7417256 1.3853141
0.55644375 -0.14911675 1.4721608 0.57572514 0.134154 0.07388988 0.10255751 -0.0010079625
0.13129675 0.29839155 -0.08216495 0.11830257 0.17255566 0.050801143 -0.06827677 -0.33145553
-0.1847562 0.41563144 0.05367739 1.2463883 -0.10645584 0.25428322 0.015719445 -0.24291657
-0.13095444 0.20125158 -0.14534652 0.34902453 0.085964724 -0.91886187 -0.079769604 0.13622534
-0.023823058 -1.1904404 0.07682039 -0.24197303 -0.12962186 -0.7669644 -0.1386222 -0.20937617
-0.13481393 -0.9055104 0.019519594 0.81262267 0.108702265 -0.97650534 0.11648748 0.13170838
0.13466261 -1.3944302 0.022232113 0.2552311 -0.06074347 -0.8538093 -0.030578775 0.43213648
-0.0431373 -0.9921699 0.047086652 0.122273244 0.34017536 0.93117195 0.061886694 0.059776656
0.5811432 -0.05390663 -0.03778368 0.85077137 0.6314442 0.7964881 0.71070766 0.4376985
-0.04750873 0.46461728 0.011606706 -0.22806716 0.16120976 0.14162096 0.059909932 0.05438112
0.006318675 -0.23550095 0.08051861 -0.07305765 -0.13226753 0.27766442 0.014022193 -0.0011867039

lstm.weight_hh_l0 f4 [200, 50]
00000000: cfd5 82be b76d da3d c893 b5bf 6419 eebe
00000010: 19e5 30be 39ee 46bf 9b06 bb3e b07d f13e
00000020: 8330 8a3f d38f 14be 544b 9dbd 46f9 413d
00000030: c3c6 4dbe e1f8 13bf ca7f 46bf 57a6 43bf
00000040: 7807 3bbf 86f2 bdbe f7ac c43e 96f2 82bd
00000050: d595 96be 377d dd3e 54ae 65bf 214b 833e
00000060: c901 0e3f 9ace 963d 6074 dfbd 509f de3e
00000070: 046c c13e 6806 adbe 622b dcbe caa4 0ebe
00000080: 93f1 a7be dd36 3b3e 4db3 1fbf 8429 313d
00000090: ebcd 8cbf 4f60 bdbf 9aad 09bf 80c4 ebbe
000000a0: 905b bc3e 8eed f43c 941b 6dbf a11d c93e
000000b0: 7f2b fdbd c1fe d3be 6aa2 c83e bbf4 1cbe
000000c0: d01f 2b3f 5481 a0be aea6 123f a244 613f
000000d0: 10ef 533e fc93 d2be 3f56 bb3e 8982 843e
000000e0: 2851 4a3f 94af fa3f b21c dcbd 797d 8c3e
000000f0: 9b59 8d3f aac1 c4be 197a 73be 3f9b 2cbf
00000100: 2268 07c0 1e65 513f 667d 0fbf 3507 e7bf
00000110: e175 563e fd1d 09be 3a25 0ebf da67 813f
00000120: 762d f1be 85b4 843f 5fc6 a23e 0377 273e
00000130: c988 4a3e 3878 43be 39ae a5be 6d68 9b3e
00000140: ab81 8ebf 0285 733e 7765 b9bd ad57 153f
00000150: 0620 b53d c576 4b3d db4c 9bbd a39f 9bbf
00000160: 9844 19bf ef5e a63d 3909 703f 982b 403e
00000170: e443 cabc eb36 eebd 9146 2ebe afa7 e2bd
00000180: 5a0e ba3f fd36 85bf 1334 a73e cc8d b73d
00000190: 4c7c 833e 73c7 c13d 5973 833e 4eca 5dbf
000001a0: 6d61 cebf f09b b03d 2d8c 95be 105d 793f
000001b0: c3dc 0f3f e1d9 b8ba c0e7 9fbd 786b cd3e
000001c0: 6177 043f b7e5 46be ece0 81bf c368 203f
000001d0: b8dd ad3f 3d85 5bbf d72f 6d3f 6dfb 043f
000001e0: e8b7 0dbf 7464 e4be d165 2d3e c68f d13e
000001f0: 7983 8fbf 70b1 71be dae9 76be 99c9 acbf
00000200: f2b9 fe3c 1a14 f1be 1ec7 53be ce9d 81bf
00000210: f96e 8ebe 9bf6 673f cab9 483f aeca 843e
00000220: f012 e43e 2087 27bf 67d0 603f eb03 87be
00000230: c620 a6be 023c 1b3f 60a9 823f 4c3d 033f
00000240: a4e4 45be feeb fdbd 2eb2 3c3f 8253 bcbd
00000250: cfbf 753f 667a e13e 3025 153f 8e92 1d3e
00000260: 0842 553f c1da 013f 30e3 c5be 7e09 d23e
00000270: c8b5 dd3e 1dda 29bd 074b 24bf f9c2 093f
00000280: 3dac d8be ae8f 5e3f f5fd 1b3f 8c7d 23bf
00000290: 1185 153f 39e3 683f ed57 023f be1f 503e
000002a0: 5ca6 bdbe c87a 353e 8780 0bbf f861 e03d
000002b0: 1e9b e63e 5991 f53d 4dbc 8fbe 6209 99be
000002c0: e626 e5be b2e7 30bf 1544 cfbe 1dfa f03d
000002d0: 6896 b43f f942 49bd 0822 ae3d fce6 42bf
000002e0: 5f29 a93e 8c88 ca3e d8d6 523f c13f d83e
000002f0: d2a9 483e 09d4 913f 838c 233f 5cce cf3c
00000300: e24e 04be 54ed 253f d68f 7c3f 24a6 41bf
00000310: da6f f43e b854 6c3d 5c8c 4dbe 892e c63e
00000320: 2323 be3e 7cc5 733e 90d2 48bf 27da 133f
00000330: ba9f 42bd 874f 69bf 719f 51bf 33b6 af3e
00000340: d6fd 423f 3729 f9bb 9137 113f 9c94 313e
00000350: 4be8 3abe 86f5 153f 7960 15bf 8500 94bf
00000360: edad ccbe 4851 68bd 4ab2 173e 5c72 6ebe
00000370: 8722 a83e aaee 773f f36b a33e 5463 dd3e
00000380: 5f4b e2bd 6195 0dbf 6b4a 4fbe d937 edbe
00000390: f613 063e d37e 453d e8c3 16be 9471 a1be
000003a0: fed3 b23e 60fc 35bd daf2 00bf 5743 9fbd
000003b0: a098 3cbf 9bc4 b4bf 58c5 3bbe 0205 49bf
000003c0: e707 c638 1682 f0bc ce4c d0be 2e8e 0ebf
000003d0: eec6 953e 78e0 f9be 989f 14be 9ff5 3bbe
000003e0: 49ac ebbe 77c6 593e a567 7b3d 15a7 efbd
000003f0: 72a5 36bf a0a0 0abf dece e43e 7483 ac3d
-0.25553748 0.10665458 -1.4185724 -0.46503747 -0.17274894 -0.7770725 0.36528477 0.47166204
1.0796055 -0.1450799 -0.07680383 0.047356866 -0.20095353 -0.57801634 -0.7753874 -0.7642569
-0.7305827 -0.37099093 0.38413212 -0.06393926 -0.29411188 0.43259594 -0.8971913 0.25643256
0.55471474 0.07363625 -0.10910869 0.4348092 0.37777722 -0.3379395 -0.43001848 -0.1393005
-0.32801494 0.18282647 -0.62382966 0.043252483 -1.1000341 -1.4795016 -0.5378052 -0.46048355
0.36788607 0.029898431 -0.92620206 0.39280418 -0.12361812 -0.414053 0.39186412 -0.15327732
0.6684542 -0.3134867 0.57285583 0.8799535 0.20696664 -0.41128528 0.36589238 0.2588084
0.79030085 1.9584832 -0.10747661 0.27439478 1.104297 -0.38429004 -0.23777045 -0.67424387
-2.1157308 0.8179492 -0.5605072 -1.8049074 0.20943405 -0.13390346 -0.55525553 1.0109818
-0.47104996 1.036759 0.3179197 0.16353993 0.19778742 -0.19088829 -0.32359484 0.30353108
-1.1133322 0.23781207 -0.09052556 0.5833691 0.088439986 0.049673814 -0.075830184 -1.2158092
-0.5987029 0.08123576 0.9376407 0.1876663 -0.024690576 -0.116315685 -0.17019106 -0.11067139
1.453563 -1.0407406 0.32656917 0.089625925 0.25680768 0.0946187 0.2567394 -0.8663682
-1.6123482 0.08623493 -0.29208508 0.9740763 0.5619623 -0.0014103019 -0.07807875 0.40121055
0.5174466 -0.19423567 -1.0146766 0.62659854 1.3583288 -0.8575018 0.9265112 0.51946145
-0.55358744 -0.4460789 0.16933371 0.40930003 -1.1211997 -0.23602843 -0.24112645 -1.3499023
0.031094525 -0.4708565 -0.20681426 -1.0126283 -0.2781904 0.90610665 0.7840849 0.25935882
0.44545698 -0.6544056 0.87817997 -0.26370177 -0.3244688 0.6063844 1.0207939 0.51265407
-0.193255 -0.123985276 0.7370938 -0.09195615 0.959958 0.44038695 0.5825987 0.15387937
0.8330388 0.50724417 -0.38649893 0.41022867 0.4330275 -0.041467775 -0.6417698 0.5381313
-0.42318907 0.8693799 0.6093438 -0.63863444 0.5840617 0.90971714 0.50915414 0.20324609
-0.37040985 0.17722619 -0.5449299 0.10956186 0.4504022 0.119906135 -0.2807335 -0.2988997
-0.4475624 -0.6910354 -0.4048163 0.11766455 1.41084 -0.049136136 0.08502585 -0.76133704
0.33039376 0.39557302 0.82359076 0.4223614 0.19596031 1.1392833 0.6388628 0.025366955
-0.12920716 0.6481526 0.98656976 -0.75644135 0.47741586 0.05769798 -0.20073074 0.38707379
0.37136182 0.23805803 -0.7844629 0.5775475 -0.04751561 -0.91136974 -0.81883913 0.34318694
0.7616857 -0.00760379 0.5672541 0.17341846 -0.18252675 0.58577764 -0.5835033 -1.1562659
-0.39976445 -0.05671814 0.14814106 -0.23285812 0.32838842 0.9684855 0.31918296 0.43239844
-0.11049532 -0.5530606 -0.20243232 -0.4633167 0.13093552 0.048216652 -0.1472317 -0.31531966
0.34927362 -0.044430137 -0.5037056 -0.07776516 -0.7367039 -1.4122499 -0.18337 -0.78523266
9.442848e-05 -0.029358905 -0.40683597 -0.556857 0.29253334 -0.4880407 -0.14514005 -0.18355416
-0.4602988 0.21267115 0.06137814 -0.1170179 -0.713462 -0.54151344 0.44689077 0.0842351

lstm.bias_ih_l0 f4 [200]
00000000: 0fc0 d5bd 5ce5 06be e9f8 113f 9be5 9fbe
00000010: 17f4 9e3d 5220 b5bc 4647 f5bd f29f 883f
00000020: 3c6c d0be 624e a73e 6527 50bc 7999 ef3e
00000030: 3a6d 10be c075 ccbe 8763 a03f 0a26 91be
00000040: 83e9 05bf 256b 2d3f dc40 2d3e 0e32 a73e
00000050: 5926 7abe fb4e 07be 955e 0b3f 508a 0ebf
00000060: f7c0 05bf 5e73 cbbe 65f2 073f 8f08 bcbd
00000070: cfbd 56be 079f 05be 172c 22be 8c1c 60bd
00000080: 179b 923d a750 04be ddb2 f83d 8f21 edbe
00000090: 9490 193f 2e53 763e 316c 2d3e 7dc0 01bf
000000a0: b721 cbbe d04d 943e 1e4c 9d3e 8e6b 2a3f
000000b0: e493 b7be 18a9 95be eeed e7bc 5dbc 0abe
000000c0: 5da9 bfbe 8f5e a03e 30ad 59bf bba2 5e3f
000000d0: c4ef 343f ac1f 0bbf b219 2abf 6e82 f93d
000000e0: 889b a23e d2e8 70bf 06b6 9dbe 6e1b 90be
000000f0: 4fe6 45bf 3f11 1a3f d1f1 033f be47 c9be
00000100: d0bd 3cbf 3273 a1be 68b5 2cbf 7481 28bf
00000110: c9b7 5ebd d109 85be 6e7d 27bf 6890 d1be
00000120: 7828 903d bc93 2fbf 7014 20bf fad4 96be
00000130: 3888 f33e 0c9d 4dbe 0c15 66bf 1043 1b3f
00000140: c472 3fbf de3c 003f a3ef 10bf 3698 3abf
00000150: 0ac0 d2be ee95 57bf 4280 9abc b0b1 3abf
00000160: 282a eb3e c10e 90be e45a 36be 6a94 603f
00000170: 9b8d 743f c2eb 9abf a993 433e d645 8fbd
00000180: c769 4fbf 6367 363e 9003 b8be f1bb 93bf
00000190: 25c7 683e fb5e 1fbf 5cbe 1a3e 4474 7cbe
000001a0: d940 683e 326a bebd 315e 4e3f 8f7d 6dbf
000001b0: c1d7 f1be 3f3c 983c 7cfa ae3e 4c99 b8bf
000001c0: 1b65 08bf 91db c3be b82b 713f cc2d 8f3e
000001d0: dfc9 e7be 241d 5a3f b1c9 223c 35b4 713d
000001e0: 1853 8b3e 52ae 1ebf 5e37 2ebe 5748 87be
000001f0: 1449 eabe 0bb3 e8be 8cdc 893f 52cb 383d
00000200: fdcd 61bd 254b 9c3f 3005 053f 47cb a73e
00000210: 0b12 acbe 8358 e8be 1e87 bd3e 6c9a 83be
00000220: 53cc a93e 8998 863f 1a84 84bf b52b 7e3e
00000230: 9bc0 f63e c707 3cbf 6860 02bf 67a5 8bbe
00000240: b44d 21bf 8a83 523e 5d8e f0be 6efc a7be
00000250: bc1f 37bf bb7f d8be ff3f 2ebf c7a6 183f
00000260: cf07 413f 6529 0dbf 3a54 4c3f 8e5e 713e
00000270: 44d5 1bbe 95d8 9c3f 17f7 243f 49cb 193e
00000280: 77fb a93d 908a c63e ca16 36bf e931 363f
00000290: 9846 653f 9713 00bf 3f23 adbe 7170 7f3f
000002a0: 2cea 213f bda9 86be 9491 c23e 175c 433f
000002b0: 9ad8 4a3e 06f1 25bf 47c3 29bf 134d c3be
000002c0: 8563 2cbe d77e b53e b676 cf3e 2461 45be
000002d0: 441a 40be 6480 47bd c88e 813d fd35 8cbe
000002e0: b689 64be f617 ae3c 0b89 923e 604b 963f
000002f0: ff65 323e 5bcb 12bf a9a9 38bf ba19 d33d
00000300: e22f b43d 2ed4 51be d1de 56bd e7b6 febd
00000310: bde3 0a3f 728b 8abe b7c9 a5be a77f 903e
-0.10437023 -0.13173431 0.5702043 -0.31229863 0.077614 -0.022110138 -0.11976485 1.0673811
-0.40707576 0.3267699 -0.012704705 0.46796778 -0.14104167 -0.39933586 1.2530373 -0.28349334
-0.52309436 0.67741615 0.16919273 0.32655376 -0.24428691 -0.13213722 0.54441196 -0.556798
-0.52247566 -0.39736456 0.5310424 -0.0918132 -0.20970844 -0.13048945 -0.15837131 -0.054714724
0.07158487 -0.12921391 0.121434905 -0.46314666 0.59986234 0.24055168 0.16935803 -0.5068434
-0.3967416 0.28965616 0.30722135 0.66570365 -0.3585502 -0.2923057 -0.028311696 -0.13548417
-0.374339 0.31322142 -0.8502989 0.86967057 0.70678353 -0.543452 -0.6644546 0.121830806
0.31759286 -0.94105256 -0.30802935 -0.28145927 -0.7730455 0.60182565 0.5154086 -0.39312547
-0.7372713 -0.315332 -0.67464304 -0.6582253 -0.05437449 -0.25984052 -0.65425766 -0.40930486
0.07038969 -0.685848 -0.62531185 -0.29459363 0.47564864 -0.2007944 -0.89875865 0.60649204
-0.74784493 0.50092876 -0.56615657 -0.72888505 -0.4116214 -0.8421315 -0.018859986 -0.7292738
0.459306 -0.28136256 -0.1780811 0.8772646 0.9552857 -1.2103198 0.19099297 -0.06995742
-0.8102078 0.17812876 -0.35940218 -1.154173 0.22732218 -0.62254304 0.15111679 -0.24653727
0.22680987 -0.09297599 0.80612475 -0.9276971 -0.4723492 0.018583415 0.3417548 -1.4421782
-0.53279275 -0.38253453 0.94207335 0.27964628 -0.45271203 0.85200715 0.009935782 0.05900975
0.27211833 -0.6198474 -0.17013308 -0.26422378 -0.4575888 -0.454491 1.077043 0.045115776
-0.055128086 1.2210432 0.5196104 0.32772276 -0.33607516 -0.4538003 0.3701715 -0.25703752
0.331637 1.05153 -1.0352814 0.2482136 0.4819382 -0.7344937 -0.50928354 -0.2727463
-0.6300919 0.2055799 -0.46983615 -0.32809776 -0.715328 -0.4228495 -0.680664 0.5962948
0.7540254 -0.5514129 0.7981602 0.23571226 -0.15218073 1.2253596 0.6443953 0.15018953
0.08299916 0.3877759 -0.71128523 0.71169907 0.8956084 -0.5002989 -0.33815953 0.99780947
0.6324794 -0.26301375 0.38001692 0.7631239 0.1980919 -0.648209 -0.66313595 -0.3814474
-0.16834839 0.35448334 0.40520257 -0.19275337 -0.1876002 -0.048706427 0.063260615 -0.2738494
-0.22318158 0.02125166 0.2862018 1.1741753 0.17421721 -0.57341546 -0.7213388 0.10307641
0.087981954 -0.20491096 -0.052458588 -0.124372296 0.5425375 -0.27059513 -0.3238046 0.2822239

lstm.bias_hh_l0 f4 [200]
00000000: 0fc0 d5bd 5ce5 06be e9f8 113f 9be5 9fbe
00000010: 17f4 9e3d 5220 b5bc 4647 f5bd f29f 883f
00000020: 3c6c d0be 624e a73e 6527 50bc 7999 ef3e
00000030: 3a6d 10be c075 ccbe 8763 a03f 0a26 91be
00000040: 83e9 05bf 256b 2d3f dc40 2d3e 0e32 a73e
00000050: 5926 7abe fb4e 07be 955e 0b3f 508a 0ebf
00000060: f7c0 05bf 5e73 cbbe 65f2 073f 8f08 bcbd
00000070: cfbd 56be 079f 05be 172c 22be 8c1c 60bd
00000080: 179b 923d a750 04be ddb2 f83d 8f21 edbe
00000090: 9490 193f 2e53 763e 316c 2d3e 7dc0 01bf
000000a0: b721 cbbe d04d 943e 1e4c 9d3e 8e6b 2a3f
000000b0: e493 b7be 18a9 95be eeed e7bc 5dbc 0abe
000000c0: 5da9 bfbe 8f5e a03e 30ad 59bf bba2 5e3f
000000d0: c4ef 343f ac1f 0bbf b219 2abf 6e82 f93d
000000e0: 889b a23e d2e8 70bf 06b6 9dbe 6e1b 90be
000000f0: 4fe6 45bf 3f11 1a3f d1f1 033f be47 c9be
00000100: d0bd 3cbf 3273 a1be 68b5 2cbf 7481 28bf
00000110: c9b7 5ebd d109 85be 6e7d 27bf 6890 d1be
00000120: 7828 903d bc93 2fbf 7014 20bf fad4 96be
00000130: 3888 f33e 0c9d 4dbe 0c15 66bf 1043 1b3f
00000140: c472 3fbf de3c 003f a3ef 10bf 3698 3abf
00000150: 0ac0 d2be ee95 57bf 4280 9abc b0b1 3abf
00000160: 282a eb3e c10e 90be e45a 36be 6a94 603f
00000170: 9b8d 743f c2eb 9abf a993 433e d645 8fbd
00000180: c769 4fbf 6367 363e 9003 b8be f1bb 93bf
00000190: 25c7 683e fb5e 1fbf 5cbe 1a3e 4474 7cbe
000001a0: d940 683e 326a bebd 315e 4e3f 8f7d 6dbf
000001b0: c1d7 f1be 3f3c 983c 7cfa ae3e 4c99 b8bf
000001c0: 1b65 08bf 91db c3be b82b 713f cc2d 8f3e
000001d0: dfc9 e7be 241d 5a3f b1c9 223c 35b4 713d
000001e0: 1853 8b3e 52ae 1ebf 5e37 2ebe 5748 87be
000001f0: 1449 eabe 0bb3 e8be 8cdc 893f 52cb 383d
00000200: fdcd 61bd 254b 9c3f 3005 053f 47cb a73e
00000210: 0b12 acbe 8358 e8be 1e87 bd3e 6c9a 83be
00000220: 53cc a93e 8998 863f 1a84 84bf b52b 7e3e
00000230: 9bc0 f63e c707 3cbf 6860 02bf 67a5 8bbe
00000240: b44d 21bf 8a83 523e 5d8e f0be 6efc a7be
00000250: bc1f 37bf bb7f d8be ff3f 2ebf c7a6 183f
00000260: cf07 413f 6529 0dbf 3a54 4c3f 8e5e 713e
00000270: 44d5 1bbe 95d8 9c3f 17f7 243f 49cb 193e
00000280: 77fb a93d 908a c63e ca16 36bf e931 363f
00000290: 9846 653f 9713 00bf 3f23 adbe 7170 7f3f
000002a0: 2cea 213f bda9 86be 9491 c23e 175c 433f
000002b0: 9ad8 4a3e 06f1 25bf 47c3 29bf 134d c3be
000002c0: 8563 2cbe d77e b53e b676 cf3e 2461 45be
000002d0: 441a 40be 6480 47bd c88e 813d fd35 8cbe
000002e0: b689 64be f617 ae3c 0b89 923e 604b 963f
000002f0: ff65 323e 5bcb 12bf a9a9 38bf ba19 d33d
00000300: e22f b43d 2ed4 51be d1de 56bd e7b6 febd
00000310: bde3 0a3f 728b 8abe b7c9 a5be a77f 903e
-0.10437023 -0.13173431 0.5702043 -0.31229863 0.077614 -0.022110138 -0.11976485 1.0673811
-0.40707576 0.3267699 -0.012704705 0.46796778 -0.14104167 -0.39933586 1.2530373 -0.28349334
-0.52309436 0.67741615 0.16919273 0.32655376 -0.24428691 -0.13213722 0.54441196 -0.556798
-0.52247566 -0.39736456 0.5310424 -0.0918132 -0.20970844 -0.13048945 -0.15837131 -0.054714724
0.07158487 -0.12921391 0.121434905 -0.46314666 0.59986234 0.24055168 0.16935803 -0.5068434
-0.3967416 0.28965616 0.30722135 0.66570365 -0.3585502 -0.2923057 -0.028311696 -0.13548417
-0.374339 0.31322142 -0.8502989 0.86967057 0.70678353 -0.543452 -0.6644546 0.121830806
0.31759286 -0.94105256 -0.30802935 -0.28145927 -0.7730455 0.60182565 0.5154086 -0.39312547
-0.7372713 -0.315332 -0.67464304 -0.6582253 -0.05437449 -0.25984052 -0.65425766 -0.40930486
0.07038969 -0.685848 -0.62531185 -0.29459363 0.47564864 -0.2007944 -0.89875865 0.60649204
-0.74784493 0.50092876 -0.56615657 -0.72888505 -0.4116214 -0.8421315 -0.018859986 -0.7292738
0.459306 -0.28136256 -0.1780811 0.8772646 0.9552857 -1.2103198 0.19099297 -0.06995742
-0.8102078 0.17812876 -0.35940218 -1.154173 0.22732218 -0.62254304 0.15111679 -0.24653727
0.22680987 -0.09297599 0.80612475 -0.9276971 -0.4723492 0.018583415 0.3417548 -1.4421782
-0.53279275 -0.38253453 0.94207335 0.27964628 -0.45271203 0.85200715 0.009935782 0.05900975
0.27211833 -0.6198474 -0.17013308 -0.26422378 -0.4575888 -0.454491 1.077043 0.045115776
-0.055128086 1.2210432 0.5196104 0.32772276 -0.33607516 -0.4538003 0.3701715 -0.25703752
0.331637 1.05153 -1.0352814 0.2482136 0.4819382 -0.7344937 -0.50928354 -0.2727463
-0.6300919 0.2055799 -0.46983615 -0.32809776 -0.715328 -0.4228495 -0.680664 0.5962948
0.7540254 -0.5514129 0.7981602 0.23571226 -0.15218073 1.2253596 0.6443953 0.15018953
0.08299916 0.3877759 -0.71128523 0.71169907 0.8956084 -0.5002989 -0.33815953 0.99780947
0.6324794 -0.26301375 0.38001692 0.7631239 0.1980919 -0.648209 -0.66313595 -0.3814474
-0.16834839 0.35448334 0.40520257 -0.19275337 -0.1876002 -0.048706427 0.063260615 -0.2738494
-0.22318158 0.02125166 0.2862018 1.1741753 0.17421721 -0.57341546 -0.7213388 0.10307641
0.087981954 -0.20491096 -0.052458588 -0.124372296 0.5425375 -0.27059513 -0.3238046 0.2822239

lstm.weight_ih_l1 f4 [200, 50]
00000000: 1ac1 22be fda0 233f 9f81 f23e 3c15 81be
00000010: 959d 7bbd 2556 9a3d 9263 403e 6372 b93d
00000020: 0760 4fbe 00c8 2b3f 1668 95bf 90b5 de3e
00000030: 1b93 44be 83cc ccbe a3a5 2f3e 8014 b13e
00000040: 19b7 0cbf 0a72 593e fb04 8e3f 1924 c03d
00000050: 799a 99bf 48b1 af3d 8dbd 503e d89e da3e
00000060: 51e9 4f3e af60 0f3e d212 a53e 0c3c 143d
00000070: a8ec 25bf ed2b 56bf c8de 873f 7548 723e
00000080: 9338 273f b17e b4bd d0de 0cbf 9034 2a3f
00000090: a968 3a3e 845b 253e 6cab 8bbe 0b03 843f
000000a0: c7e5 cf3e 5408 7a3d 71bb 8e3b 6b62 ad3f
000000b0: cf49 d93e b6c1 1cbe 80e6 e23f 2a14 6bbf
000000c0: 284c 053f 6f72 15bf ca01 5b3e 3172 b1bd
000000d0: dbd5 0f3f 9ca6 8a3f 3ed6 febf 5acf 963e
000000e0: 98e0 4e3e 9aab 203f d79a 19bf 22f5 3b3e
000000f0: 3b11 8c3e 3a35 123f 211d e3bd 06c3 25bf
00000100: 3c9a f5be 5f63 953e 219e 833e 8ce1 b43e
00000110: 4776 893c bdbc 333e fab0 56be 9190 6abf
00000120: f807 1dbd b421 613f 6252 85bf 1563 66be
00000130: 7c1d 0abf ae79 8cbf 1dc6 953d 6283 07bf
00000140: 04ad 4ebe e67c 893e f9c3 c83e 825e 32bf
00000150: 2105 143f 85eb 1c3f a07f ce3e 9616 d9be
00000160: b020 0bbe d41e cb3e aaec b7be 0b40 6abe
00000170: a03b 1c3e 43c1 2f3f d489 983f 410d 61bf
00000180: 9932 e33d a918 2ebe 9ec5 e63f de31 edbe
00000190: f172 91bd 079d 3bbf fcf0 a0be b55c 91bb
000001a0: 7693 033f f32f b3bd 3795 59be 9791 0bbd
000001b0: cae1 333d 590e 903f 68a9 22be ada7 0dbf
000001c0: 0fa6 1f3f 585a b1be dc09 58bd 1c92 c5be
000001d0: 5ff4 05bf b6e4 dfbd 6dc0 57be 8110 e8be
000001e0: 2824 343e 2303 2d3f f3ea 83be 4bfd 12be
000001f0: b7ab eb3e 3947 173f 6c80 71be 048e 7b3f
00000200: 98ac 5bbe 5fdc 243e 8e6f d5be 0c6c 96be
00000210: c013 31be dac5 b73e 5a1f bebe 9d14 643e
00000220: 7889 36be ecdd 7cbe 9211 a23e fc57 4e3c
00000230: 5f9b ebbd 85ef 9bbe c67b 0a3f ae5a 373e
00000240: 0bf4 16bf e559 163f e8ed a1bb d370 1c3f
00000250: de2c 1dbf c5f3 9abe c51b 933e fd1a 713d
00000260: b999 d6bd e89f b93d 581c 3e3f 3aa1 e5be
00000270: d9fc 803e d172 203f 0d9d 353e e623 613f
00000280: 7abf c4be 22b1 4dba 40f9 d73e f984 dfbe
00000290: 32a7 68bf 912f 59be 76c8 a73e 3d21 bebe
000002a0: 8f2c 113e dc1d fc3e 6d9b d2bf 3639 f03e
000002b0: ef01 d9be 2d90 47be 3771 343e 87fe d73e
000002c0: ee9e b23d 64c7 803e 221e fbbc 1a0f d13e
000002d0: 73c3 7cbe 46be e4be a2b8 a13c 1738 293e
000002e0: 2b16 40be 280d c6be 2e54 8ebe 5d24 9cbf
000002f0: 71e4 83be 7c66 b9be 32c1 0d3f 31a0 193f
00000300: f962 5f3e 8ab9 673e 2824 623d ae09 ad3e
00000310: d08a 0740 4066 a7bd 5213 0abf 4843 a0be
00000320: da71 603e de58 b43e 4134 14bf a2e3 11bf
00000330: cf8f 50bd 7c02 3fbf 8a78 80be 086e bcbe
00000340: 7f58 0f3f 02a3 bd3e c1c1 30be db69 8a3d
00000350: 15a6 e9bd 3154 26be 7946 ab3e 5068 97be
00000360: db4a 8c3f 2b81 993e 1db1 593c f281 cabe
00000370: 288c 5e3e 475e 9bbe 3162 31bf a492 013d
00000380: f5d3 f6bd e40a d3be af18 f1bd 13a8 7ebd
00000390: fdd5 f63e 4939 efbe c3c5 1f3e 7341 f63d
000003a0: 288a 82bf 61dc c9be 13d6 f0be 0fb7 e9bc
000003b0: 8918 a8be cd5e 873e 7c1c 49bf 3e9c 09bf
000003c0: e980 85bd e4fd 98bd 8130 89bf 6c6d 0ebf
000003d0: c69c 5ebe 021d bcbe 37aa a9be 6f44 4b3d
000003e0: 3802 6dbf 604b 3cbe 9c85 2ebe ff52 093e
000003f0: 4c60 27be 6903 963e 600c 28be e252 583d
-0.15893975 0.63917524 0.47364518 -0.25211513 -0.06142958 0.07535962 0.18787983 0.09055021
-0.20251475 0.6710205 -1.167239 0.43497896 -0.19196741 -0.3999978 0.17153029 0.34585953
-0.54966885 0.21234909 1.109527 0.09381885 -1.2000266 0.085787356 0.20384808 0.42699313
0.20303847 0.14001726 0.3224092 0.036190078 -0.64814234 -0.83660775 1.0614862 0.23660453
0.653207 -0.08813227 -0.55027485 0.66486454 0.18203987 0.16148192 -0.27279222 1.0313429
0.40604994 0.0610431 0.004355841 1.354566 0.42439124 -0.1530827 1.7726593 -0.9182764
0.5206933 -0.58377737 0.21387401 -0.086643584 0.5618569 1.0832095 -1.9909132 0.29455072
0.20202863 0.62761843 -0.6000189 0.1835523 0.27356896 0.5711247 -0.1108954 -0.6475071
-0.47969234 0.29177377 0.2570658 0.3532833 0.016780032 0.17552467 -0.20965949 -0.9162684
-0.038337678 0.8794205 -1.0415766 -0.22498734 -0.5395124 -1.0974634 0.07313178 -0.5293485
-0.20183188 0.26853102 0.39212015 -0.6967546 0.57820326 0.61296874 0.40331745 -0.42400044
-0.13586688 0.39671957 -0.35922748 -0.22875993 0.1525712 0.6865427 1.1917062 -0.8791085
0.11093635 -0.17001595 1.8029058 -0.46327108 -0.071020015 -0.7328648 -0.31433856 -0.0044361004
0.5139688 -0.0874938 -0.21248327 -0.034074392 0.0439165 1.1254379 -0.15884936 -0.5533398
0.6236276 -0.3463924 -0.052743778 -0.38588035 -0.52326006 -0.10932295 -0.21069498 -0.4532509
0.17591918 0.6758291 -0.2576519 -0.14354436 0.46029446 0.5909305 -0.23584145 0.98263574
-0.21452558 0.1609969 -0.41686672 -0.29379308 -0.1729269 0.35893136 -0.37133294 0.22273488
-0.17825878 -0.24694031 0.3165403 0.012594219 -0.11504244 -0.30456176 0.54095113 0.17905685
-0.5896613 0.5873092 -0.0049416907 0.61109656 -0.61396587 -0.30264106 0.28732124 0.05886363
-0.10478539 0.09063703 0.74262 -0.4484957 0.25192907 0.62675196 0.17735691 0.879454
-0.38427335 -0.0007846524 0.4218235 -0.43656138 -0.9088012 -0.21209551 0.32770127 -0.37134734
0.14177154 0.4924153 -1.6453682 0.46918648 -0.42384288 -0.19488592 0.17621313 0.42186376
0.0872172 0.25152123 -0.030654017 0.40831834 -0.24683933 -0.44676417 0.01974136 0.16525303
-0.18758456 -0.38681912 -0.277986 -1.2198597 -0.25760224 -0.36211002 0.5537292 0.6001006
0.21815099 0.22629371 0.055210263 0.33796448 2.1178474 -0.081737995 -0.5393573 -0.31301332
0.21918431 0.3522405 -0.57892233 -0.56987965 -0.050918397 -0.74613166 -0.25091964 -0.36802697
0.5599441 0.37038428 -0.17261411 0.067584716 -0.11408631 -0.16243054 0.33452204 -0.29571772
1.0960344 0.2998136 0.013286856 -0.39552265 0.21733153 -0.30345365 -0.69290453 0.031633988
-0.12052146 -0.41219246 -0.11772286 -0.062172007 0.48210135 -0.46723393 0.15602784 0.12024202
-1.0198412 -0.39425948 -0.47038326 -0.028529672 -0.3283122 0.26439515 -0.7855909 -0.5375403
-0.06518728 -0.07470301 -1.0717927 -0.55635715 -0.21739492 -0.3674088 -0.33137676 0.04962581
-0.9258151 -0.18388128 -0.17043155 0.13410567 -0.16345328 0.29299477 -0.1641097 0.05281342

lstm.weight_hh_l1 f4 [200, 50]
00000000: 258d 38be 832a a3bd 6f30 313f 131b 9cbd
00000010: d035 3d3e 6651 413e d879 9c3f 7823 123f
00000020: 8142 26bf 15ee 80be 7315 4a3f de51 5bbe
00000030: 5250 8fbc 22a7 c0be dda5 80bf 9708 933e
00000040: c342 6bbe 5649 153f 41bc 383f 8b0a 253e
00000050: c52c a5bf 4fcc aa3e 18ee e5be 7c13 723f
00000060: 3056 983e bb77 813e 38d6 0dbe 06ea 1dbf
00000070: 5967 e73d 3af4 a23e e433 6f3e 798a dabd
00000080: 8428 b83e 8eaa 293f a195 6f3d 152c 3ebf
00000090: c082 b9bb 9ebf c73e a8b9 7c3f a1ee d9be
000000a0: 1559 cbbc d645 6e3f 8758 473d b5d2 9bbe
000000b0: 2551 c13f e979 79bd 5353 3bbe 8fee 27be
000000c0: b135 5ebe aaaa e3be 167b 3ebe 098a 89be
000000d0: 4dbb 3d3e f470 34be 1b5b 783e 9e14 853a
000000e0: fdbf bebe 2202 3dbe 8c0c 4d3e 4b54 05be
000000f0: 1b2b 963e 4e5f 91be 6649 893e 070f 56bc
00000100: 6073 b03c 512a bb3e 340d b5bd 377f f13e
00000110: 0ed7 41be 416d 30be 0b8b f2be edc4 9fbd
00000120: 1374 0abe 47fc cd3e 0166 753e d44c 943f
00000130: 69a1 36be ba60 57bf 42c5 43bf b54b 23be
00000140: a8db 77be 3575 d9be 858c 063f b3de 943e
00000150: a337 c2be 5218 41be 7a21 7c3e 34bf bb3d
00000160: 535d 2abe 89fd 353e fa65 7bbe f7f4 4b3d
00000170: ba5d bb3e 0af2 183d 74c4 83bd 8b9d 5a3f
00000180: 2b6a fdbe 6078 fdbe 7a4d 19bf a120 f0be
00000190: 3253 99bf 6ff3 fabe 61b2 bebe 2f13 92be
000001a0: 23e3 ba3e ca23 1d3f 3a21 533e c93f 9d3e
000001b0: 59bd 3bbf 83c6 9dbe 452e 3f3f 4060 b3be
000001c0: f289 15bf 9665 c23d 587f 603f d48c adbe
000001d0: 9b02 38be 0bf9 a03e acf0 513f b546 3a3e
000001e0: 4b8b b6be a337 203e fe55 03bf 7ce1 e93e
000001f0: be6a e23d 8a68 c53c 60c6 323f 0bbb c7bd
00000200: 9489 e9bd 886d 583f 34a9 35bf 4a9d 63be
00000210: 4058 9f3e d85e 1a3f 77f7 2b3e 3295 1abf
00000220: 3361 823d 5ccf 953e 953b b03e 2eb4 56bf
00000230: 85b0 37bf de58 24be 3fb7 cc3d b9fe d7be
00000240: 9d21 da3e 6a02 4bbe e36d b73e 1012 0bbf
00000250: 2762 d1be 34a7 d0be 1104 04bd 9285 9abe
00000260: b5c6 29be 319b 29bf ca36 9d3e 375a 1b3f
00000270: 6cab c03e d99b 30bf f760 443e d832 bfbe
00000280: a44a 503f c43e dfbe 8ab7 80bf e3d0 5ebf
00000290: 6939 23bf 25fa b53d 7a57 f2be 3508 c73d
000002a0: d9c2 8f3e 15f9 293d 23a9 fabe 5613 233f
000002b0: 3e92 ebbe ebfd 913f fc34 ac3e 5130 b03e
000002c0: ae3b 243f 9cb1 20bf 7d56 2b3e 0e65 84be
000002d0: 99f7 e8bd bf59 10be e88f 1c3a ed63 233f
000002e0: dd63 3abf 497f 74be c465 4a3e f32b 32be
000002f0: 30f5 1e3e cbd7 2ebf 5789 54be 171e 48bc
00000300: 12f9 2c3d 3be8 1d3e cd8b d53e 93ba 943e
00000310: 6266 233e 9580 e7be a6c5 20bf dc54 49be
00000320: 0a64 943e 6f12 7fbe 2415 a6be 63fc 303f
00000330: cbc3 173e 9118 e7be 9c76 9bbe b51c 9c3f
00000340: 8371 023f 4433 d13e 5c5a 90be d1cb 123e
00000350: 8d77 f53d 1de7 693d 3c73 433f 1c76 aabf
00000360: a8a2 cabd 3988 cebf d8ca b7be 54ea 3abf
00000370: f9dd 963e 647e 25be bd95 633e 924b 0dbe
00000380: a403 dcbd 095e 623f 4c3a ee3e 0c5e 383f
00000390: 29ee 53be b401 423f a62b d5be ff47 043f
000003a0: 89af 443e c2c9 d5be 8eb0 6a3f a18d 193e
000003b0: 8150 aabd ec69 5e3d 82c2 4b3d 371b 13be
000003c0: 4a78 19bf 6dd8 84be 7fd1 6cbd d68f 7cbe
000003d0: abb3 113e 1e1f 463e 6d6f 763e 57b2 793e
000003e0: 071d 713e ce48 953e d835 92be 66ac ac3e
000003f0: 20d2 923e 8d2d 263e be41 493e b839 223e
-0.18022592 -0.07967093 0.6921453 -0.076223515 0.18477559 0.18878707 1.2224684 0.5708537
-0.64945227 -0.25181642 0.7893898 -0.21417949 -0.017494354 -0.37627512 -1.0050617 0.2871749
-0.22974686 0.58315027 0.7216225 0.16117303 -1.2904288 0.33359 -0.44908214 0.9456098
0.29753256 0.2528666 -0.13851249 -0.61685216 0.11299009 0.31826955 0.23359638 -0.10670943
0.3596841 0.6627587 0.058492307 -0.74286014 -0.0056613386 0.3901338 0.9872079 -0.42564872
-0.024822751 0.9307531 0.04866841 -0.30434194 1.5102888 -0.06090728 -0.18293504 -0.16399597
-0.21700169 -0.44466144 -0.18601641 -0.26863125 0.18528481 -0.17621213 0.24253504 0.0010153239
-0.3725585 -0.18457845 0.20024318 -0.13020436 0.29329762 -0.28393024 0.2681381 -0.013065106
0.02153939 0.36555722 -0.08840409 0.4716737 -0.18929693 -0.17229177 -0.47371706 -0.078012325
-0.13520841 0.40231535 0.23964693 1.1585946 -0.1783501 -0.8413197 -0.76472867 -0.15946849
-0.24204886 -0.42472234 0.52558166 0.29076156 -0.37933072 -0.18856934 0.24622145 0.091673285
-0.16637163 0.17772497 -0.2455062 0.049794164 0.36594945 0.0373402 -0.06433955 0.8539664
-0.49495062 -0.495059 -0.59883845 -0.46899894 -1.1978514 -0.4901385 -0.37245467 -0.2853026
0.36501417 0.61382735 0.20618144 0.30712727 -0.73335797 -0.30815515 0.74679977 -0.3503437
-0.5841361 0.09492032 0.8769431 -0.33896506 -0.17969744 0.31440005 0.8200786 0.18191035
-0.35653147 0.15646224 -0.5130309 0.45679843 0.11055516 0.0240977 0.69833946 -0.097524725
-0.11403194 0.8454213 -0.7096131 -0.2222797 0.31122017 0.6030097 0.16793619 -0.60383904
0.063661955 0.29259765 0.34420457 -0.8386868 -0.7175372 -0.16049525 0.09995889 -0.42186525
0.4260377 -0.1982514 0.35826024 -0.54324436 -0.40895197 -0.40752566 -0.03223044 -0.3018003
-0.16579707 -0.6625243 0.30705863 0.6068453 0.37630785 -0.68987805 0.19177614 -0.37343478
0.8136389 -0.43602574 -1.0056012 -0.87037486 -0.63759476 0.08885602 -0.47332364 0.09718362
0.28078344 0.04149731 -0.48957166 0.6370138 -0.4601001 1.1405615 0.33634174 0.34411862
0.64153564 -0.6277101 0.16732211 -0.2585835 -0.113753505 -0.14096735 0.00059723714 0.6382435
-0.7280863 -0.2387668 0.19765383 -0.17399578 0.15523219 -0.68298024 -0.20755516 -0.012214205
0.04222972 0.1542062 0.41708222 0.29048595 0.15957025 -0.45215288 -0.6280159 -0.19661278
0.28982574 -0.24909376 -0.32438004 0.6913511 0.14820783 -0.4513593 -0.3036393 1.2196261
0.50954455 0.40859425 -0.2819394 0.14335562 0.11985693 0.057105172 0.7634771 -1.3317294
-0.098943055 -1.6135322 -0.35896945 -0.73013806 0.29466227 -0.16161495 0.2222509 -0.13798359
-0.10742882 0.88424736 0.46528852 0.72018504 -0.2069632 0.7578385 -0.41634864 0.5167236
0.19207586 -0.41755491 0.9167565 0.14995433 -0.08316136 0.054300234 0.049746044 -0.1436585
-0.5994917 -0.2594637 -0.05781698 -0.24664244 0.14228694 0.19347808 0.24065943 0.24384438
0.2354623 0.29157108 -0.28556705 0.3372528 0.28675938 0.16228314 0.19653985 0.1584233

lstm.bias_ih_l1 f4 [200]
00000000: 98a6 1ebf 17cf e9bd bd3a b93d 6255 99be
00000010: dde8 f3ba 9db9 88bf 5c96 25bf 7bc8 4cbf
00000020: 6575 04bf 24b7 6cbe 3f80 8abf 18b5 f4be
00000030: 7c26 f5be ad2e 5d3d a881 01bc 0241 21bf
00000040: f4d8 44be 5ba9 bbbe 3bd9 37bf a7cc e8be
00000050: 9e0a febb 308f 92be 5fc7 08bf 89c0 89bf
00000060: 8e0e a8be 61b5 babe 965d 15bf 6faa 71be
00000070: b99c 1abe 8763 37bf e820 0ebf 765f f9be
00000080: 4926 35be 5a5b 94bd 0764 46bf 9494 86be
00000090: 9494 80bd cdb5 e5be 2e52 d2be f75c 24bf
000000a0: c6e3 4ebe a0a6 e5be 214c 7a3f 2e94 d2bc
000000b0: 3576 03bf 4115 c6be 9a17 ca3e a75c 18be
000000c0: 4c0b d3be 0470 0dbe 9b5f 783e 06bf 32be
000000d0: dc83 59bf 8cf3 efbe 60b8 95be 73cd 1abf
000000e0: 22ce 62bf dbab 8dbe 9245 423e 308a 14bf
000000f0: 28c3 91be 2cbf 6abf 4b21 87be d3a6 14be
00000100: 9297 993e ee0d 9c3e c6aa 19bf 17e2 073f
00000110: c2a1 a0be 125c 07bf 41e4 213c 2ffe 1dbe
00000120: 2aba e33e b739 e9be 21b3 eebe e464 d83e
00000130: 544c 2f3e 700f db3e d54b 7bbe dc01 1dbf
00000140: fced bb3e 59bd 06bf eca7 9fbd f37e 8e3f
00000150: eb3d b6be fd41 33be 792a 41bd c93d f9be
00000160: 850e 08be a1d8 c1be f5c7 05bf 385e 5cbf
00000170: bbb2 263f aaa3 613f ba6f 07bf 1c59 383e
00000180: bf84 323f 1854 d2be 80be b2be c384 85be
00000190: ebcf 9fbe 8cad 8abe 584c 223e d8e1 ccbe
000001a0: a963 babe 017c e13d 9fb2 523e 3689 18bf
000001b0: f9b7 e33d d75a b23d b1d1 963e b410 883e
000001c0: 555a e6be 64df f33e 2011 c83e b726 30be
000001d0: 6c9b c83d 9134 fabd f658 35be 9761 ad3e
000001e0: de4e 083f 5ff9 3abc 4594 6e3e 7a0e 4a3e
000001f0: c11e ff3d f769 7cbe 06c2 5e3c 9615 683c
00000200: 1fab 20bd 94f6 db3e 07eb 5e3e 7c8d fbbd
00000210: 76d2 43be d148 f0be 4b28 023f d42f a1bd
00000220: 55c0 3b3e 1dca f4be 16a5 bfbe 3cb6 85be
00000230: dad1 2abe c947 253e 7764 f6be 5bc0 b73e
00000240: 97e6 f0bc f65e 0a3c 892b 593f cda0 413e
00000250: 894f 793e 9656 543d f716 bc3e fe7d b2bd
00000260: 494f a9be 3017 06be 1209 e3be 5929 a9be
00000270: cc4e 33bf 4bbe f7bd 0234 08bb 74fd e9be
00000280: 5cc1 41bc a078 babe c552 07be 3df4 f1bd
00000290: 3410 2c3f 3b84 c7be 9036 fbbe f347 d4bd
000002a0: f3e4 cabe 66ec 0ebf fe83 cebd f039 423b
000002b0: a78a 08bc f138 76be 1bd8 8cbd 6c88 a73d
000002c0: 54e8 023e b357 273e 27c2 c73e 13e6 0dbf
000002d0: a38e fcbe d2de d9be 1ad2 1d3f cdbc ca3e
000002e0: aa9e a7be 93c1 c3bd 9318 bb3b 8757 0b3e
000002f0: f5c8 09bf 71f6 17be 436d 11bf 8e58 27bf
00000300: be0f 553f a24c d63e 37e3 0dbf ad3d 11be
00000310: 702c 563f d731 e5be dd58 943e df3d 853d
-0.6197295 -0.114164524 0.090444066 -0.29947954 -0.0018608827 -1.0681645 -0.64682555 -0.7999341
-0.5174163 -0.23116738 -1.0820388 -0.47794414 -0.47880924 0.05399959 -0.007904448 -0.6298982
-0.19223386 -0.36652645 -0.7181584 -0.45468637 -0.0077527305 -0.28624868 -0.53429216 -1.0761882
-0.32823604 -0.36466506 -0.58345926 -0.23600172 -0.15098847 -0.7163624 -0.5551896 -0.48705643
-0.17690386 -0.072439864 -0.7749638 -0.2628523 -0.06278339 -0.44865265 -0.41078323 -0.64204353
-0.20204076 -0.44853687 0.97772413 -0.025705423 -0.51352245 -0.3868809 0.39471132 -0.14879094
-0.41219556 -0.13812262 0.2425522 -0.17455682 -0.84966826 -0.468655 -0.2924223 -0.6046974
-0.88595784 -0.27670178 0.18971851 -0.5802336 -0.28469205 -0.91697955 -0.26392588 -0.14516763
0.2999845 0.30479378 -0.60026205 0.5307936 -0.3137341 -0.52874863 0.00988108 -0.15428995
0.4447797 -0.45551845 -0.4662104 0.42264473 0.1711896 0.42785215 -0.24540646 -0.6133096
0.36705005 -0.5263267 -0.077957004 1.1132492 -0.35594115 -0.17505641 -0.047159646 -0.4867995
-0.13286789 -0.37860587 -0.52258235 -0.86081266 0.6511647 0.88140357 -0.52904856 0.18002743
0.69733804 -0.41079783 -0.34910965 -0.26077852 -0.31213316 -0.2708553 0.15849435 -0.40016055
-0.3640416 0.1100998 0.20575951 -0.5958437 0.111190744 0.087087326 0.29456857 0.26575243
-0.44990793 0.4763137 0.39075565 -0.17202269 0.09795269 -0.122170575 -0.17709717 0.33863518
0.5324534 -0.011411994 0.23298748 0.19732085 0.12457038 -0.24649797 0.0135960635 0.014165303
-0.039225694 0.42961562 0.21769343 -0.122828454 -0.19123253 -0.46930555 0.5084273 -0.078704506
0.18335088 -0.4781045 -0.37430638 -0.26115596 -0.16681615 0.16140665 -0.48123524 0.35888943
-0.029406829 0.008445492 0.84832054 0.18908997 0.24346747 0.051840387 0.3673627 -0.08715437
-0.33068302 -0.13094783 -0.44342858 -0.33039358 -0.7004211 -0.120968424 -0.0020782952 -0.45701182
-0.011825886 -0.36420155 -0.13215168 -0.11814163 0.67212224 -0.3896807 -0.49065065 -0.10365286
-0.396278 -0.55829465 -0.10083769 0.0029636584 -0.008333839 -0.24045159 -0.06877156 0.08180317
0.12783939 0.16342048 0.39015314 -0.5542919 -0.49327573 -0.4255281 0.61648715 0.3959717
-0.3273824 -0.09558406 0.0057097166 0.13607608 -0.5382226 -0.14840104 -0.56807345 -0.653695
0.83227146 0.4185534 -0.5542483 -0.14183684 0.83661556 -0.44764587 0.28974047 0.065059416

lstm.bias_hh_l1 f4 [200]
00000000: 98a6 1ebf 17cf e9bd bd3a b93d 6255 99be
00000010: dde8 f3ba 9db9 88bf 5c96 25bf 7bc8 4cbf
00000020: 6575 04bf 24b7 6cbe 3f80 8abf 18b5 f4be
00000030: 7c26 f5be ad2e 5d3d a881 01bc 0241 21bf
00000040: f4d8 44be 5ba9 bbbe 3bd9 37bf a7cc e8be
00000050: 9e0a febb 308f 92be 5fc7 08bf 89c0 89bf
00000060: 8e0e a8be 61b5 babe 965d 15bf 6faa 71be
00000070: b99c 1abe 8763 37bf e820 0ebf 765f f9be
00000080: 4926 35be 5a5b 94bd 0764 46bf 9494 86be
00000090: 9494 80bd cdb5 e5be 2e52 d2be f75c 24bf
000000a0: c6e3 4ebe a0a6 e5be 214c 7a3f 2e94 d2bc
000000b0: 3576 03bf 4115 c6be 9a17 ca3e a75c 18be
000000c0: 4c0b d3be 0470 0dbe 9b5f 783e 06bf 32be
000000d0: dc83 59bf 8cf3 efbe 60b8 95be 73cd 1abf
000000e0: 22ce 62bf dbab 8dbe 9245 423e 308a 14bf
000000f0: 28c3 91be 2cbf 6abf 4b21 87be d3a6 14be
00000100: 9297 993e ee0d 9c3e c6aa 19bf 17e2 073f
00000110: c2a1 a0be 125c 07bf 41e4 213c 2ffe 1dbe
00000120: 2aba e33e b739 e9be 21b3 eebe e464 d83e
00000130: 544c 2f3e 700f db3e d54b 7bbe dc01 1dbf
00000140: fced bb3e 59bd 06bf eca7 9fbd f37e 8e3f
00000150: eb3d b6be fd41 33be 792a 41bd c93d f9be
00000160: 850e 08be a1d8 c1be f5c7 05bf 385e 5cbf
00000170: bbb2 263f aaa3 613f ba6f 07bf 1c59 383e
00000180: bf84 323f 1854 d2be 80be b2be c384 85be
00000190: ebcf 9fbe 8cad 8abe 584c 223e d8e1 ccbe
000001a0: a963 babe 017c e13d 9fb2 523e 3689 18bf
000001b0: f9b7 e33d d75a b23d b1d1 963e b410 883e
000001c0: 555a e6be 64df f33e 2011 c83e b726 30be
000001d0: 6c9b c83d 9134 fabd f658 35be 9761 ad3e
000001e0: de4e 083f 5ff9 3abc 4594 6e3e 7a0e 4a3e
000001f0: c11e ff3d f769 7cbe 06c2 5e3c 9615 683c
00000200: 1fab 20bd 94f6 db3e 07eb 5e3e 7c8d fbbd
00000210: 76d2 43be d148 f0be 4b28 023f d42f a1bd
00000220: 55c0 3b3e 1dca f4be 16a5 bfbe 3cb6 85be
00000230: dad1 2abe c947 253e 7764 f6be 5bc0 b73e
00000240: 97e6 f0bc f65e 0a3c 892b 593f cda0 413e
00000250: 894f 793e 9656 543d f716 bc3e fe7d b2bd
00000260: 494f a9be 3017 06be 1209 e3be 5929 a9be
00000270: cc4e 33bf 4bbe f7bd 0234 08bb 74fd e9be
00000280: 5cc1 41bc a078 babe c552 07be 3df4 f1bd
00000290: 3410 2c3f 3b84 c7be 9036 fbbe f347 d4bd
000002a0: f3e4 cabe 66ec 0ebf fe83 cebd f039 423b
000002b0: a78a 08bc f138 76be 1bd8 8cbd 6c88 a73d
000002c0: 54e8 023e b357 273e 27c2 c73e 13e6 0dbf
000002d0: a38e fcbe d2de d9be 1ad2 1d3f cdbc ca3e
000002e0: aa9e a7be 93c1 c3bd 9318 bb3b 8757 0b3e
000002f0: f5c8 09bf 71f6 17be 436d 11bf 8e58 27bf
00000300: be0f 553f a24c d63e 37e3 0dbf ad3d 11be
00000310: 702c 563f d731 e5be dd58 943e df3d 853d
-0.6197295 -0.114164524 0.090444066 -0.29947954 -0.0018608827 -1.0681645 -0.64682555 -0.7999341
-0.5174163 -0.23116738 -1.0820388 -0.47794414 -0.47880924 0.05399959 -0.007904448 -0.6298982
-0.19223386 -0.36652645 -0.7181584 -0.45468637 -0.0077527305 -0.28624868 -0.53429216 -1.0761882
-0.32823604 -0.36466506 -0.58345926 -0.23600172 -0.15098847 -0.7163624 -0.5551896 -0.48705643
-0.17690386 -0.072439864 -0.7749638 -0.2628523 -0.06278339 -0.44865265 -0.41078323 -0.64204353
-0.20204076 -0.44853687 0.97772413 -0.025705423 -0.51352245 -0.3868809 0.39471132 -0.14879094
-0.41219556 -0.13812262 0.2425522 -0.17455682 -0.84966826 -0.468655 -0.2924223 -0.6046974
-0.88595784 -0.27670178 0.18971851 -0.5802336 -0.28469205 -0.91697955 -0.26392588 -0.14516763
0.2999845 0.30479378 -0.60026205 0.5307936 -0.3137341 -0.52874863 0.00988108 -0.15428995
0.4447797 -0.45551845 -0.4662104 0.42264473 0.1711896 0.42785215 -0.24540646 -0.6133096
0.36705005 -0.5263267 -0.077957004 1.1132492 -0.35594115 -0.17505641 -0.047159646 -0.4867995
-0.13286789 -0.37860587 -0.52258235 -0.86081266 0.6511647 0.88140357 -0.52904856 0.18002743
0.69733804 -0.41079783 -0.34910965 -0.26077852 -0.31213316 -0.2708553 0.15849435 -0.40016055
-0.3640416 0.1100998 0.20575951 -0.5958437 0.111190744 0.087087326 0.29456857 0.26575243
-0.44990793 0.4763137 0.39075565 -0.17202269 0.09795269 -0.122170575 -0.17709717 0.33863518
0.5324534 -0.011411994 0.23298748 0.19732085 0.12457038 -0.24649797 0.0135960635 0.014165303
-0.039225694 0.42961562 0.21769343 -0.122828454 -0.19123253 -0.46930555 0.5084273 -0.078704506
0.18335088 -0.4781045 -0.37430638 -0.26115596 -0.16681615 0.16140665 -0.48123524 0.35888943
-0.029406829 0.008445492 0.84832054 0.18908997 0.24346747 0.051840387 0.3673627 -0.08715437
-0.33068302 -0.13094783 -0.44342858 -0.33039358 -0.7004211 -0.120968424 -0.0020782952 -0.45701182
-0.011825886 -0.36420155 -0.13215168 -0.11814163 0.67212224 -0.3896807 -0.49065065 -0.10365286
-0.396278 -0.55829465 -0.10083769 0.0029636584 -0.008333839 -0.24045159 -0.06877156 0.08180317
0.12783939 0.16342048 0.39015314 -0.5542919 -0.49327573 -0.4255281 0.61648715 0.3959717
-0.3273824 -0.09558406 0.0057097166 0.13607608 -0.5382226 -0.14840104 -0.56807345 -0.653695
0.83227146 0.4185534 -0.5542483 -0.14183684 0.83661556 -0.44764587 0.28974047 0.065059416

layer_norm.weight f4 [50]
00000000: 1ae3 9f3e bb50 583f b0c7 153f a49a 263f
00000010: abfa 973e 071b 783f b218 453f 4f03 893f
00000020: 3072 dd3e acb5 6d3f d9c3 5f3f 88f9 743f
00000030: 367d 1b3f 1c71 113f deba 593e 3482 6a3f
00000040: 2ca7 ee3e 781d 0d3f 8a35 7d3f 7436 703f
00000050: c5b6 a63e 8bfe c53e 50c4 053f 0115 563f
00000060: 9bed 803e 6830 1538 b95d 0d3f 8977 8d3e
00000070: d03b 99bc 9c16 8a3f 2aec 543f b791 743f
00000080: 2ddc ac3b 9278 af3e fb3b 7f3f 3b9f a23e
00000090: 2428 0f3f 3c14 933e a0d1 173f 8f59 3e3f
000000a0: 6e7b 203f 4b50 543f c7cf 6c3e 1b6e 583e
000000b0: 5343 5e3f a47c 273f c485 493e 0812 653e
000000c0: 14b4 763e e7e7 5e3e
0.31227952 0.84498185 0.58507824 0.6507971 0.29683432 0.9691624 0.7699081 1.0704135
0.4325118 0.92855334 0.87408215 0.95693254 0.6073793 0.56813216 0.2126269 0.91604924
0.46611917 0.5512309 0.9890982 0.9383309 0.32561317 0.38670763 0.52252674 0.836258
0.2518128 3.556945e-05 0.55221134 0.2763026 -0.018705279 1.078815 0.8317286 0.95534843
0.0052752704 0.34271675 0.997009 0.31762108 0.55920625 0.28726375 0.5930424 0.74355406
0.6268834 0.8293502 0.23126136 0.21135752 0.8682148 0.6542456 0.19679934 0.2237016
0.24092132 0.21768151

layer_norm.bias f4 [50]
00000000: 3e9a b3bd cfc1 4a3d e6b9 53bd 933d ca3d
00000010: 4e32 293c e5d4 f33b 42f3 dc3c 9d4e 4a3d
00000020: bb61 41bd 481a 223d 6721 b13b 54f2 483d
00000030: a5c6 c13d 0981 a1be 8df3 9c3c e92d 603d
00000040: 87e1 4ebd 64da 053e 67e2 a73c 71f2 04bc
00000050: 0e0a 35bd 8619 3ebd 82d4 6cbc 35a8 2e3b
00000060: 1403 0b3c c1b5 ec37 cf1a 46bd bfee 9ebc
00000070: 2416 d7bc 6b0d 153d 5783 24be 85f8 9a3c
00000080: 6f76 22bd f5ab 933e 5dc3 853c c098 793d
00000090: 82be 06be 6670 a4bb b1ab 613c 42e0 3f3d
000000a0: 7d96 3fbd bd19 583b 94dc 213f 7bba 85be
000000b0: 6f73 143d 86af 43bc 6913 06bf 2446 c0bd
000000c0: fb6b dcbd c858 91bd
-0.08769654 0.049501237 -0.05169096 0.098750256 0.010326935 0.0074411505 0.026971463 0.049391378
-0.047212344 0.039575845 0.005405593 0.049059227 0.094617166 -0.3154376 0.019159103 0.054731283
-0.05050805 0.1307159 0.0204937 -0.008114443 -0.044199042 -0.04641106 -0.014454963 0.0026650552
0.008484621 2.8218028e-05 -0.04836541 -0.019400952 -0.026255675 0.03638975 -0.16065727 0.018917331
-0.03966373 0.2884213 0.016328508 0.06093669 -0.1315861 -0.0050182818 0.013773845 0.04684473
-0.046774376 0.0032974326 0.632272 -0.26118836 0.0362429 -0.0119437035 -0.5237337 -0.09388378
-0.10762783 -0.07097012

fc.weight f4 [3, 50]
00000000: 63f1 f0bd 7637 9a3d cd82 14bd 7838 093e
00000010: 47af abbe 0111 6c3e f4aa 383e ea51 5a3e
00000020: f54d d0bd 9c10 273e 4af6 463e a4b6 c23e
00000030: 0f65 533e b102 443e caf0 cc3d 3238 60be
00000040: b13e f2bd cb54 873c 61c9 853e 3c6e 803e
00000050: 970e 64bd 5686 41bd b4b9 963c f459 663d
00000060: 6f3d a9be 202a b93d 6085 98be 37a6 f5bd
00000070: 4a72 f53d ed85 753e ec36 28be 6892 7b3e
00000080: 7ccc 0abe efb6 3dbe efe4 e03d ccb7 183e
00000090: 1c4b 81be 1573 52be 6f4a 27be d12e df3d
000000a0: 4813 f9bd 09e2 8b3e 238d c4bb 9071 acbe
000000b0: 0852 133e 6862 46bd 6755 99be 0109 db3d
000000c0: 193a 6a3e 4212 623e 5312 9cbe 0232 15be
000000d0: 5f02 f93e fb4e 85be 40e1 d93f 72f4 cf3e
000000e0: 3ed8 e23e 2315 efbd 646d 38be c7c7 7ebe
000000f0: e645 b03e d89d b0bd eb93 f7bd 4424 5cbe
00000100: aa17 aebe 7810 493e 945a 393f 0259 d73e
00000110: 5112 843e 7b79 893e 40fa 16bf f044 e63e
00000120: 7e8c 913e b830 b43e 096d 1740 d322 b93d
00000130: 4884 85bd a501 8cbd 60ba 833d f6a0 8d3e
00000140: 7546 34be 3c58 42be 4875 f5bd bcd0 e23d
00000150: 1ca5 f03d dbba 92be 3180 3d3e 8a91 1640
00000160: 751c 983e 4aca 65be a22a 943f d3c7 923e
00000170: 1ce1 6ebe deaa 9fbe 13b1 903e 395c 6a3e
00000180: 4ede 58bc 05c9 ffbf 62e8 06c0 ff52 11c0
00000190: 183b 393e 7933 95be 21c7 21bd f0d4 36be
000001a0: d67b 9cbe 19e0 d5bd 82d7 37bd 3995 0fbe
000001b0: 7ae6 733e 2494 74be 7ff7 aebd 2ab6 2bbd
000001c0: 8ced dcbc 4119 843e 5918 873d 99a7 553e
000001d0: 83e7 a13d 5f70 533e 5ee3 30be ad15 1ebe
000001e0: a1f1 a1bc 57d3 4d3e ae08 e6bd a210 d8bd
000001f0: 5de7 a7be 1b0e b93d 05ad a23c 54b9 babd
00000200: f9b2 1a3e d660 3dbe d6db 343e 676d 64be
00000210: ce97 a4bd e4c2 fabd 605e 67be b88b 9b3e
00000220: 4f35 2b3d f302 43be e9b6 8abe c4b7 29be
00000230: af33 ddbc e2c1 06bd 0b10 313c 9c74 8ebe
00000240: e0d5 1cbe b0c1 553e 9ed5 95be a7d4 a43d
00000250: 2da4 463e fae6 4e3e
-0.11764791 0.075301096 -0.036257554 0.13400447 -0.33532164 0.23053361 0.18033963 0.2132031
-0.10171119 0.1631493 0.1942989 0.3802997 0.2064402 0.19141652 0.10006864 -0.21896437
-0.11828364 0.016519925 0.26130202 0.25084102 -0.055677976 -0.047247253 0.018399097 0.05623813
-0.33054683 0.09041238 -0.29789257 -0.119945936 0.119846895 0.2397687 -0.16427201 0.24567568
-0.13554567 -0.18526815 0.109811656 0.14913863 -0.25252616 -0.20551713 -0.16336988 0.108976014
-0.12161881 0.2732089 -0.00599827 -0.3368039 0.14386761 -0.04843369 -0.2994797 0.10695077
0.22873725 0.22077277 -0.3048273 -0.14569858 0.48634622 -0.2603682 1.7021866 0.40616184
0.44305605 -0.116739534 -0.18010479 -0.24880897 0.34428328 -0.08623856 -0.1208876 -0.21498209
-0.3400243 0.19635189 0.72403836 0.42060095 0.25795224 0.26850495 -0.589756 0.4497447
0.284275 0.3519342 2.36603 0.09039845 -0.06519371 -0.06836251 0.064320326 0.27661866
-0.17605002 -0.18978971 -0.1198526 0.11074969 0.11750242 -0.28658184 0.18505932 2.352633
0.2970921 -0.22440448 1.157551 0.2866808 -0.2332806 -0.3118505 0.28260097 0.22886743
-0.013236595 -1.9983221 -2.1079335 -2.2706907 0.18088949 -0.29140833 -0.039496545 -0.17854667
-0.3056323 -0.10443134 -0.04488326 -0.14021768 0.23818389 -0.23884636 -0.085433 -0.041921772
-0.02696874 0.25800517 0.06596441 0.20864715 0.079054855 0.20648335 -0.17274234 -0.15437956
-0.019768538 0.20100151 -0.11232124 -0.105500475 -0.32793704 0.090358935 0.019857893 -0.0911738
0.15107335 -0.18493971 0.17661986 -0.22307359 -0.08036767 -0.12244204 -0.22594595 0.30380034
0.041798886 -0.19044094 -0.27092674 -0.16574007 -0.027002184 -0.032899745 0.010807048 -0.2782334
-0.15315962 0.20874667 -0.2926454 0.08048373 0.19398566 0.20205298

fc.bias f4 [3]
00000000: 3a99 8bbd 7f6c 833e b42b 06be
-0.06816335 0.25668713 -0.13102609
