Pretrained/LSTM/lstm_horizon_100.pth (torch, 176861 bytes, 12 tensors)

lstm.weight_ih_l0 f4 [200, 62]
0.06947755 1.470106 0.025447663 1.3218876 0.07906529 1.7888145 0.13270397 0.34577757
0.067209005 1.1096832 0.011369186 -0.40356877 0.26131648 0.90546334 0.2421215 -0.59749883
0.20584027 0.041273326 0.111494705 -0.20327158 0.2595438 0.71767217 0.161472 -0.18358986
0.08244126 0.93376166 0.09297264 0.07945203 0.005225846 0.18860136 0.18036063 -0.030489126
0.14560924 0.6503908 0.14220329 -0.16304535 0.27137256 -0.057799157 0.21702637 0.4246739
0.19966546 0.20129803 0.17282008 1.4595469 1.0840844 -0.14244679 1.5218983 0.75341773
-0.081321105 0.21000355 0.21315458 0.25336844 0.15343855 -0.6139409 0.19042353 -0.03623832
0.011857794 0.023914691 -0.008003556 -0.2800634 -0.077942535 0.79594624 0.12556258 -0.15172113
0.15873545 -1.8845263 0.0074221287 0.9025396 -0.0094979415 0.26900685 0.16450147 0.2956374
-0.000101155616 -0.034920692 0.2023807 -0.6426743 0.27584013 0.2648583 0.01005714 0.02990151
0.10110751 0.44799724 0.20404536 0.6609328 0.07371089 0.17215183 0.13887523 -0.45827305
0.021340124 -0.2110422 0.06306453 1.2187912 0.19382918 -0.6536021 -0.012691346 1.1760045
0.0019215243 -0.64454955 0.12446742 1.1849765 -0.01115279 -1.1108935 0.0515895 0.19624382
-0.027698869 -0.045901652 -0.9636965 -0.04447056 -0.19779816 -1.0167063 -0.029355383 0.2980541
0.36114538 0.10488121 0.2734232 -0.061083883 0.2964715 -0.8832586 0.19591925 -0.27715558
0.07574918 0.5388958 -0.1507302 -0.13680612 -0.10893373 0.61175936 0.0358609 -0.6645345
-0.11273324 0.36170277 -0.01916438 -0.12868477 0.07456168 0.3196763 0.021664962 0.4113909
-0.10104892 -0.15935561 -0.12224037 -0.087764665 -0.16994628 -0.1648071 0.01964924 0.022654219
-0.09418331 -0.23218961 0.021418013 -0.1980212 -0.10837453 -0.09014984 -0.18054852 -0.027991215
0.058978707 -0.22157525 -0.16736166 -0.17511003 0.048069127 0.0015995698 -0.1464809 0.041979317
-0.18272866 0.24197254 -0.08706341 -0.48219845 -0.025611458 -0.16040094 0.06425233 0.43119395
-0.5490302 -0.0022133924 0.21632202 -0.5342573 0.03269454 0.5871502 0.43892384 0.4657041
0.5310391 -0.33314344 -0.12975802 0.041675813 0.01238969 -1.4938538 -0.29235807 -0.7355608
-0.2678708 -0.25562385 -0.3567383 -0.20938702 -0.14766957 0.20326014 -0.31887648 0.3304881
-0.05770733 -0.35342795 -0.2762308 0.24336788 -0.069521405 0.1214509 -0.24336335 0.47588104
-0.25995216 0.39836448 -0.3032932 -0.26544315 -0.10041993 0.5899294 -0.09286891 -0.05311627
-0.34178716 -0.21416552 -0.24460736 -0.43537605 -0.14673278 0.09490459 -0.28608856 0.46109426
-0.1506219 -0.1328893 -0.25065637 -0.08788115 -0.16047761 -0.4338783 -0.29447567 -0.12373182
-0.21789324 -0.57361376 -0.17144112 -0.26122263 0.11249801 -0.19140412 0.005879943 -0.100868694
0.034904867 -0.4099931 0.12516822 -0.20944865 0.046627197 0.02446055 0.105257824 0.1904567
-0.33258235 0.6067562 -0.117538944 0.92046475 -0.014298079 -0.3161748 0.028606681 -0.12082037
0.081412554 -0.6721548 -0.06813769 0.07815988 0.10637637 -0.5277472 -0.042630073 -0.3334739
00000000: 3f4a 8e3d 6f2c bc3f 9e77 d03c 9d33 a93f
00000010: fcec a13d e0f7 e43f 8de3 073e c209 b13e
00000020: e0a4 893d 190a 8e3f d345 3a3c 91a0 cebe
00000030: 46cb 853e 72cc 673f b3ee 773e aff5 18bf
00000040: cbc7 523e 380e 293d 5657 e43d 6d26 50be
00000050: ede2 843e 5db9 373f ea58 253e fbfe 3bbe
00000060: f7d6 a83d 010b 6f3f 7168 be3d bfb7 a23d
00000070: 933d ab3b b720 413e 75b0 383e 55c4 f9bc
00000080: 971a 153e 0380 263f bd9d 113e 5cf5 26be
00000090: 58f1 8a3e cfbe 6cbd 293c 5e3e db6e d93e
000000a0: 1a75 4c3e 1221 4e3e bff7 303e 6fd2 ba3f
000000b0: 47c3 8a3f 92dd 11be 90cd c23f fcdf 403f
000000c0: ae8b a6bd 2c0b 573e 3245 5a3e 82b9 813e
000000d0: ff1e 1d3e 3b2b 1dbf 63fe 423e a26e 14bd
000000e0: 3147 423c bee8 c33c 5921 03bc 7864 8fbe
000000f0: 56a0 9fbd 22c3 4b3f 7a93 003e c95c 1bbe
00000100: 8c8b 223e 2838 f1bf 5435 f33b d60c 673f
00000110: 419d 1bbc 44bb 893e 1373 283e c95d 973e
00000120: 8223 d4b8 0009 0fbd e33c 4f3e 4e86 24bf
00000130: eb3a 8d3e 829b 873e b4c6 243c 03f4 f43c
00000140: 7411 cf3d e55f e53e 44f1 503e e432 293f
00000150: bcf5 963d 9248 303e 4f35 0e3e c4a2 eabe
00000160: 7cd1 ae3c 721b 58be fa27 813d 5a01 9c3f
00000170: 287b 463e 7852 27bf 5def 4fbc 5187 963f
00000180: a8db fb3a 3301 25bf c6e8 fe3d 4fad 973f
00000190: 31ba 36bc c231 8ebf 834f 533d 24f4 483e
000001a0: bde8 e2bc 5f03 3cbd d0b4 76bf c326 36bd
000001b0: 9a8b 4abe 6f23 82bf b37a f0bc 8c9a 983e
000001c0: 0ce8 b83e f6cb d63d 20fe 8b3e 1833 7abd
000001d0: 1dcb 973e 3c1d 62bf 0e9f 483e 56e7 8dbe
000001e0: 6322 9b3d 13f5 093f 0459 1abe e716 0cbe
000001f0: a618 dfbd 439c 1c3f e1e2 123d ef1e 2abf
00000200: afe0 e6bd 1b31 b93e 9efe 9cbc f1c5 03be
00000210: cbb3 983d 9dac a33e b87a b13c d4a1 d23e
00000220: bcf2 cebd 1e2e 23be 2959 fabd f6bd b3bd
00000230: 6606 2ebe 31c3 28be 71f7 a03c 5795 b93c
00000240: 2ee3 c0bd 1dc3 6dbe d474 af3c 12c6 4abe
00000250: 77f3 ddbd 7ba0 b8bd b6e1 38be d54d e5bc
00000260: a893 713d 9fe4 62be db60 2bbe 0b50 33be
00000270: 22e4 443d a8a8 d13a 17ff 15be 81f2 2b3d
00000280: 391d 3bbe a6c7 773e 4d4e b2bd b7e2 f6be
00000290: 1fcf d1bc 2540 24be ba96 833d 74c5 dc3e
000002a0: 3e8d 0cbf 900e 11bb 8583 5d3e 16c5 08bf
000002b0: b6ea 053d 7a4f 163f a0ba e03e c570 ee3e
000002c0: 2ef2 073f c791 aabe 49df 04be 42b4 2a3d
000002d0: 20fe 4a3c 9a36 bfbf f5af 95be b64d 3cbf
000002e0: 5d26 89be 21e1 82be 67a6 b6be 8d69 56be
000002f0: b136 17be 6d23 503e c743 a3be bc35 a93e
00000300: 855e 6cbd 82f4 b4be 206e 8dbe 6e35 793e
00000310: 3d61 8ebd 40bb f83d 3e34 79be aea6 f33e
00000320: 7318 85be 6ef6 cb3e 3f49 9bbe 2ae8 87be
00000330: f7a8 cdbd 9d05 173f 0e32 bebd 7290 59bd
00000340: bafe aebe 354e 5bbe 5a7a 7abe 9ce9 debe
00000350: 1e41 16be 565d c23d 337a 92be 8c14 ec3e
00000360: a13c 1abe 2214 08be 0856 80be 08fb b3bd
00000370: 3e54 24be 4c25 debe 84c5 96be 1c67 fdbd
00000380: 681f 5fbe 5ad8 12bf 438e 2fbe f9be 85be
00000390: 5b65 e63d 71ff 43be 89ac c03b 3f94 cebd
000003a0: 68f8 0e3d 9eea d1be 192c 003e b579 56be
000003b0: 29fc 3e3d 7e61 c83c 6a91 d73d 1507 433e
000003c0: 3c48 aabe 6054 1b3f 42b8 f0bd 94a3 6b3f
000003d0: 7d42 6abc aae1 a1be 8f58 ea3c ac70 f7bd
000003e0: a0bb a63d 5612 2cbf c68b 8bbd 4a12 a03d
000003f0: dbdb d93d 711a 07bf df9c 2ebd 17bd aabe

lstm.weight_hh_l0 f4 [200, 50]
-0.65873706 0.4026519 0.25027013 0.58488643 -1.1292143 -0.24496129 -0.21904825 -0.20319496
0.7859906 -0.35555547 0.50957125 -1.034064 0.22323191 -0.4352994 0.59616166 -0.6805743
0.77148676 0.82890964 -0.15883479 0.29311967 -0.2164131 -0.42268965 0.38523224 -0.3253002
0.33749416 0.55184054 -1.073763 0.0794577 -0.10182165 0.0586428 -0.8181475 1.5968497
-0.15471157 -1.2485547 -0.24222577 0.51154405 0.610469 0.60418695 1.1848238 0.25996742
-0.16567527 -1.376966 0.034318104 0.15131249 0.49069425 -0.0011724377 0.06505235 0.113867894
1.0943819 -0.5613419 -0.2685051 0.067998126 0.23755533 -0.51773256 -0.17390598 0.055981673
-0.16108726 0.3883913 0.3179511 0.7553714 0.4107248 -0.2950687 -0.24725597 -0.15719332
0.3870348 -0.04418221 -0.027589707 0.5606288 0.2981475 -0.28863764 -0.5654767 0.0864088
-0.37525454 0.028864603 0.5974025 0.33305022 0.46360695 0.6509507 0.2226461 0.3112968
-0.9086835 0.45733002 0.11703074 0.14232029 0.03483637 -0.4946277 0.063274525 0.034771662
-0.15812774 0.68129224 -0.17428179 -0.94150156 -0.09813048 0.0045199054 0.85885376 -0.041764658
0.32326934 0.16230085 0.033806026 0.05761701 0.27738845 -0.56755507 -0.22916283 0.35298043
-0.05415402 0.09618891 -0.29810172 -0.65010566 -0.6281294 1.0717392 -0.1726471 0.24664421
-0.29548505 -0.2235521 0.40330184 -0.093746595 -0.20978679 -0.07688009 0.42762473 -0.088538036
-0.54029775 0.03830614 -0.79220146 0.19634026 0.11495265 0.3321969 -0.13586795 -0.26617217
0.20248751 -0.34354544 0.12258192 -0.18932776 -0.3600037 0.07893369 0.28839406 0.4079522
-0.2594807 -0.26195508 -0.35854948 -0.7016626 -0.38668972 0.3490068 -0.09128992 0.3728056
0.83145726 -0.21104187 0.042839132 0.20081511 0.6331257 -0.5257501 0.17611629 0.61828244
0.32270896 0.92669564 0.5107863 -0.22273184 -0.867523 0.03179098 -0.42779246 -0.94198316
-0.05206168 -0.37700406 0.16010757 -0.6992239 -0.22017957 -0.38722533 -0.17670664 -0.68341833
-0.046087638 0.6103879 -0.059173454 -0.74818116 0.6474721 0.0033854914 0.062638886 0.7957919
0.48219535 0.23460743 -0.21663092 -0.07466006 -0.61772424 0.59266216 -0.88090545 0.26329553
0.24229431 -0.30596992 0.2838303 0.29251152 0.13887526 0.08677663 0.8282993 -0.047895003
-0.80535644 -0.75192434 -1.192536 0.15822633 -0.19549312 1.2414634 0.262202 1.0425786
0.1923623 0.9763694 -0.74279416 0.23750602 -0.5856615 -0.15270156 -0.559667 -0.013949587
-0.037729647 0.20873263 -0.28093925 -0.0042295237 0.6826535 0.78407097 -0.43472946 -0.44513127
0.303122 0.12226775 -0.75478536 -1.5054706 0.37418312 -0.10421977 -0.45730036 0.17513756
-0.38060114 0.69557303 -0.65031236 -0.13333428 0.49218783 0.14755608 0.54441756 -0.59438246
1.8347597 -0.24632733 -0.72033 -0.6016496 -0.3162033 0.42627364 0.6175776 0.30872384
-1.7931663 0.42571548 -0.56468856 0.37223494 0.71591926 0.15054348 0.036298867 -1.6123189
-0.06986535 0.046324164 0.9041474 -0.5780362 0.026069785 -1.1585628 -0.7282565 0.32146043
00000000: fea2 28bf 6428 ce3e 6823 803e 1ebb 153f
00000010: 188a 90bf 22d7 7abe 2f4e 60be 5712 50be
00000020: ae36 493f 5e0b b6be 4373 023f 365c 84bf
00000030: e896 643e 90df debe 0d9e 183f 1e3a 2ebf
00000040: 2880 453f 6c33 543f 96a5 22be c813 963e
00000050: 659b 5dbe c76a d8be 293d c53e bf8d a6be
00000060: 09cc ac3e 6c45 0d3f 1171 89bf b8ba a23d
00000070: df87 d0bd 6f33 703d 1d72 51bf 9265 cc3f
00000080: b66c 1ebe a4d0 9fbf 080a 78be 8df4 023f
00000090: b247 1c3f ffab 1a3f 4ea8 973f 731a 853e
000000a0: c7a6 29be 6c40 b0bf 2491 0c3d a9f1 1a3e
000000b0: 473c fb3e 7bac 99ba 2b3a 853d 9233 e93d
000000c0: b514 8c3f 1ab4 0fbf 8079 89be 9a42 8b3d
000000d0: b441 733e 1f8a 04bf 6914 32be 0a4d 653d
000000e0: 0ff4 24be 39db c63e 7dca a23e 0560 413f
000000f0: 854a d23e 3f13 97be ab30 7dbe 49f7 20be
00000100: 6d29 c63e 68f8 34bd cf03 e2bc 5e85 0f3f
00000110: caa6 983e 50c8 93be 15c3 10bf 19f7 b03d
00000120: 5d21 c0be 7675 ec3c 5fef 183f 8f85 aa3e
00000130: e45d ed3e b4a4 263f 57fd 633e 4b62 9f3e
00000140: 7b9f 68bf 2927 ea3e d0ad ef3d 69bc 113e
00000150: 95b0 0e3d d83f fdbe 1396 813d bb6c 0e3d
00000160: 3dec 21be 2b69 2e3f ed76 32be 3f06 71bf
00000170: a2f8 c8bd b71b 943b d7dd 5b3f 6b11 2bbd
00000180: 8f83 a53e 3232 263e 3078 0a3d d0ff 6b3d
00000190: dc05 8e3e 4a4b 11bf a9a9 6abe dab9 b43e
000001a0: 9bd0 5dbd b1fe c43d caa0 98be 536d 26bf
000001b0: 17cd 20bf c02e 893f 67ca 30be 4d90 7c3e
000001c0: d149 97be d7ea 64be 947d ce3e 37fe bfbd
000001d0: 59d2 56be 4f73 9dbd a1f1 da3e 6e53 b5bd
000001e0: f450 0abf e6e6 1c3d b7cd 4abf 6c0d 493e
000001f0: 4c6c eb3d b615 aa3e f820 0bbe b847 88be
00000200: e358 4f3e 30e5 afbe 3b0c fb3d 23df 41be
00000210: 6852 b8be fda7 a13d 63a8 933e 1cdf d03e
00000220: a8da 84be fa1e 86be cc93 b7be 29a0 33bf
00000230: 32fc c5be 05b1 b23e 36f6 babd 60e0 be3e
00000240: 62da 543f 5c1b 58be 1678 2f3d 7aa2 4d3e
00000250: 8714 223f 8f97 06bf d457 343e c247 1e3f
00000260: 1c3a a53e ed3b 6d3f e4c2 023f d113 64be
00000270: fd15 5ebf 4237 023d 9d07 dbbe cf25 71bf
00000280: a13e 55bd ad06 c1be 3df3 233e 5600 33bf
00000290: c176 61be 6642 c6be 96f2 34be 81f4 2ebf
000002a0: 64c6 3cbd 6242 1c3f dd5f 72bd cd88 3fbf
000002b0: bbc0 253f 1fdf 5d3b d148 803d 05b9 4b3f
000002c0: 4fe2 f63e ee3c 703e 7fd4 5dbe 60e7 98bd
000002d0: 2d23 1ebf b5b8 173f 0583 61bf acce 863e
000002e0: 001c 783e 17a8 9cbe 3552 913e 12c4 953e
000002f0: 5135 0e3e f2b7 b13d 6c0b 543f 8d2d 44bd
00000300: d72b 4ebf 1d7e 40bf 05a5 98bf 1506 223e
00000310: 592f 48be 46e8 9e3f 573f 863e 3773 853f
00000320: 9ffa 443e 58f3 793f c227 3ebf c734 733e
00000330: e9ed 15bf cc5d 1cbe 5646 0fbf cf8c 64bc
00000340: 678a 1abd 02be 553e 45d7 8fbe d197 8abb
00000350: 61c2 2e3f e0b8 483f dc94 debe 3fe8 e3be
00000360: cf32 9b3e 8467 fa3d 9d39 41bf 43b3 c0bf
00000370: ee94 bf3e 2d71 d5bd 4623 eabe 4357 333e
00000380: 27de c2be 1311 323f df7a 26bf c888 08be
00000390: 0b00 fc3e f118 173e f35e 0b3f 7329 18bf
000003a0: 68d9 ea3f 3b3d 7cbe 8c67 38bf b505 1abf
000003b0: 66e5 a1be 8a40 da3e 9119 1e3f 0d11 9e3e
000003c0: 7986 e5bf 61f7 d93e 6e8f 10bf 9495 be3e
000003d0: 7c46 373f 1228 1a3e 1fae 143d 7760 cebf
000003e0: 9115 8fbd 68be 3d3d 3476 673f 2efa 13bf
000003f0: 4d90 d53c c94b 94bf 056f 3abf 7696 a43e

lstm.bias_ih_l0 f4 [200]
0.42963645 -0.10518665 -0.16961217 -0.12281601 0.75993323 0.12451688 0.12735762 -0.2916342
0.89162093 0.29222313 -0.79042614 -0.51621616 -0.38170564 -0.25112912 0.18054794 0.12081526
0.19376667 -0.4414917 -0.0077406336 -0.60949177 -0.8653604 0.21445292 -0.28595263 0.33910403
-0.5106417 -0.13957717 -0.6812202 0.631364 -0.17435098 -0.05260831 -0.4456566 0.89650905
0.07328657 0.46371457 -0.22503845 0.23553577 -0.22489919 -0.24560462 0.25573397 -0.32629177
-0.7210452 -0.21573943 -0.1782085 -0.42685863 -0.44265223 -0.3562264 -0.06272912 -0.24172464
-0.09426781 -0.32883814 0.8282813 0.058797006 -0.24124287 -0.59189546 -0.6794348 -0.26917854
-0.2927207 -0.6993276 -1.0875263 -0.67052484 -1.0520577 -0.17684494 -0.5901039 0.77105284
-0.32685778 0.0042729313 -1.137484 -0.52851135 -0.33736923 0.8333534 -0.05892116 -0.79677254
-0.8625228 -0.1901982 -0.031637467 -0.15048517 -1.820597 -0.21265088 -0.637808 -1.0740032
-0.19753703 -0.17662485 0.26929015 -0.1466274 -0.519119 0.11930294 -1.1273115 0.29117218
-0.42712748 -0.042310342 -0.5943908 -0.6817422 -0.21972321 -0.3631143 -0.67669994 -0.86614305
-0.6122967 0.84256494 0.5468506 -1.1996883 0.4165871 -0.37930188 -0.5097873 -0.5021732
0.8307116 -0.068754084 0.06810059 -0.39596328 -0.38639772 0.3207264 0.062057767 0.46474007
0.14358272 1.0174967 0.44225976 -0.35241675 -0.22473103 -0.24368288 0.39210147 -0.62692475
-0.2518226 0.14771535 0.18623069 0.48045468 -0.10339256 0.015298608 0.9390649 0.37801257
0.13300526 -0.45549065 -0.14277159 -0.6532755 -0.18699487 0.17035548 -0.9584921 -0.20902908
-0.40071025 0.19044597 -0.7779921 -0.4902357 0.29526746 0.29974425 -0.37741083 -0.295942
-0.8742157 -0.17529334 0.3741184 -0.4352975 -1.2753589 0.85606724 0.34123844 -0.4358246
-0.3091184 -0.24788834 0.64474523 0.08785395 0.19709907 -0.63418436 0.8473961 0.39193225
-0.8856095 0.08795531 -0.20990545 1.1296928 -0.32403663 0.16954777 0.24576046 0.08083032
-0.97649807 0.7839115 -1.1775879 0.35208824 -0.19438224 -0.6916787 -0.058174647 0.7518263
-0.20685734 -0.067156486 -0.12385912 -0.14378639 -0.32580596 0.197892 0.24193738 -0.13829859
-0.25378758 0.3789158 -0.54124975 -0.4127459 -0.05228219 -0.028977718 -0.18950015 -0.40440112
-0.27563336 -0.3601568 -0.6218042 -0.32064474 -0.30887762 0.8996761 0.26852715 -0.018076887
00000000: 4ff9 db3e 196c d7bd d0ae 2dbe f686 fbbd
00000010: fc8a 423f b502 ff3d 096a 023e 1451 95be
00000020: 4541 643f 459e 953e 5e59 4abf be26 04bf
00000030: ec6e c3be ff93 80be 8fe1 383e fe6d f73d
00000040: c56a 463e 330b e2be 24a5 fdbb a707 1cbf
00000050: 4288 5dbf 8c99 5b3e 6268 92be 0b9f ad3e
00000060: 6ab9 02bf 51ed 0ebe 7264 2ebf 12a1 213f
00000070: 1089 32be d07b 57bd 1a2d e4be 9e81 653f
00000080: 4517 963d ff6b ed3e 7b70 66be 4a30 713e
00000090: f94b 66be c77f 7bbe 90ef 823e b70f a7be
000000a0: 6b96 38bf ccea 5cbe 4a7c 36be 378d dabe
000000b0: 50a3 e2be 4f63 b6be 2078 80bd aa86 77be
000000c0: 7b0f c1bd 795d a8be 3e0a 543f 21d5 703d
000000d0: 5f08 77be 7686 17bf 70ef 2dbf c5d1 89be
000000e0: 7ddf 95be 2207 33bf 1034 8bbf 84a7 2bbf
000000f0: d4a9 86bf d716 35be 0d11 17bf b863 453f
00000100: e759 a7be f203 8c3b 1399 91bf 854c 07bf
00000110: a9bb acbe a656 553f 5057 71bd 49f9 4bbf
00000120: 4bce 5cbf 51c3 42be 4a96 01bd c918 1abe
00000130: 5309 e9bf 27c1 59be 6347 23bf f078 89bf
00000140: 2647 4abe 25dd 34be 66e0 893e 7e25 16be
00000150: fce4 04bf 1a55 f43d be4b 90bf 8514 953e
00000160: 74b0 dabe 9c4d 2dbd ff29 18bf a886 2ebf
00000170: 1fff 60be 1eea b9be 353c 2dbf 8dbb 5dbf
00000180: 7abf 1cbf 56b2 573f 67fe 0b3f 638f 99bf
00000190: e84a d53e db33 c2be 6c81 02bf 6c8e 00bf
000001a0: 84a9 543f f1ce 8cbd 5278 8b3d b3bb cabe
000001b0: ecd5 c5be 4036 a43e 4930 7e3d 69f2 ed3e
000001c0: 5907 133e 553d 823f df6f e23e f86f b4be
000001d0: e41f 66be 0188 79be 86c1 c83e 247e 20bf
000001e0: e4ee 80be b142 173e 42b3 3e3e 28fe f53e
000001f0: 7abf d3bd 03a7 7a3c 8f66 703f dd8a c13e
00000200: 8832 083e 1236 e9be b732 12be 103d 27bf
00000210: 957b 3fbe ab71 2e3e bd5f 75bf b80b 56be
00000220: e529 cdbe 4504 433e 7e2a 47bf 2c00 fbbe
00000230: 4c2d 973e 1478 993e fe3b c1be b685 97be
00000240: 9acc 5fbf 1980 33be 728c bf3e 50df debe
00000250: f63e a3bf 3927 5b3f ceb6 ae3e 6724 dfbe
00000260: c444 9ebe 71d6 7dbe 060e 253f c6ec b33d
00000270: 57d4 493e e859 22bf f3ee 583f 58ab c83e
00000280: 4eb7 62bf ea21 b43d 74f1 56be c699 903f
00000290: 21e8 a5be ee9d 2d3e a1a8 7b3e 5e8a a53d
000002a0: c7fb 79bf 6dae 483f 33bb 96bf e944 b43e
000002b0: 230c 47be db11 31bf 8a48 6ebd b077 403f
000002c0: 69d2 53be 5789 89bd daa9 fdbd bd3c 13be
000002d0: 0ad0 a6be 33a4 4a3e 6fbe 773e 259e 0dbe
000002e0: 72f0 81be 4001 c23e 588f 0abf 6e53 d3be
000002f0: da25 56bd ae62 edbc 540c 42be aa0d cfbe
00000300: d11f 8dbe 7966 b8be 8f2e 1fbf 8c2b a4be
00000310: 3525 9ebe 2c51 663f 647c 893e fb15 94bc

lstm.bias_hh_l0 f4 [200]
0.42963645 -0.10518665 -0.16961217 -0.12281601 0.75993323 0.12451688 0.12735762 -0.2916342
0.89162093 0.29222313 -0.79042614 -0.51621616 -0.38170564 -0.25112912 0.18054794 0.12081526
0.19376667 -0.4414917 -0.0077406336 -0.60949177 -0.8653604 0.21445292 -0.28595263 0.33910403
-0.5106417 -0.13957717 -0.6812202 0.631364 -0.17435098 -0.05260831 -0.4456566 0.89650905
0.07328657 0.46371457 -0.22503845 0.23553577 -0.22489919 -0.24560462 0.25573397 -0.32629177
-0.7210452 -0.21573943 -0.1782085 -0.42685863 -0.44265223 -0.3562264 -0.06272912 -0.24172464
-0.09426781 -0.32883814 0.8282813 0.058797006 -0.24124287 -0.59189546 -0.6794348 -0.26917854
-0.2927207 -0.6993276 -1.0875263 -0.67052484 -1.0520577 -0.17684494 -0.5901039 0.77105284
-0.32685778 0.0042729313 -1.137484 -0.52851135 -0.33736923 0.8333534 -0.05892116 -0.79677254
-0.8625228 -0.1901982 -0.031637467 -0.15048517 -1.820597 -0.21265088 -0.637808 -1.0740032
-0.19753703 -0.17662485 0.26929015 -0.1466274 -0.519119 0.11930294 -1.1273115 0.29117218
-0.42712748 -0.042310342 -0.5943908 -0.6817422 -0.21972321 -0.3631143 -0.67669994 -0.86614305
-0.6122967 0.84256494 0.5468506 -1.1996883 0.4165871 -0.37930188 -0.5097873 -0.5021732
0.8307116 -0.068754084 0.06810059 -0.39596328 -0.38639772 0.3207264 0.062057767 0.46474007
0.14358272 1.0174967 0.44225976 -0.35241675 -0.22473103 -0.24368288 0.39210147 -0.62692475
-0.2518226 0.14771535 0.18623069 0.48045468 -0.10339256 0.015298608 0.9390649 0.37801257
0.13300526 -0.45549065 -0.14277159 -0.6532755 -0.18699487 0.17035548 -0.9584921 -0.20902908
-0.40071025 0.19044597 -0.7779921 -0.4902357 0.29526746 0.29974425 -0.37741083 -0.295942
-0.8742157 -0.17529334 0.3741184 -0.4352975 -1.2753589 0.85606724 0.34123844 -0.4358246
-0.3091184 -0.24788834 0.64474523 0.08785395 0.19709907 -0.63418436 0.8473961 0.39193225
-0.8856095 0.08795531 -0.20990545 1.1296928 -0.32403663 0.16954777 0.24576046 0.08083032
-0.97649807 0.7839115 -1.1775879 0.35208824 -0.19438224 -0.6916787 -0.058174647 0.7518263
-0.20685734 -0.067156486 -0.12385912 -0.14378639 -0.32580596 0.197892 0.24193738 -0.13829859
-0.25378758 0.3789158 -0.54124975 -0.4127459 -0.05228219 -0.028977718 -0.18950015 -0.40440112
-0.27563336 -0.3601568 -0.6218042 -0.32064474 -0.30887762 0.8996761 0.26852715 -0.018076887
00000000: 4ff9 db3e 196c d7bd d0ae 2dbe f686 fbbd
00000010: fc8a 423f b502 ff3d 096a 023e 1451 95be
00000020: 4541 643f 459e 953e 5e59 4abf be26 04bf
00000030: ec6e c3be ff93 80be 8fe1 383e fe6d f73d
00000040: c56a 463e 330b e2be 24a5 fdbb a707 1cbf
00000050: 4288 5dbf 8c99 5b3e 6268 92be 0b9f ad3e
00000060: 6ab9 02bf 51ed 0ebe 7264 2ebf 12a1 213f
00000070: 1089 32be d07b 57bd 1a2d e4be 9e81 653f
00000080: 4517 963d ff6b ed3e 7b70 66be 4a30 713e
00000090: f94b 66be c77f 7bbe 90ef 823e b70f a7be
000000a0: 6b96 38bf ccea 5cbe 4a7c 36be 378d dabe
000000b0: 50a3 e2be 4f63 b6be 2078 80bd aa86 77be
000000c0: 7b0f c1bd 795d a8be 3e0a 543f 21d5 703d
000000d0: 5f08 77be 7686 17bf 70ef 2dbf c5d1 89be
000000e0: 7ddf 95be 2207 33bf 1034 8bbf 84a7 2bbf
000000f0: d4a9 86bf d716 35be 0d11 17bf b863 453f
00000100: e759 a7be f203 8c3b 1399 91bf 854c 07bf
00000110: a9bb acbe a656 553f 5057 71bd 49f9 4bbf
00000120: 4bce 5cbf 51c3 42be 4a96 01bd c918 1abe
00000130: 5309 e9bf 27c1 59be 6347 23bf f078 89bf
00000140: 2647 4abe 25dd 34be 66e0 893e 7e25 16be
00000150: fce4 04bf 1a55 f43d be4b 90bf 8514 953e
00000160: 74b0 dabe 9c4d 2dbd ff29 18bf a886 2ebf
00000170: 1fff 60be 1eea b9be 353c 2dbf 8dbb 5dbf
00000180: 7abf 1cbf 56b2 573f 67fe 0b3f 638f 99bf
00000190: e84a d53e db33 c2be 6c81 02bf 6c8e 00bf
000001a0: 84a9 543f f1ce 8cbd 5278 8b3d b3bb cabe
000001b0: ecd5 c5be 4036 a43e 4930 7e3d 69f2 ed3e
000001c0: 5907 133e 553d 823f df6f e23e f86f b4be
000001d0: e41f 66be 0188 79be 86c1 c83e 247e 20bf
000001e0: e4ee 80be b142 173e 42b3 3e3e 28fe f53e
000001f0: 7abf d3bd 03a7 7a3c 8f66 703f dd8a c13e
00000200: 8832 083e 1236 e9be b732 12be 103d 27bf
00000210: 957b 3fbe ab71 2e3e bd5f 75bf b80b 56be
00000220: e529 cdbe 4504 433e 7e2a 47bf 2c00 fbbe
00000230: 4c2d 973e 1478 993e fe3b c1be b685 97be
00000240: 9acc 5fbf 1980 33be 728c bf3e 50df debe
00000250: f63e a3bf 3927 5b3f ceb6 ae3e 6724 dfbe
00000260: c444 9ebe 71d6 7dbe 060e 253f c6ec b33d
00000270: 57d4 493e e859 22bf f3ee 583f 58ab c83e
00000280: 4eb7 62bf ea21 b43d 74f1 56be c699 903f
00000290: 21e8 a5be ee9d 2d3e a1a8 7b3e 5e8a a53d
000002a0: c7fb 79bf 6dae 483f 33bb 96bf e944 b43e
000002b0: 230c 47be db11 31bf 8a48 6ebd b077 403f
000002c0: 69d2 53be 5789 89bd daa9 fdbd bd3c 13be
000002d0: 0ad0 a6be 33a4 4a3e 6fbe 773e 259e 0dbe
000002e0: 72f0 81be 4001 c23e 588f 0abf 6e53 d3be
000002f0: da25 56bd ae62 edbc 540c 42be aa0d cfbe
00000300: d11f 8dbe 7966 b8be 8f2e 1fbf 8c2b a4be
00000310: 3525 9ebe 2c51 663f 647c 893e fb15 94bc

lstm.weight_ih_l1 f4 [200, 50]
-0.2193155 -0.5187423 0.19482507 -0.76430494 -0.61913717 -0.2148706 0.50848776 -0.55964935
-0.025697552 -0.6669243 -0.28828123 0.27746025 -0.05069246 -0.49441463 0.31883794 -0.5521976
0.31024724 0.9936917 0.6831181 0.04946956 0.28310895 0.19862096 0.6891641 -0.64058965
-0.13680212 -0.6995318 -0.5987526 0.66683155 -1.072247 -0.61169714 0.7151336 0.79250306
0.28230253 0.36364347 -0.5712705 0.021890119 -0.41497073 -0.04283868 0.23733766 0.42229137
0.031669416 -0.91978276 0.77224725 -1.2386805 -0.7720381 -0.719572 0.059406042 0.029520957
0.48907968 0.32350853 -0.30673453 -0.0049908515 -0.13573898 -0.34885803 -0.5342669 -0.48012522
0.052801143 -0.6978088 0.13127565 -0.7855312 -0.19168288 -0.059518 0.09376609 -0.57098883
0.35204998 -0.4565471 0.39589116 0.701998 0.69454676 0.23083884 0.046559718 0.0829956
1.1044924 -0.43748537 -0.4228599 -0.6300666 -0.6438309 0.6695919 -0.7604226 -0.27646253
0.41419125 0.4124193 0.15703066 -0.049881294 -0.4140291 0.010138744 -0.3517708 -0.0056909868
0.417665 0.5470888 0.076285586 -1.0592583 0.57218736 -0.9649141 -0.964832 -0.66729146
-0.24921927 0.16071951 0.4426402 0.19805221 0.088564605 -0.0042116665 -0.021888426 0.2570275
-0.9728285 -0.050484978 0.07688086 0.49160755 1.194174 -0.64750713 0.17376408 -1.1205236
0.27703315 -0.25954068 -0.12511422 0.15007566 1.0670301 0.7629406 -0.51352274 -0.27608642
0.09646801 0.56465006 0.27340385 -0.30554506 -0.09265079 0.37962368 -0.55881727 -0.20952427
-0.50452256 -0.25534254 -0.0033023052 0.03426797 0.27008885 -0.078338906 -0.068989724 0.23272961
0.3572813 -0.29793954 0.43529674 0.89096785 -0.5827784 -0.27101064 -0.09838162 0.095310755
0.2077261 0.22930458 0.8007904 -0.15638396 1.7700342 -0.44706878 0.41141313 -0.61200076
0.2721344 0.14100704 0.48430175 0.6299022 0.011057575 0.6307918 0.26408276 -1.9363337
-0.10604273 -0.22758098 -0.47316018 0.14825186 -0.26832715 0.23263049 -0.43442404 -1.2953736
-0.04137143 -0.18048179 0.67916214 0.36211494 0.096953936 0.10710401 0.5237228 0.3958819
1.046045 -0.37553883 -0.6048752 0.357149 0.50697875 0.21054049 -0.014085183 0.53855103
0.7301668 -0.24467778 0.5907643 0.2517442 -0.36091682 0.046080668 0.28059474 0.041075114
-0.0050662057 0.33338746 -0.5385559 -0.24305776 0.5408365 0.15576863 -1.0508572 1.3900533
1.8157825 0.02444291 0.7499507 -0.61002314 0.29785508 0.8684089 0.34073585 0.69943833
-0.36895 -0.68707955 -0.28056002 -0.6436706 -0.0019159113 -0.43962228 -0.18465528 0.8736832
0.26893568 -0.14872523 -0.3038197 0.30529076 0.16787586 -0.8545396 0.73291785 0.1999405
1.0319761 -0.4336494 0.57821673 -1.2570366 0.3365425 0.69257194 -0.74454415 -0.038415555
-0.16233645 -0.2537408 1.1261096 -0.59861755 0.25695485 0.30982113 0.049215678 0.30823553
0.033794764 0.6996305 -0.76599497 -0.12757044 -0.07612477 1.1146213 0.6687886 0.5503781
0.034048434 0.39016086 0.6675974 1.0516875 -0.38543975 0.2079626 0.12575799 -0.33973476
00000000: 3e94 60be 4ccc 04bf 3980 473e 7da9 43bf
00000010: c67f 1ebf 0a07 5cbe 412c 023f 2e45 0fbf
00000020: ac83 d2bc 8dbb 2abf 9999 93be 450f 8e3e
00000030: e6a2 4fbd ea23 fdbe ba3e a33e d25c 0dbf
00000040: bad8 9e3e 9462 7e3f d4e0 2e3f 98a0 4a3d
00000050: a8f3 903e 4b63 4b3e 0f6d 303f affd 23bf
00000060: db15 0cbe 8414 33bf da47 19bf 79b5 2a3f
00000070: 643f 89bf 2f98 1cbf ff12 373f 7be1 4a3f
00000080: f589 903e 7a2f ba3e c93e 12bf e852 b33c
00000090: 0b77 d4be 9d77 2fbd a508 733e 9336 d83e
000000a0: cab7 013d e276 6bbf ffb1 453f 158d 9ebf
000000b0: 4aa4 45bf df35 38bf c053 733d efd5 f13c
000000c0: a768 fa3e e9a2 a53e 4f0c 9dbe 4c8a a3bb
000000d0: 29ff 0abe 859d b2be b7c5 08bf f9d2 f5be
000000e0: 0346 583d 99a3 32bf 206d 063e 9318 49bf
000000f0: 8448 44be 25c9 73bd 7008 c03d 532c 12bf
00000100: e53f b43e 8bc0 e9be 3fb2 ca3e 24b6 333f
00000110: d1cd 313f 0461 6c3e 67b5 3e3d 99f9 a93d
00000120: 0260 8d3f 15fe dfbe 1881 d8be 0b4c 21bf
00000130: 1ad2 24bf 606a 2b3f 0eab 42bf 7f8c 8dbe
00000140: e010 d43e 9f28 d33e a5cc 203e 5450 4cbd
00000150: 9ffb d3be f91c 263c 4d1b b4be 757b babb
00000160: 30d8 d53e 030e 0c3f 9e3b 9c3d c795 87bf
00000170: df7a 123f 9c04 77bf 3bff 76bf 9dd3 2abf
00000180: 5633 7fbe a893 243e bca1 e23e 33ce 4a3e
00000190: 5c61 b53d 0502 8abb 5b4f b3bc 1c99 833e
000001a0: 4a0b 79bf 56c9 4ebd b673 9d3d fcb3 fb3e
000001b0: b2da 983f 07c3 25bf 36ef 313e 516d 8fbf
000001c0: 4ad7 8d3e 84e2 84be f11d 00be 6fad 193e
000001d0: 7194 883f 1350 433f 3a76 03bf 335b 8dbe
000001e0: 0591 c53d e88c 103f 97fb 8b3e 6770 9cbe
000001f0: b3bf bdbd 095e c23e a60e 0fbf 888d 56be
00000200: 6428 01bf 42bc 82be 7d6b 58bb 925c 0c3d
00000210: 1649 8a3e 2670 a0bd 7c4a 8dbd ac50 6e3e
00000220: 93ed b63e 888b 98be 37df de3e 7816 643f
00000230: f730 15bf e8c1 8abe 4e7c c9bd 4932 c33d
00000240: 27b6 543e d2ce 6a3e 9a00 4d3f 1e23 20be
00000250: 7b90 e23f 33e6 e4be bea4 d23e 15ac 1cbf
00000260: 3355 8b3e 2664 103e 66f6 f73e 4541 213f
00000270: d52a 353c 927b 213f db35 873e c8d9 f7bf
00000280: ee2c d9bd fd0a 69be 0d42 f2be 56cf 173e
00000290: 2d62 89be b036 6e3e d46c debe cdce a5bf
000002a0: 1775 29bd 38d0 38be 92dd 2d3f 2167 b93e
000002b0: c98f c63d 5959 db3d b312 063f 08b1 ca3e
000002c0: cde4 853f a046 c0be 1ad9 1abf 3cdc b63e
000002d0: 5cc9 013f ed97 573e 8ac5 66bc 7bde 093f
000002e0: 36ec 3a3f d08c 7abe 543c 173f 9ee4 803e
000002f0: 17ca b8be 15bf 3c3d 1daa 8f3e 613e 283d
00000300: 6a02 a6bb c3b1 aa3e cdde 09bf 22e4 78be
00000310: 4374 0a3f d081 1f3e 7d82 86bf 44ed b13f
00000320: 906b e83f 7f3c c83c c5fc 3f3f 7a2a 1cbf
00000330: 7680 983e 0c50 5e3f ee74 ae3e 640e 333f
00000340: 04e7 bcbe 72e4 2fbf 90a5 8fbe 99c7 24bf
00000350: 511f fbba 2c16 e1be 4616 3dbe b4a9 5f3f
00000360: f0b1 893e 6d4b 18be 418e 9bbe 124f 9c3e
00000370: a6e7 2b3e 1bc3 5abf 81a0 3b3f 34bd 4c3e
00000380: cb17 843f 4b07 debe 0306 143f 93e6 a0bf
00000390: 4c4f ac3e 654c 313f 729a 3ebf a159 1dbd
000003a0: 873b 26be 50ea 81be 5c24 903f 003f 19bf
000003b0: 968f 833e e0a0 9e3e 6196 493d 0cd1 9d3e
000003c0: 616c 0a3d fc1a 333f 3f18 44bf d3a1 02be
000003d0: 4ee7 9bbd e9ab 8e3f bb35 2b3f 94e5 0c3f
000003e0: 5f76 0b3d 2ac3 c73e aae7 2a3f b29d 863f
000003f0: 5c58 c5be 26f4 543e b4c6 003e b7f1 adbe

lstm.weight_hh_l1 f4 [200, 50]
-0.14771318 -0.07882816 0.13203467 -0.49271798 1.0993152 -0.38373926 -0.3727098 -0.2625491
0.17326605 -0.062335912 -0.043118082 -1.8457558 0.44462967 0.3923568 -0.75791276 0.48115104
0.70069695 -0.22222483 -0.9225754 0.60579574 -1.0807489 0.24801031 1.7424186 -0.34793314
-1.3136926 0.008528321 0.7526218 -0.33818427 0.86493814 0.6554213 -0.8219481 0.6199969
0.7190576 0.82905835 -0.91078347 0.390667 -0.57446396 -0.10421141 0.2836384 0.2649229
0.23650236 -1.2967219 0.26005545 1.6291342 -0.05079092 0.7600243 1.2273141 0.009959477
0.5658007 -1.0626591 -0.32262278 -0.07061958 -0.28918245 -0.2201494 0.9237237 -0.05819049
-0.11839311 -0.77664053 0.22445898 -0.054874696 -0.559467 -1.2284696 -0.2968027 0.7843684
-0.8209453 0.513551 1.1404823 -0.37288153 -1.0251507 0.79452765 -1.1042404 0.45058754
0.8095637 -0.19341798 -0.9252094 -0.25492936 -0.18737972 -0.21468851 0.915752 0.6171887
-1.0461892 0.68079656 1.4413834 0.68504107 -0.82025754 0.55593705 -0.6744359 0.08415191
-0.42362562 -0.21348722 0.042395778 -1.3580481 0.7667214 1.427039 0.18037197 1.1559159
1.1107955 0.37075624 1.0624671 -0.88809514 -0.095825665 -0.054927483 0.20416416 0.3273672
-0.096043974 -0.09897829 0.13270895 0.34074816 -0.17366172 0.28523305 -0.060197104 0.23761462
0.6488165 -0.1251617 0.07646837 -0.5658875 0.2216631 0.7062264 -0.33167425 0.29477468
0.16109087 -0.33607662 -0.07044678 -0.2643581 0.17257622 0.5801061 0.71208566 -0.003593119
-0.114530995 -0.08293634 -0.14886975 0.10309883 -0.43168247 0.13891505 -1.0332239 0.85541844
-0.55620104 -0.03254437 0.74724793 0.3081829 -0.9512815 0.61414564 -0.94750905 -0.24620879
0.30063534 -0.7007966 0.053026028 -0.5085883 -0.19896993 -0.15208638 0.08182935 0.37051222
-0.3953494 0.09463276 0.41865742 -0.35547176 -0.10641712 -0.1259489 -0.021426743 0.1711127
-0.37716135 -0.48330328 -0.20770991 0.08267812 -0.40864533 -0.13021171 -0.6558193 -0.49118215
-0.37495154 0.4635803 -0.03963786 -0.17836557 0.10077998 0.17570664 -0.22323804 -0.1546236
-0.34674314 0.030059628 0.056018256 0.46229315 0.092487395 0.20497653 0.33976138 0.76130456
0.29278207 0.25646687 0.82562965 0.101257935 -0.39453623 -0.5398976 0.8629134 0.21236922
0.7264288 0.582168 -0.16877355 0.60596853 0.05589188 0.7478017 -0.11577453 -0.027870758
0.82898587 -0.7617894 0.09788922 -0.68219894 0.52003974 -0.80376214 0.24835889 0.19876689
0.6421622 0.05039311 -0.2138319 -0.42958856 -0.122716025 -0.8632762 0.12514204 -0.05953553
0.090866014 0.42765683 0.2452266 -1.017645 -0.27386436 -0.060786206 0.42412454 0.33669102
-0.2603653 0.27656183 0.66560537 -0.28467214 0.24473779 -0.30217698 -0.00614967 0.71507907
0.0083968 0.5640746 0.73071074 0.14998326 -0.18262862 -0.026197774 -0.17010212 0.24850473
-0.5734605 0.18334197 -0.53986967 0.4101007 0.621449 0.08317329 0.44759965 -0.6243777
1.1163632 -0.51595336 -0.11664167 0.079920486 -0.021923566 -0.8893965 0.42068762 0.27004597
00000000: 2042 17be a970 a1bd 1934 073e 8845 fcbe
00000010: 5cb6 8c3f 7979 c4be d2d3 bebe d66c 86be
00000020: a86c 313e f153 7fbd 969c 30bd ba41 ecbf
00000030: 80a6 e33e fee2 c83e 9206 42bf 6e59 f63e
00000040: e060 333f e88e 63be e72d 6cbf 6e15 1b3f
00000050: fb55 8abf 6af6 7d3e 9307 df3f 4b24 b2be
00000060: 1427 a8bf 5fba 0b3c d3ab 403f 7d26 adbe
00000070: 966c 5d3f b1c9 273f 316b 52bf 1eb8 1e3f
00000080: 2914 383f 2b3d 543f 1b29 69bf 8105 c83e
00000090: 1210 13bf cb6c d5bd 0d39 913e f9a3 873e
000000a0: ad2d 723e fcfa a5bf fd25 853e 7887 d03f
000000b0: 240a 50bd f490 423f a118 9d3f 132d 233c
000000c0: 51d8 103f 3705 88bf d02e a5be 00a1 90bd
000000d0: b90f 94be d86e 61be 2879 6c3f 2759 6ebd
000000e0: 1678 f2bd ead1 46bf 93d8 653e 4ac4 60bd
000000f0: 3b39 0fbf 7e3e 9dbf 86f6 97be 5ecc 483f
00000100: 7929 52bf 1478 033f 53fb 913f 54ea bebe
00000110: 2338 83bf 2a66 4b3f c057 8dbf 69b3 e63e
00000120: 913f 4f3f 5d0f 46be 86da 6cbf 1a86 82be
00000130: 78e0 3fbe 4ed7 5bbe b96e 6a3f 1400 1e3f
00000140: 87e9 85bf af48 2e3f 407f b83f da5e 2f3f
00000150: 66fc 51bf e451 0e3f d5a7 2cbf d657 ac3d
00000160: 75e5 d8be 659c 5abe 32a7 2d3d 85d4 adbf
00000170: db47 443f 37a9 b63f 6eb3 383e 0df5 933f
00000180: 8c2e 8e3f c3d3 bd3e ecfe 873f 345a 63bf
00000190: 3f40 c4bd a4fb 60bd 6910 513e ac9c a73e
000001a0: b4b2 c4bd 21b5 cabd dbe4 073e 8b76 ae3e
000001b0: 61d4 31be 110a 923e 3d91 76bd 3f51 733e
000001c0: d718 263f 642a 00be 739b 9c3d 01de 10bf
000001d0: a7fb 623e 41cb 343f 35d1 a9be b5ec 963e
000001e0: 01f5 243e 3c12 acbe 6746 90bd f259 87be
000001f0: d2b7 303e d581 143f 3f4b 363f 897a 6bbb
00000200: 3a8f eabd 87da a9bd 5071 18be 7b25 d33d
00000210: 7c05 ddbe bf3f 0e3e ae40 84bf b4fc 5a3f
00000220: 3163 0ebf 3f4d 05bd a44b 3f3f 26ca 9d3e
00000230: 2f87 73bf a638 1d3f f48f 72bf 281e 7cbe
00000240: e0ec 993e 6867 33bf d231 593d d832 02bf
00000250: c6be 4bbe 88bc 1bbe 2596 a73d c7b3 bd3e
00000260: 3d6b cabe d2ce c13d 445a d63e 6500 b6be
00000270: 38f1 d9bd c0f8 00be 2387 afbc 2b38 2f3e
00000280: 4b1b c1be 8773 f7be e8b1 54be 2553 a93d
00000290: f639 d1be 3856 05be c6e3 27bf 3a7c fbbe
000002a0: a6f9 bfbe 665a ed3e 4f5b 22bd 77a5 36be
000002b0: bc65 ce3d 71ec 333e 8398 64be a655 1ebe
000002c0: 5188 b1be 9c3f f63c 6673 653d b0b1 ec3e
000002d0: 086a bd3d 5ee5 513e 34f5 ad3e dbe4 423f
000002e0: 88e7 953e a04f 833e 775c 533f 5260 cf3d
000002f0: a700 cabe bb36 0abf e5e7 5c3f 5177 593e
00000300: 3df7 393f f608 153f f9d2 2cbe c120 1b3f
00000310: e2ee 643d ef6f 3f3f 321b edbd 3751 e4bc
00000320: 6b38 543f a104 43bf 257a c83d 97a4 2ebf
00000330: 5321 053f 5bc3 4dbf cb51 7e3e 8c89 4b3e
00000340: be64 243f 0169 4e3d c0f6 5abe 08f3 dbbe
00000350: 8a52 fbbd abff 5cbf 3c25 003e 87db 73bd
00000360: f617 ba3d d6f5 da3e af1c 7b3e 3142 82bf
00000370: f337 8cbe f5fa 78bd da26 d93e c462 ac3e
00000380: 9a4e 85be 8399 8d3e 1d65 2a3f 8cc0 91be
00000390: 8b9c 7a3e f1b6 9abe 2c83 c9bb 6c0f 373f
000003a0: bb92 093c 3167 103f dc0f 3b3f 3695 193e
000003b0: ff02 3bbe b79c d6bc 402f 2ebe 0678 7e3e
000003c0: 4fce 12bf ffbd 3b3e e634 0abf b8f8 d13e
000003d0: 4817 1f3f c256 aa3d c82b e53e 38d7 1fbf
000003e0: fde4 8e3f 8515 04bf d4e1 eebd 5aad a33d
000003f0: 0d99 b3bc 7daf 63bf 5e64 d73e 7743 8a3e

lstm.bias_ih_l1 f4 [200]
-0.7091401 -0.7093667 -0.21316202 -0.4746287 -0.170384 -0.50176406 -0.72191674 0.18954283
-0.14618818 -0.90422714 0.088315085 0.2322674 -0.06390726 0.039597724 -0.45397097 -0.56197053
0.081264056 -0.06105452 -0.26470035 -0.3526609 0.22004317 -0.49780837 0.7312869 -0.36566663
0.29145324 0.17828314 -0.28378823 -0.43353724 -0.39801034 -0.45342413 0.30253366 -0.27536643
0.22438475 -0.04318028 -0.6746595 -0.38596 -0.25163803 -0.80070215 -0.08026182 -0.3793323
-0.6854064 -0.6679225 -0.08406935 0.6123027 -0.75596076 -0.44361174 0.16050413 -0.2990611
-0.51674235 -0.12679145 0.31381053 0.23143488 0.08484533 -0.2597195 0.19333275 0.124067456
-0.67058283 -0.68780196 -0.6659001 -0.3864973 -0.10047078 0.99635684 -0.113065325 -0.6667779
0.6130507 -0.19744389 -0.22942102 -0.25747398 -0.30658382 0.04878084 0.79153377 -0.54058886
0.51805717 0.011676618 0.57755625 -0.017651659 0.32689548 0.5829039 -0.62391704 0.43593955
0.017246462 -0.4964484 -0.94420797 0.5696909 -0.19799422 0.21404025 -0.3262465 -0.5769022
-0.040191084 0.32018402 -0.015709389 -0.2819209 -0.20915496 0.9923038 -0.4296911 -0.2060254
0.91279465 -0.11471473 -0.4672954 0.53786296 0.41381854 0.01918371 -0.079198346 0.14160043
-0.16932403 0.0850205 0.16816795 -0.08620281 -0.13653316 -0.51501673 -0.13148496 0.54480684
0.23343956 -0.5066257 0.4263449 -0.06446058 -0.5682299 -0.29463914 0.14186019 -0.14391606
0.6395945 -0.28595912 -0.40787956 0.0013149657 0.6761468 -0.2777831 -0.072006434 0.26229706
-0.032006826 -0.31253254 0.18991439 -0.08482002 -0.057857476 -0.32332662 0.25703138 -0.5100484
-0.077807434 -0.26341465 -0.12209746 0.1138839 -0.28384092 0.5028356 -0.3100204 -0.7066226
0.166191 -0.20298348 -0.6712594 0.3051389 -0.20061524 0.5026353 -0.48277372 -0.30379754
-0.13827719 -0.66156226 -0.0029696445 -0.24804492 -0.2493059 -0.107791804 -0.15595509 -0.25505698
-0.2224464 0.45978117 0.014611841 -0.18347628 0.045102883 -0.1554295 -0.04082525 -0.4990648
-0.1987176 -0.18012369 0.714499 -0.4113407 0.9845032 0.17931774 0.5477413 -0.039186113
-0.26596758 0.26310924 -0.14008866 -0.118321046 0.22861412 -0.10756059 -0.47712073 0.06674362
-0.53271854 0.13363388 -0.6834543 -0.5194509 -0.41856036 -0.4629025 -0.5688982 -0.49412355
-0.5490892 1.0781434 -0.4238169 -0.6366282 0.84176075 -0.2024286 -0.11197221 0.16055855
00000000: 358a 35bf 0e99 35bf 2547 5abe 8802 f3be
00000010: 2579 2ebe 9c73 00bf 89cf 38bf 8417 423e
00000020: 5bb2 15be 6e7b 67bf 8ade b43d 81d7 6d3e
00000030: cfe1 82bd 3931 223d e26e e8be 4ddd 0fbf
00000040: c56d a63d 4e14 7abd ce86 87be f88f b4be
00000050: ff52 613e bde0 febe 9e35 3b3f a838 bbbe
00000060: 5c39 953e db8f 363e b14c 91be 98f8 ddbe
00000070: 03c8 cbbe 3527 e8be b1e5 9a3e d4fc 8cbe
00000080: 1ec5 653e cedd 30bd 7cb6 2cbf 8d9c c5be
00000090: b3d6 80be d1fa 4cbf 4f60 a4bd d837 c2be
000000a0: cb76 2fbf f8fc 2abf 8d2c acbd dfbf 1c3f
000000b0: a586 41bf 1421 e3be 325b 243e 891e 99be
000000c0: 3a49 04bf 9ed5 01be c6ab a03e 44fd 6c3e
000000d0: 63c3 ad3d f4f9 84be 05f9 453e 1417 fe3d
000000e0: 51ab 2bbf ca13 30bf 6e78 2abf f9e2 c5be
000000f0: a0c3 cdbd 3e11 7f3f cb8e e7bd f5b1 2abf
00000100: e4f0 1c3f bb2e 4abe 58ed 6abe a1d3 83be
00000110: 8ef8 9cbe 6bce 473d f5a1 4a3f 0864 0abf
00000120: 659f 043f 494f 3f3c bada 133f 369a 90bc
00000130: d85e a73e 3139 153f 07b9 1fbf 7833 df3e
00000140: 7448 8d3c 7c2e febe 9db7 71bf 43d7 113f
00000150: ffbe 4abe 5e2d 5b3e c809 a7be ddaf 13bf
00000160: 689f 24bd 29ef a33e fab0 80bc f057 90be
00000170: b82c 56be 9f07 7e3f 7900 dcbe 53f8 52be
00000180: e9ac 693f 8eef eabd 5841 efbe 63b1 093f
00000190: 06e0 d33e 2827 9d3c be32 a2bd b4ff 103e
000001a0: 4763 2dbe 3a1f ae3d 3834 2c3e 198b b0bd
000001b0: 59cf 0bbe 23d8 03bf fea3 06be 7678 0b3f
000001c0: c80a 6f3e 39b2 01bf e149 da3e e903 84bd
000001d0: 8477 11bf f1da 96be cc43 113e bb5e 13be
000001e0: 77bc 233f 3c69 92be 97d5 d0be ed5a ac3a
000001f0: f517 2d3f 9639 8ebe 1c78 93bd cd4b 863e
00000200: 9719 03bd 4404 a0be eb78 423e 1eb6 adbd
00000210: f6fb 6cbd 118b a5be 9e99 833e 8892 02bf
00000220: 8159 9fbd 49de 86be 3c0e fabd f63b e93d
00000230: 9953 91be d5b9 003f feba 9ebe 38e5 34bf
00000240: f92d 2a3e e7da 4fbe a8d7 2bbf 2a3b 9c3e
00000250: 156e 4dbe b5ac 003f 1e2e f7be 5a8b 9bbe
00000260: 8998 0dbe 255c 29bf 5e9e 42bb 7dff 7dbe
00000270: 0c4a 7fbe f3c1 dcbd b1b2 1fbe d496 82be
00000280: fdc8 63be 7068 eb3e 8166 6f3c 35e1 3bbe
00000290: cdbd 383d e928 1fbe 6138 27bd 6c85 ffbe
000002a0: a07c 4bbe 5872 38be 68e9 363f 409b d2be
000002b0: 6708 7c3f 129f 373e c638 0c3f 9e81 20bd
000002c0: e72c 88be 41b6 863e 6773 0fbe 4e52 f2bd
000002d0: d219 6a3e ba48 dcbd 2b49 f4be e1b0 883d
000002e0: 3e60 08bf 52d7 083e dcf6 2ebf bcfa 04bf
000002f0: 8b4d d6be 8e01 edbe 50a3 11bf c3fd fcbe
00000300: 1c91 0cbf 9a00 8a3f 87fe d8be 11fa 22bf
00000310: a27d 573f 7149 4fbe b051 e5bd 7669 243e

lstm.bias_hh_l1 f4 [200]
-0.7091401 -0.7093667 -0.21316202 -0.4746287 -0.170384 -0.50176406 -0.72191674 0.18954283
-0.14618818 -0.90422714 0.088315085 0.2322674 -0.06390726 0.039597724 -0.45397097 -0.56197053
0.081264056 -0.06105452 -0.26470035 -0.3526609 0.22004317 -0.49780837 0.7312869 -0.36566663
0.29145324 0.17828314 -0.28378823 -0.43353724 -0.39801034 -0.45342413 0.30253366 -0.27536643
0.22438475 -0.04318028 -0.6746595 -0.38596 -0.25163803 -0.80070215 -0.08026182 -0.3793323
-0.6854064 -0.6679225 -0.08406935 0.6123027 -0.75596076 -0.44361174 0.16050413 -0.2990611
-0.51674235 -0.12679145 0.31381053 0.23143488 0.08484533 -0.2597195 0.19333275 0.124067456
-0.67058283 -0.68780196 -0.6659001 -0.3864973 -0.10047078 0.99635684 -0.113065325 -0.6667779
0.6130507 -0.19744389 -0.22942102 -0.25747398 -0.30658382 0.04878084 0.79153377 -0.54058886
0.51805717 0.011676618 0.57755625 -0.017651659 0.32689548 0.5829039 -0.62391704 0.43593955
0.017246462 -0.4964484 -0.94420797 0.5696909 -0.19799422 0.21404025 -0.3262465 -0.5769022
-0.040191084 0.32018402 -0.015709389 -0.2819209 -0.20915496 0.9923038 -0.4296911 -0.2060254
0.91279465 -0.11471473 -0.4672954 0.53786296 0.41381854 0.01918371 -0.079198346 0.14160043
-0.16932403 0.0850205 0.16816795 -0.08620281 -0.13653316 -0.51501673 -0.13148496 0.54480684
0.23343956 -0.5066257 0.4263449 -0.06446058 -0.5682299 -0.29463914 0.14186019 -0.14391606
0.6395945 -0.28595912 -0.40787956 0.0013149657 0.6761468 -0.2777831 -0.072006434 0.26229706
-0.032006826 -0.31253254 0.18991439 -0.08482002 -0.057857476 -0.32332662 0.25703138 -0.5100484
-0.077807434 -0.26341465 -0.12209746 0.1138839 -0.28384092 0.5028356 -0.3100204 -0.7066226
0.166191 -0.20298348 -0.6712594 0.3051389 -0.20061524 0.5026353 -0.48277372 -0.30379754
-0.13827719 -0.66156226 -0.0029696445 -0.24804492 -0.2493059 -0.107791804 -0.15595509 -0.25505698
-0.2224464 0.45978117 0.014611841 -0.18347628 0.045102883 -0.1554295 -0.04082525 -0.4990648
-0.1987176 -0.18012369 0.714499 -0.4113407 0.9845032 0.17931774 0.5477413 -0.039186113
-0.26596758 0.26310924 -0.14008866 -0.118321046 0.22861412 -0.10756059 -0.47712073 0.06674362
-0.53271854 0.13363388 -0.6834543 -0.5194509 -0.41856036 -0.4629025 -0.5688982 -0.49412355
-0.5490892 1.0781434 -0.4238169 -0.6366282 0.84176075 -0.2024286 -0.11197221 0.16055855
00000000: 358a 35bf 0e99 35bf 2547 5abe 8802 f3be
00000010: 2579 2ebe 9c73 00bf 89cf 38bf 8417 423e
00000020: 5bb2 15be 6e7b 67bf 8ade b43d 81d7 6d3e
00000030: cfe1 82bd 3931 223d e26e e8be 4ddd 0fbf
00000040: c56d a63d 4e14 7abd ce86 87be f88f b4be
00000050: ff52 613e bde0 febe 9e35 3b3f a838 bbbe
00000060: 5c39 953e db8f 363e b14c 91be 98f8 ddbe
00000070: 03c8 cbbe 3527 e8be b1e5 9a3e d4fc 8cbe
00000080: 1ec5 653e cedd 30bd 7cb6 2cbf 8d9c c5be
00000090: b3d6 80be d1fa 4cbf 4f60 a4bd d837 c2be
000000a0: cb76 2fbf f8fc 2abf 8d2c acbd dfbf 1c3f
000000b0: a586 41bf 1421 e3be 325b 243e 891e 99be
000000c0: 3a49 04bf 9ed5 01be c6ab a03e 44fd 6c3e
000000d0: 63c3 ad3d f4f9 84be 05f9 453e 1417 fe3d
000000e0: 51ab 2bbf ca13 30bf 6e78 2abf f9e2 c5be
000000f0: a0c3 cdbd 3e11 7f3f cb8e e7bd f5b1 2abf
00000100: e4f0 1c3f bb2e 4abe 58ed 6abe a1d3 83be
00000110: 8ef8 9cbe 6bce 473d f5a1 4a3f 0864 0abf
00000120: 659f 043f 494f 3f3c bada 133f 369a 90bc
00000130: d85e a73e 3139 153f 07b9 1fbf 7833 df3e
00000140: 7448 8d3c 7c2e febe 9db7 71bf 43d7 113f
00000150: ffbe 4abe 5e2d 5b3e c809 a7be ddaf 13bf
00000160: 689f 24bd 29ef a33e fab0 80bc f057 90be
00000170: b82c 56be 9f07 7e3f 7900 dcbe 53f8 52be
00000180: e9ac 693f 8eef eabd 5841 efbe 63b1 093f
00000190: 06e0 d33e 2827 9d3c be32 a2bd b4ff 103e
000001a0: 4763 2dbe 3a1f ae3d 3834 2c3e 198b b0bd
000001b0: 59cf 0bbe 23d8 03bf fea3 06be 7678 0b3f
000001c0: c80a 6f3e 39b2 01bf e149 da3e e903 84bd
000001d0: 8477 11bf f1da 96be cc43 113e bb5e 13be
000001e0: 77bc 233f 3c69 92be 97d5 d0be ed5a ac3a
000001f0: f517 2d3f 9639 8ebe 1c78 93bd cd4b 863e
00000200: 9719 03bd 4404 a0be eb78 423e 1eb6 adbd
00000210: f6fb 6cbd 118b a5be 9e99 833e 8892 02bf
00000220: 8159 9fbd 49de 86be 3c0e fabd f63b e93d
00000230: 9953 91be d5b9 003f feba 9ebe 38e5 34bf
00000240: f92d 2a3e e7da 4fbe a8d7 2bbf 2a3b 9c3e
00000250: 156e 4dbe b5ac 003f 1e2e f7be 5a8b 9bbe
00000260: 8998 0dbe 255c 29bf 5e9e 42bb 7dff 7dbe
00000270: 0c4a 7fbe f3c1 dcbd b1b2 1fbe d496 82be
00000280: fdc8 63be 7068 eb3e 8166 6f3c 35e1 3bbe
00000290: cdbd 383d e928 1fbe 6138 27bd 6c85 ffbe
000002a0: a07c 4bbe 5872 38be 68e9 363f 409b d2be
000002b0: 6708 7c3f 129f 373e c638 0c3f 9e81 20bd
000002c0: e72c 88be 41b6 863e 6773 0fbe 4e52 f2bd
000002d0: d219 6a3e ba48 dcbd 2b49 f4be e1b0 883d
000002e0: 3e60 08bf 52d7 083e dcf6 2ebf bcfa 04bf
000002f0: 8b4d d6be 8e01 edbe 50a3 11bf c3fd fcbe
00000300: 1c91 0cbf 9a00 8a3f 87fe d8be 11fa 22bf
00000310: a27d 573f 7149 4fbe b051 e5bd 7669 243e

layer_norm.weight f4 [50]
0.7716868 0.9548623 0.55729026 0.8071705 0.16237961 0.55822706 1.1267239 0.18230991
1.0527904 1.0150747 0.55676895 0.27927142 0.29831302 0.968043 0.73830706 0.37350574
0.019085169 0.475158 0.22989053 0.43315282 0.10780996 0.63165367 0.13395599 0.40762252
0.19845317 0.4239495 0.35111195 0.633005 0.2437099 0.6158093 0.18096352 0.9618642
0.36134788 0.16460454 0.795381 0.3708317 0.7691683 1.1502613 0.58443534 0.6605538
0.46655503 0.96790427 0.66729534 0.27861035 1.1048074 0.38386694 0.039356645 0.397967
1.0770178 0.558251
00000000: 448d 453f db71 743f 93aa 0e3f baa2 4e3f
00000010: d746 263e f8e7 0e3f 7d38 903f 73af 3a3e
00000020: d6c1 863f f8ed 813f 6988 0e3f aafc 8e3e
00000030: 7cbc 983e abd1 773f b101 3d3f 253c bf3e
00000040: 8058 9c3c e947 f33e 6c68 6b3e 35c6 dd3e
00000050: 78cb dc3d 0eb4 213f c22b 093e e6b3 d03e
00000060: 4f37 4b3e e90f d93e f2c4 b33e 9e0c 223f
00000070: 178f 793e aea5 1d3f 804e 393e bb3c 763f
00000080: 9702 b93e 188e 283e 179e 4b3f a7dd bd3e
00000090: 37e8 443f c33b 933f 8e9d 153f 0e1a 293f
000000a0: 4de0 ee3e 93c8 773f ded3 2a3f 04a6 8e3e
000000b0: 546a 8d3f 358a c43e 6f34 213d 55c2 cb3e
000000c0: b8db 893f 8ae9 0e3f

layer_norm.bias f4 [50]
-0.0237747 0.049540937 0.00923494 -0.032833092 0.19301046 0.054530352 -0.023250554 -0.09313699
0.04419081 0.0086399885 0.0069953087 -0.55092794 -0.040385738 -0.022338388 -0.026084969 -0.0010338885
0.0034314587 -0.057678826 -0.19578284 0.017941039 -0.18624069 0.09315301 0.2765412 0.04003633
-0.2923374 0.044420768 -0.025593538 -0.061675906 0.14705817 0.15432917 -0.42820197 0.008375004
0.0015104781 0.16075107 -0.075782456 0.0850455 -0.057059698 -0.06532398 -0.0020516121 0.02977291
0.015154814 -0.028149717 -0.01869382 0.57455575 -0.006935522 0.011332424 0.21554583 -0.037524074
0.021055235 -0.26286143
00000000: 29c3 c2bc 70eb 4a3d 254e 173c fe7b 06bd
00000010: 89a4 453e 385b 5f3d f277 bebc 9bbe bebd
00000020: 6c01 353d bd8e 0d3c e738 e53b 9d09 0dbf
00000030: 846b 25bd fffe b6bc 25b0 d5bc 8b83 87ba
00000040: 53e2 603b a240 6cbd 4c7b 48be 16f9 923c
00000050: e1b5 3ebe 01c7 be3d cf96 8d3e 23fd 233d
00000060: 3fad 95be 8df2 353d 8aa9 d1bc e09f 7cbd
00000070: 6b96 163e 7708 1e3e 4a3d dbbe 5037 093c
00000080: 3cfb c53a ee9b 243e d533 9bbd 562c ae3d
00000090: 6eb7 69bd 94c8 85bd 5774 06bb 51e6 f33c
000000a0: e64b 783c 3c9a e6bc c823 99bc 1616 133f
000000b0: 6043 e3bb a2ab 393c 0cb8 5c3e d8b2 19bd
000000c0: 077c ac3c c695 86be

fc.weight f4 [3, 50]
-0.06698533 0.08994375 -0.17151415 -0.074075945 0.1515868 0.056773756 -0.19572234 0.16206719
-0.12243262 -0.09850852 0.20616437 -0.047992073 0.047686163 -0.27655807 -0.085819334 -0.020583613
0.11307198 0.10309939 0.24571535 -0.1672451 0.10807537 -0.02205999 -0.23080838 0.09554319
-0.23175435 0.101319134 0.05763596 0.045157094 -0.18542162 0.20264941 -0.1923228 -0.09982356
-0.19983743 0.19784513 -0.29794428 -0.14283709 -0.17395571 -0.29350123 0.05913961 0.03383848
-0.055493142 -0.23337676 -0.2399959 -0.32893392 -0.18216214 -0.31614214 -0.1095359 0.10329461
-0.039096937 -0.032220542 0.13100952 -0.012798462 -0.4990293 0.7270821 1.0676004 0.58109957
0.12459033 -1.2885985 -0.14229009 0.15483615 -0.5159521 -0.06974321 -0.6721531 0.20209844
0.13769907 1.0955878 0.13186811 -0.7370961 -1.1600558 0.37433442 0.122138724 0.069169596
-0.25390974 0.028054196 -0.24343711 -0.7108924 -0.4340294 -0.02152705 1.2777181 0.18978345
-0.50405777 -0.15709148 0.97040206 0.33086577 0.362748 0.2804375 0.64595026 0.0931408
-0.63787496 -0.6701112 0.83280146 0.14200863 0.65971136 -0.22171782 0.095437616 1.001157
-0.08489187 0.5874051 -0.056636166 -0.047886733 0.18278052 -0.25244522 0.03930543 0.12550168
-0.007149788 -0.11978908 0.18087271 0.13792813 0.23430082 0.19101755 0.30119586 -0.09264307
0.048138436 0.05057226 0.17157121 -0.1369527 0.1072168 0.2842237 0.2667697 -0.2090734
0.07163925 -0.23601472 -0.19457918 -0.1303022 -0.26823625 0.17471689 0.18124892 -0.16387436
-0.16087463 -0.03784398 -0.18573183 0.21521665 -0.19063245 0.070300125 -0.1498236 -0.16982445
0.0015287609 0.07952678 0.14129122 0.19445473 -0.1203765 0.06586192 -0.20176134 -0.23721275
0.12270598 -0.31031743 -0.17379943 0.21323827 0.2986492 -0.1835111
00000000: 9b2f 89bd 6e34 b83d 68a1 2fbe 21b5 97bd
00000010: 9239 1b3e 998b 683d 706b 48be f1f4 253e
00000020: f4bd fabd d6be c9bd c11c 533e 5693 44bd
00000030: 9152 433d 0599 8dbe 0cc2 afbd f79e a8bc
00000040: 4892 e73d c625 d33d ce9c 7b3e 4d42 2bbe
00000050: 9f56 dd3d 27b7 b4bc 0859 6cbe 26ac c33d
00000060: 0351 6dbe 6880 cf3d af13 6c3d a5f6 383d
00000070: 2adf 3dbe 5483 4f3e 45f0 44be 4b70 ccbd
00000080: 2fa2 4cbe ea97 4a3e 278c 98be e343 12be
00000090: 7221 32be cb45 96be 603c 723d 389a 0a3d
000000a0: c74c 63bd 51fa 6ebe 7cc1 75be 076a a8be
000000b0: b688 3abe 62dd a1be 5c54 e0bd 208c d33d
000000c0: 1c24 20bd b0f9 03bd 5c27 063e a4b0 51bc
000000d0: c580 ffbe 0d22 3a3f 21a7 883f f1c2 143f
000000e0: 3729 ff3d ccf0 a4bf 7eb4 11be 5e8d 1e3e
000000f0: 7015 04bf 87d5 8ebd 3a12 2cbf e5f2 4e3e
00000100: fc00 0d3e 393c 8c3f 6f08 073e 54b2 3cbf
00000110: b57c 94bf c3a8 bf3e de23 fa3d caa8 8d3d
00000120: 7500 82be ead1 e53c 9447 79be 0bfd 35bf
00000130: 1a39 debe 7f59 b0bc 448c a33f 9856 423e
00000140: ee09 01bf 97dc 20be 456c 783f 3d67 a93e
00000150: 1bba b93e 8195 8f3e ff5c 253f 9bc0 be3d
00000160: c64b 23bf 688c 2bbf 7a32 553f b66a 113e
00000170: d8e2 283f ff09 63be cc74 c33d ea25 803f
00000180: cadb adbd 2e60 163f 53fb 67bd e124 44bd
00000190: d12a 3b3e 8040 81be bbfe 203d 8383 003e
000001a0: c548 eabb fa53 f5bd b236 393e 083d 0d3e
000001b0: 8eec 6f3e 1b9a 433e 5836 9a3e a6bb bdbd
000001c0: cf2c 453d dc24 4f3d 5db0 2f3e 543d 0cbe
000001d0: 7b94 db3d c585 913e 0a96 883e 5617 56be
000001e0: 99b7 923d d8ad 71be c43f 47be f16d 05be
000001f0: 4356 89be fce8 323e 5199 393e aece 27be
00000200: 52bc 24be 4a02 1bbd 7c30 3ebe c161 5c3e
00000210: 2735 43be 83f9 8f3d 5c6b 19be 76e6 2dbe
00000220: b460 c83a f0de a23d a5ae 103e 241f 473e
00000230: f487 f6bd 9de2 863d 869a 4ebe e6e7 72be
00000240: 464d fb3d ede1 9ebe 7af8 31be 225b 5a3e
00000250: 8ce8 983e 55ea 3bbe

fc.bias f4 [3]
0.17696106 -2.110481 0.14944981
00000000: 4835 353e 1f12 07c0 5f09 193e
