Pretrained/LSTM/lstm_horizon_20.pth (torch, 176852 bytes, 12 tensors)

lstm.weight_ih_l0 f4 [200, 62]
000000 da bf 03 3d 10 05 65 3e c6 c8 4e bc 21 3b 85 be
       0.032165386 0.22365212 -0.01262111 -0.26021674
000010 e2 bd 90 3d 9b 73 4d bf b3 c1 50 bb ba 11 b2 3d
       0.07067467 -0.80254525 -0.0031853735 0.08694787
000020 36 37 6a bb 8d 8d f8 be 74 35 0d bc 66 65 9f bf
       -0.0035738475 -0.48545495 -0.008618701 -1.2452819
000030 7c 12 98 bd 5b 69 f5 be ac e3 07 be c2 3e 15 bf
       -0.074254006 -0.47931942 -0.13270444 -0.58298886
000040 e8 23 83 bd d5 12 12 3d 97 32 2d bd fe 36 a6 be
       -0.06403333 0.03566249 -0.042284574 -0.3246383
000050 84 76 49 be 09 b4 02 3f 97 a1 83 bd fb d4 2e bf
       -0.19674116 0.5105596 -0.06427305 -0.6829373
000060 8e 24 19 be 57 6c 99 3d e8 9f 01 3d 91 7c 26 bf
       -0.14955351 0.07491367 0.03164664 -0.65033823
000070 49 20 ee bd fd 0a bf 3d dc a4 01 be 19 bc 45 be
       -0.11627252 0.09328268 -0.12660545 -0.19310035
000080 0e 46 2e be 1d 78 b2 3e 35 92 8a bd 41 96 17 bf
       -0.17018911 0.34857264 -0.06766168 -0.59213644
000090 1c 20 1b bd 06 88 44 3f 96 de a5 bd c0 74 18 be
       -0.03787242 0.76770055 -0.080990955 -0.14888287
0000a0 2d 40 f9 bc f3 76 8b bd 43 b4 ea 3d 78 ab 0b bd
       -0.03042611 -0.06809797 0.114601634 -0.034099072
0000b0 3a f2 88 be f0 d4 c0 3c 37 9e 5d be 20 f6 b3 be
       -0.26747304 0.023539037 -0.21642385 -0.35148716
0000c0 74 38 0f 3e d1 0d a7 3e 19 36 b4 3e fb 6f 94 3e
       0.13986379 0.3262773 0.35197523 0.28991684
0000d0 17 81 73 3e 1e 60 f4 3e e9 d1 4c be 5d 1d 36 bf
       0.23779713 0.47729582 -0.2000195 -0.71138555
0000e0 74 0f 2c be cf cb 22 be 6a 32 5d 3d f5 81 99 bd
       -0.1680277 -0.1589806 0.054003157 -0.074954905
0000f0 69 2e 3c be 50 81 e0 bc 2f 7e 24 3c fe 2b 05 be
       -0.18377079 -0.027405411 0.01003985 -0.13005063
000100 3f 08 52 be 5d 0e 26 3f a5 40 65 bc 89 be 07 3e
       -0.20510958 0.64865667 -0.013992463 0.13256277
000110 b5 bb da bd 79 4e 86 be 6a 37 64 be fe 0c bf be
       -0.106803335 -0.26231745 -0.22286764 -0.373146
000120 df 48 65 be d7 73 96 3e 3c 0b 39 bd 71 ab 4b 39
       -0.2239108 0.29385254 -0.04517673 0.00019423456
000130 a3 9b 6e be 3f 86 00 3f aa c6 97 3b 80 a4 a4 be
       -0.23301558 0.50204843 0.004631837 -0.32156754
000140 1f 5e 0e be a8 68 6a be 90 87 a7 bd 70 7a 56 be
       -0.13903092 -0.22891486 -0.08180153 -0.20945144
000150 87 fc 3a be 93 ee 25 3f ac 81 51 3c 3e de 96 3d
       -0.18260394 0.6481716 0.012787264 0.07366608
000160 bf 75 2d bd 77 25 b2 3a f6 95 92 3c 6b b2 1c 3e
       -0.04234862 0.0013591488 0.017893773 0.15302436
000170 b8 7c 6a be b2 63 30 3e f1 ad c1 3c da 91 23 3e
       -0.22899139 0.1722553 0.023642512 0.15973607
000180 67 c3 cd bd b4 9a 82 3d a8 e9 8e bd 72 70 c7 3e
       -0.10047036 0.063771635 -0.0697816 0.38952976
000190 7e 99 0b bd 81 d6 a0 3e 2f 9b c5 bd cc 79 ed bd
       -0.03408193 0.31413653 -0.096487395 -0.115954965
0001a0 cf 9d 08 3f 87 6e 52 3d 2f 31 37 3e af 50 ad bd
       0.53365797 0.05137494 0.17889856 -0.08462655
0001b0 2a 09 44 bd 43 d1 50 3e 9b 9a b9 3d c2 54 35 bf
       -0.047860302 0.20392327 0.09062692 -0.70832455
0001c0 66 ad 45 bf 04 b8 39 bf 3b 34 dd be fd 34 a4 3e
       -0.7721771 -0.7254641 -0.4320391 0.32071677
0001d0 cf 0f d0 bd 1f c4 06 bf 5b 3a f4 bc df 48 2d bc
       -0.10159265 -0.5264301 -0.029812982 -0.010576456
0001e0 b5 e1 8d 3c 34 e5 b7 3e f2 b3 38 3d b0 2c a0 3e
       0.01731954 0.35917056 0.045093484 0.31284094
0001f0 12 ad 5b be 33 59 50 bf 29 13 86 be 38 f9 4b 3f
       -0.2145274 -0.8138611 -0.26186493 0.7967715
000200 9d 61 2d be d0 dc de 3e f3 b1 58 3c d7 04 a7 3e
       -0.16931768 0.43527842 0.01322602 0.3262088
000210 7d af 20 be f6 b4 c8 3e d5 ef 45 bb de 3c 23 3f
       -0.15691943 0.39200562 -0.0030202765 0.6376475
000220 7f 9f 58 be e3 0e 70 be 0c f3 f7 bc f1 84 28 be
       -0.21154593 -0.23443179 -0.030267261 -0.16456963
000230 00 96 c5 bc da 06 cd bd 5f d7 60 be 59 ae 12 bd
       -0.024119377 -0.100110725 -0.21957158 -0.035810802
000240 5b 26 5f be 17 9f 74 be 10 b8 85 be 4f 95 04 bf
       -0.21791975 -0.23888813 -0.2611699 -0.51790327
000250 a9 1e 75 be fd 1f 03 3e c7 08 c2 bc 75 ad 6a 3e
       -0.23937477 0.12805171 -0.023685826 0.22917731
000260 b2 ab 28 bd 89 34 04 3e 85 f8 16 be 3c 40 0d 3f
       -0.041179366 0.12910666 -0.1474324 0.5517614
000270 f6 f3 2d be 26 0b fb 3e a7 b1 40 be 24 3a 6d 3f
       -0.16987595 0.49031943 -0.18817769 0.9266684
000280 f7 5b da bd 73 95 03 3f 9b 98 84 bd 69 e6 53 3f
       -0.10662072 0.51399916 -0.0647442 0.82773453
000290 08 ff 69 be cb 9e 62 be d3 31 6d 3e 1f 5b 25 bf
       -0.22851193 -0.22130887 0.23163538 -0.64592165
0002a0 ab 05 07 3f e3 72 d3 3d 14 e6 42 bf 3c f8 a0 3e
       0.52743024 0.10324647 -0.7613232 0.31439388
0002b0 d1 3d e3 bc f1 96 1c bf dc c0 2c bf 0c 51 36 bf
       -0.027739437 -0.6116782 -0.6748178 -0.7121742
0002c0 e2 22 15 bf 12 ae ad 3e a4 19 dc 3d 47 68 b4 be
       -0.5825635 0.33921868 0.10747078 -0.35235807
0002d0 08 59 09 3e 99 6f 2b be 35 7f 8c 3e e0 85 16 bf
       0.13412869 -0.1674179 0.274408 -0.5879803
0002e0 07 f3 50 3e dc ce 8e 3d d3 05 2e 3e c4 d4 11 bd
       0.20405208 0.06973049 0.1699441 -0.0356033
0002f0 e9 0d 7c bc 8a 09 c1 be 80 60 df bd 1d eb f2 bd
       -0.015384176 -0.3770259 -0.10907078 -0.118612505
000300 b6 eb fb 3c a6 22 49 3f 8f 5d 09 3e 0a b9 6d be
       0.030752044 0.78568494 0.13414596 -0.23215118
000310 0f e3 2e 3e cd 74 76 3f 96 e9 ba 3d bb fc 8d be
       0.17078803 0.96271974 0.09126584 -0.2773188
000320 7b 33 de bd 20 59 b4 3e e4 c7 9f bc 30 25 09 be
       -0.10849663 0.35224247 -0.019504495 -0.13393092
000330 e1 35 e9 bd 52 1b 78 3e 44 a7 dc 3d 90 ac 7a 3d
       -0.1138723 0.24229172 0.10774091 0.061199725
000340 f9 ce c6 bd 24 3b 02 3f 8a de 8a 3d db 66 96 3d
       -0.09707446 0.5087149 0.06780727 0.07343837
000350 c6 4c 2d 3e ac 02 97 3d 91 ae 9c bc 0f 5b 7a 3c
       0.16923818 0.073735565 -0.019126208 0.015280499
000360 c8 06 e7 3c bf 41 df bc b6 db f3 3d be c7 80 be
       0.028201476 -0.02725303 0.11907141 -0.2515239
000370 cc ca 16 bd e6 56 92 3d dd ab 16 3e ea 27 db 3d
       -0.036814496 0.07145481 0.14713998 0.107009724
000380 f7 27 77 3d cd af fb b9 9c 3c 4e 3d 25 1a af bd
       0.060340848 -0.00048005432 0.05035077 -0.085499085
000390 a1 e3 cd bd 35 a1 d8 bc 49 8d 3c be fe 27 07 be
       -0.100531824 -0.026444057 -0.18413271 -0.1319885
0003a0 7a 44 91 3d 3c e9 a9 bc d6 59 0a 3d 44 87 af be
       0.07093139 -0.020741098 0.03377708 -0.34282887
0003b0 9e e8 a7 be 5f 1d 2f be 53 bd 00 be 7b 37 57 40
       -0.3279466 -0.17101048 -0.12572221 3.3627613
0003c0 25 d2 1d 3e 94 7a 0a 3f fd 7b 96 bd 91 f7 2f bd
       0.15412195 0.5409329 -0.07347868 -0.042960707
0003d0 04 e2 d9 3d b5 9f 10 3d cd 43 87 bd a3 4a 1b bd
       0.10638812 0.03530856 -0.06604729 -0.037912976
0003e0 85 bf 3b 3d 86 92 8e be 01 b0 5d 3e 68 a2 83 3d
       0.045836944 -0.27846164 0.21649171 0.06427461
0003f0 aa 08 6d bd 0a d7 53 3f a2 a5 29 3e 22 4c 82 3f
       -0.05786959 0.8275 0.1656709 1.0179484

lstm.weight_hh_l0 f4 [200, 50]
000000 14 5d 1b bf 85 fc 8f bf ad c6 51 bf 00 ef 8e bc
       -0.606889 -1.1248938 -0.8194378 -0.017447948
000010 dd 5f c8 bd e2 e0 89 be 4d db fd be 50 d4 3e bf
       -0.097839095 -0.26929384 -0.49581376 -0.74542713
000020 1a fc e9 be ab 6e 83 be 02 d4 c8 3e 82 86 c5 be
       -0.4570015 -0.2567037 0.3922425 -0.38579184
000030 01 0f 31 be 51 7c 4f be 3f 4e a5 be 28 ac 91 be
       -0.1729088 -0.20262267 -0.3228626 -0.28451657
000040 38 af 30 be b5 67 55 3e a2 7b 06 3f e1 cb 2e 3e
       -0.1725434 0.20840342 0.525324 0.17069961
000050 48 1f 76 be b6 9c 74 be 8a 6b 83 3e 71 a2 33 bf
       -0.2403537 -0.23887905 0.25667983 -0.7016974
000060 1b bd ec be 2c b2 39 3f 82 b2 f2 3e 53 d9 cb bc
       -0.46238026 0.72537494 0.47401816 -0.024883902
000070 e3 6c 8e be 1a 31 1b 3f 51 d5 69 bc b4 4e 11 3f
       -0.2781745 0.606218 -0.01427205 0.56760716
000080 fc f6 6f 3e 6a 06 2c 3f 09 e3 58 bf f7 e7 17 bf
       0.23434061 0.6719729 -0.8472143 -0.59338325
000090 1a 52 23 bf a5 1c 08 3e 53 2d a5 bf ad f5 18 bf
       -0.6379715 0.13292177 -1.2904457 -0.5974987
0000a0 53 b6 fa 3e 09 32 06 bf 80 cb 2e bf c5 18 70 3f
       0.48967227 -0.524201 -0.68279266 0.93787795
0000b0 80 46 c6 be 47 db 39 be 4b 7e 83 bd c9 49 96 3d
       -0.38725662 -0.18150054 -0.06420573 0.07338292
0000c0 17 27 e5 3d 8a 7b 47 3f ac fa 7c bf 62 b8 af 3f
       0.111890964 0.7792288 -0.98819995 1.3728144
0000d0 65 49 c7 3e 03 61 53 3f a5 ec 02 3f 76 83 89 3b
       0.38923183 0.82569903 0.5114234 0.0041965796
0000e0 2c 72 b9 bd d2 6a 32 3f 81 4e 4c bf 5b 1a a6 3e
       -0.0905498 0.69694245 -0.7980729 0.32441983
0000f0 57 fa db be 78 fc d1 bc 7b 7a 3c 3f ab 19 cd 3e
       -0.42964432 -0.025633082 0.7362439 0.40058646
000100 a0 07 30 bf 04 39 61 3f 02 27 b6 bf c2 9c f3 3e
       -0.68761635 0.87977624 -1.4230654 0.47580534
000110 ca b9 69 bf 80 14 49 3f 7f d3 01 bf 0e f8 95 be
       -0.91299117 0.78546906 -0.5071334 -0.29290813
000120 83 8f a9 3e fd 56 06 3f 73 d3 55 be 3f d8 ad 3e
       0.33117303 0.52476484 -0.20881443 0.33954045
000130 1d 8b 23 bf 52 a1 0d 3e cf f3 3d 3e c2 60 11 bf
       -0.63884145 0.1383107 0.18550037 -0.56788266
000140 b6 58 15 3e 0f be 2a 3e f9 e7 94 3f fb a9 65 3e
       0.14584622 0.16674064 1.1633292 0.22428124
000150 8c 72 0f 3e 06 6f 6a bf 1c 19 3e 3f 74 2c 23 bf
       0.1400854 -0.9157566 0.74257064 -0.63739705
000160 5e 1d 0b 3f 24 e9 34 bf fd f4 80 be e0 9a ed be
       0.54341686 -0.70668244 -0.2518691 -0.46407223
000170 d0 e0 e3 3e 60 50 3f 3f 65 3d 5d bd 1b e7 69 bf
       0.44507456 0.7473202 -0.05401363 -0.91368264
000180 84 5a 21 3f 05 ea 7b 3e e8 eb 26 be 7f 55 58 bf
       0.6302874 0.2460099 -0.16300929 -0.84505457
000190 4b 63 c8 be 48 a7 bb bd 78 7f ea 3e c0 1c 4c 3f
       -0.39138255 -0.09162766 0.45800376 0.7973137
0001a0 4d 01 f0 3d b2 8b af 3d 8e d8 45 3e 20 dd 08 3f
       0.11718998 0.08571567 0.1932089 0.5346241
0001b0 79 ec e0 3d ab 98 47 3e eb ee 26 3d e3 e0 17 bd
       0.109826036 0.19491832 0.040755194 -0.037079703
0001c0 88 d9 8c 3e d2 ce 85 be a4 19 03 be a6 17 c5 3e
       0.27509713 -0.26134354 -0.1280275 0.38494605
0001d0 ae 5f 60 3e e2 99 17 bc 8a b8 79 be e8 41 56 be
       0.21911499 -0.009252997 -0.24386802 -0.20923579
0001e0 9e 8a 01 be 22 d4 b5 be 1b 6b 89 be 68 2c 0f 3e
       -0.12650535 -0.35513407 -0.26839527 0.13981783
0001f0 bd 90 78 3d 78 90 e8 3e 00 72 e7 be c5 e5 d2 3e
       0.06068491 0.4542272 -0.45204163 0.41190925
000200 09 fc 91 be 2d 3c 3e bb a6 19 2c be 2a 66 00 3f
       -0.285126 -0.0029027567 -0.16806659 0.5015589
000210 f7 99 a5 be ec d9 c0 be 92 4f aa 3d dd b6 1b be
       -0.32344028 -0.3766626 0.08315958 -0.15206476
000220 dd cf 2a 3e 58 f7 15 bf 8b e1 13 3e 89 21 64 bf
       0.16680856 -0.5858054 0.14441507 -0.8911367
000230 3c ec b0 3e b0 a0 04 bb 91 b7 0c be 0d 4d 88 3e
       0.34555233 -0.0020237379 -0.137419 0.26621285
000240 3e 82 b3 be b7 4c 7e 3e 51 3f f8 3e a6 42 aa be
       -0.35060304 0.24833952 0.48485807 -0.33253974
000250 bc 8c f9 be d0 5e 9b 3e d1 ef d3 3e 42 ff f8 3e
       -0.48740184 0.30345774 0.41393903 0.48632246
000260 9e 77 d8 3e df 10 90 3f 80 6c bf 3d 5d 60 28 bf
       0.4227876 1.1255149 0.093468666 -0.6577204
000270 bc 77 e7 3f bc e4 fc 3e 4d 44 87 3b 76 33 7c bc
       1.8083415 0.4939326 0.004128015 -0.015393129
000280 be c9 f7 3c fe 88 df bd f8 8e 15 3e 12 76 96 3d
       0.030247565 -0.10914801 0.1460532 0.07346739
000290 ab 95 ab 3e b5 4e 78 3f c4 46 09 be 2f 9b 74 3e
       0.33512625 0.969951 -0.13405901 0.23887323
0002a0 36 d4 2b bf 52 1d 47 bf 2c aa 3b 3f 9f cf c0 3e
       -0.67120683 -0.77779114 0.73306537 0.37658402
0002b0 73 f0 38 3f 67 e8 9b be 5c ab 1e bd 4a f7 07 3e
       0.72241896 -0.30450746 -0.03873764 0.13277927
0002c0 f2 02 69 bf 93 05 82 3e 6e 64 3b 3f 69 80 9d 3e
       -0.9102012 0.25394878 0.7320012 0.30762032
0002d0 1f 86 1e bf 10 75 10 bf 5a f8 1b 3e 1d b0 12 bf
       -0.619234 -0.56428623 0.15231457 -0.5729998
0002e0 63 a2 7d be 5a db f9 3e 5d 4a cd bc 88 5c f2 bd
       -0.24768977 0.48800164 -0.025059873 -0.11834055
0002f0 eb 2e 00 be 63 70 21 3f b9 a1 2a be 23 ef 81 3e
       -0.12517898 0.63062114 -0.16663255 0.2537776
000300 a8 cf 81 3e 07 35 9e bd ed 50 fb 3d 90 af e9 3e
       0.25353742 -0.07724958 0.12271295 0.45641756
000310 c3 20 9b 3d b4 fb 3b be 6d 47 35 3e 8b 18 85 3d
       0.07574608 -0.18357736 0.17703028 0.06498822
000320 0c 39 a3 3f 3d fe 82 3d 8c 0d cc be 99 49 a7 3e
       1.2751784 0.06396148 -0.39854085 0.32673338
000330 c0 ad e9 3e cb 4f cb 3d ce 0b 11 3f f8 e4 31 3e
       0.45640373 0.09927329 0.5665864 0.17372501
000340 9b 3b 0e bf 9b 1d 5e 3f ff f0 81 3e 8d 15 3f bd
       -0.555597 0.86763924 0.25379178 -0.04665141
000350 e8 ca 65 be cd 76 a7 3e d9 81 01 3f de 3e 07 bd
       -0.22440684 0.32707825 0.50588757 -0.03301894
000360 d3 6b ab 3d 4e f3 e9 3e af 02 36 bf b5 9e 93 bd
       0.08370175 0.4569344 -0.71097845 -0.07208005
000370 46 2b 01 bd ab ff 3a bf 45 90 b4 3e 4e e7 88 3f
       -0.03153541 -0.7304637 0.3526632 1.0695589
000380 2f 8a 68 3e 6e 48 b4 3d ae d0 d1 be fe 15 9f 3d
       0.22708963 0.08802877 -0.40979522 0.077678666
000390 32 6b 10 3f 87 b6 bb bd 62 94 ec be 6d 4b 37 3d
       0.5641357 -0.09165674 -0.46206957 0.044749666
0003a0 82 16 39 3f b2 74 65 bf cb 2b f3 bc f5 57 ce bd
       0.7229997 -0.8963119 -0.029683968 -0.1007537
0003b0 33 c9 9e bc ca 45 cf 3d 8b cd 1c bf 3d 44 0c 3f
       -0.019383049 0.10120733 -0.61251134 0.54791623
0003c0 30 32 ee be 6d 0a fe be dd b5 62 bf e3 ca e7 3c
       -0.46522665 -0.4961733 -0.8855875 0.028294986
0003d0 57 d2 8d 3e c1 2e 9a 3f a5 0f 5d 3f d9 71 10 bf
       0.2769954 1.2045518 0.86351997 -0.5642372
0003e0 ce b2 19 3f fe a5 75 bf 1e 37 2f bf df c8 13 be
       0.6003846 -0.9595641 -0.6844348 -0.14432095
0003f0 78 c7 3c 3e d2 3d 3a be 15 a5 d5 be 09 df 02 c0
       0.18435466 -0.18187645 -0.4172751 -2.044863

lstm.bias_ih_l0 f4 [200]
000000 f6 8c 7a be c1 25 19 bf 73 2e ae be 31 59 13 be
       -0.24467835 -0.5982323 -0.34019813 -0.14389493
000010 cb 10 e9 bc 9e 2f a3 be 7a 90 0e 3f c7 2c 0c 3f
       -0.02845039 -0.31872267 0.55689204 0.54755825
000020 e0 bb 19 be 93 e3 44 be 84 78 db be 30 5d 4b be
       -0.15013075 -0.19227438 -0.42865384 -0.19859767
000030 56 44 d7 3c 6e c0 e6 3e 8d 46 e3 bd b4 e2 a2 3e
       0.026277702 0.45068687 -0.11097441 0.31813586
000040 ef f3 30 3f e4 85 62 3d 91 b5 d7 3e 23 44 84 bf
       0.69122213 0.05530347 0.42130712 -1.0333294
000050 41 78 ba be 9a 4b 30 bf d1 ec 32 bd 82 52 a5 3e
       -0.3641987 -0.6886536 -0.043682877 0.3228951
000060 63 ec 2d be 92 42 68 bf b3 d3 f6 3e 26 81 a2 bf
       -0.16984706 -0.9072658 0.4820839 -1.2695663
000070 af aa 5b 3f 82 f1 df 3f f0 d1 fe 3d 6c 04 4c bf
       0.8580732 1.7495577 0.12442386 -0.7969425
000080 c4 62 e0 be 16 0b d8 3d 85 7b a7 bd 92 5e 15 be
       -0.43825352 0.105489895 -0.08177856 -0.14586857
000090 8e 9e ab 3e 8f 40 5b be 5a da 0c bf bd 58 af be
       0.33519405 -0.21411346 -0.5502068 -0.3424739
0000a0 e6 76 83 3f 41 5d 98 3d 5a a6 65 be 14 1e 39 be
       1.027066 0.07439662 -0.2242674 -0.1807788
0000b0 d6 fb 23 3f 8b b7 18 3d 1f c4 40 bf 81 e7 03 3e
       0.64056146 0.037284415 -0.7529926 0.1288128
0000c0 f3 ad 73 3e bf 4a fc 3f 99 24 c7 be a2 30 19 bf
       0.23796825 1.9710311 -0.3889511 -0.5983983
0000d0 0d 6f 4b bf b5 26 10 bf 37 08 f8 be 20 97 bb bf
       -0.79466325 -0.5630906 -0.48443767 -1.4655495
0000e0 03 a4 2e 3f ec 93 14 be 65 b4 96 bf 40 f5 a3 bf
       0.6821901 -0.14509553 -1.1773802 -1.2809219
0000f0 2b 78 36 bf f9 ef 3b bf 75 b3 1a be e0 6c 87 bd
       -0.7127711 -0.73413044 -0.1510752 -0.06612563
000100 bb f2 b4 bd 1b 13 ca be e1 c9 42 3e 90 20 90 be
       -0.0883536 -0.394677 0.19022323 -0.28149843
000110 18 db f0 bd 81 27 2d be 62 ce 83 bf 71 b8 9b bf
       -0.11760539 -0.16909601 -1.0297358 -1.2165662
000120 66 85 00 3f bc 34 36 bf 1c ba 36 be 52 97 a4 3d
       0.5020355 -0.71174216 -0.17844433 0.080366746
000130 12 d2 81 3c 21 a8 94 bf f7 a6 c8 be 9e 1a 87 bf
       0.01584724 -1.1613809 -0.39189884 -1.0554998
000140 73 76 27 bf 77 cc 33 bf 3a d7 aa be a5 e6 05 3f
       -0.65415114 -0.70233864 -0.3336733 0.5230506
000150 e7 d5 c7 be 25 35 b9 3d 31 8d 1c bf 35 cd 0f be
       -0.39030382 0.0904334 -0.6115294 -0.14043124
000160 e9 38 44 bf 11 17 57 bd 17 23 44 be 70 3c 48 bf
       -0.7664934 -0.052512232 -0.1915401 -0.7821722
000170 d6 33 69 bf 03 33 87 bf ee 7f c4 3d 1a 07 5f be
       -0.9109472 -1.0562443 0.09594713 -0.21780053
000180 c4 84 a7 bf 33 64 32 bf 9d 65 ed bd ee 48 45 bf
       -1.3087392 -0.6968414 -0.11591647 -0.77064407
000190 0a db 22 be bf 88 3a 3f 25 ab 14 3f e8 c8 98 3e
       -0.1590387 0.7286491 0.58073646 0.2984078
0001a0 6b 2b f2 3e 5d 27 ba 3e 79 bd 9c 3e 40 e5 2b be
       0.4729875 0.36358157 0.30613306 -0.1678667
0001b0 a8 3b 5f 3f 95 dd 61 bf 85 6e 15 3f ba d4 23 3f
       0.87200403 -0.8822873 0.58371764 0.6399647
0001c0 51 cc cf bd 12 42 12 3e 83 74 84 3f 7f c1 fa bd
       -0.10146392 0.14283016 1.0348057 -0.12243938
0001d0 49 11 d7 3f f1 94 22 be 31 bb 8c bd dd 55 01 bf
       1.680215 -0.15877129 -0.068716414 -0.5052164
0001e0 1a b7 ae be 6a e6 4e 3f 20 9c 8e bf fc ea 88 3e
       -0.3412407 0.80820334 -1.1141396 0.2674178
0001f0 08 57 2e 3d 9b 57 6b 3e e7 b2 82 3e ef f6 21 bb
       0.04256347 0.22982638 0.25527117 -0.0024713834
000200 79 01 3f bf 8c 64 10 3f 8e 68 7f 3c 07 f9 91 3c
       -0.7461162 0.5640342 0.015588893 0.01781894
000210 ee ef eb 3b 94 02 f0 be c3 e7 77 3f 75 84 45 3f
       0.0072002327 -0.46876967 0.96838015 0.7715524
000220 cd e4 8e bb bd f6 3c 3f b0 c4 12 3f 99 5d d2 3e
       -0.0043607713 0.7381399 0.5733137 0.41087034
000230 bf 91 5f 3f 66 e2 8b 3f be 5c f1 3e a9 69 c9 be
       0.87331766 1.0928466 0.4714107 -0.39338425
000240 ae d6 dd 3d 3f 1e b3 3f fe b2 cd 3e db 8e 40 bf
       0.108319625 1.3993605 0.40175623 -0.7521798
000250 eb 73 04 be 4d 8d 76 3f 4e cb 86 3e 9b 9c b5 be
       -0.12934844 0.9630936 0.26326984 -0.35471043
000260 09 c3 77 3e 07 e4 2a be 64 92 4f bf 42 83 36 3e
       0.24195494 -0.16688548 -0.8108275 0.17823508
000270 8a 73 fa bd 86 84 f8 3e c6 ae 86 be 73 14 23 3e
       -0.122290686 0.48538607 -0.26305217 0.1592577
000280 4c ad 80 bf e7 b6 1c bf ec 9c 28 bf f8 72 9d be
       -1.0052886 -0.61216587 -0.65864444 -0.30751777
000290 95 11 36 bf e1 14 2f 3c bc 72 71 bc 20 74 e6 bd
       -0.7112058 0.01068613 -0.014736827 -0.11252618
0002a0 0c e1 2c be 5a cb a0 be e0 d0 73 3f 17 b0 f1 3e
       -0.16882724 -0.31405145 0.9524059 0.47204658
0002b0 92 4a 2a be ce 16 a5 3e bd 61 19 bf c8 47 06 be
       -0.16630009 0.3224396 -0.5991476 -0.1311332
0002c0 d0 cc 05 3e f3 6a af bf dc 88 a7 3f 90 8c a1 3f
       0.13066411 -1.3704513 1.3088641 1.2621021
0002d0 67 58 1d be cb 22 65 bf 38 00 dc 3e 0f c0 14 bf
       -0.15365754 -0.89506215 0.42968917 -0.5810556
0002e0 f9 9e 9d bc 1f c5 9b bf 0e 77 1f 3e 81 da a0 3e
       -0.019240843 -1.2169532 0.1557276 0.31416705
0002f0 be ca 6b be 6e 19 de 3e 2d 75 08 40 d8 e9 db 3e
       -0.23026559 0.43378776 2.1321518 0.42951846
000300 83 58 2e 3e 68 0b 0e 3f 03 46 68 be 52 e8 33 bf
       0.17025952 0.55486155 -0.22682957 -0.7027637
000310 d3 64 35 bf e4 08 6b bd ac e6 2a bf e9 da 2a 40
       -0.7085697 -0.057381526 -0.6675823 2.6696112

lstm.bias_hh_l0 f4 [200]
000000 f6 8c 7a be c1 25 19 bf 73 2e ae be 31 59 13 be
       -0.24467835 -0.5982323 -0.34019813 -0.14389493
000010 cb 10 e9 bc 9e 2f a3 be 7a 90 0e 3f c7 2c 0c 3f
       -0.02845039 -0.31872267 0.55689204 0.54755825
000020 e0 bb 19 be 93 e3 44 be 84 78 db be 30 5d 4b be
       -0.15013075 -0.19227438 -0.42865384 -0.19859767
000030 56 44 d7 3c 6e c0 e6 3e 8d 46 e3 bd b4 e2 a2 3e
       0.026277702 0.45068687 -0.11097441 0.31813586
000040 ef f3 30 3f e4 85 62 3d 91 b5 d7 3e 23 44 84 bf
       0.69122213 0.05530347 0.42130712 -1.0333294
000050 41 78 ba be 9a 4b 30 bf d1 ec 32 bd 82 52 a5 3e
       -0.3641987 -0.6886536 -0.043682877 0.3228951
000060 63 ec 2d be 92 42 68 bf b3 d3 f6 3e 26 81 a2 bf
       -0.16984706 -0.9072658 0.4820839 -1.2695663
000070 af aa 5b 3f 82 f1 df 3f f0 d1 fe 3d 6c 04 4c bf
       0.8580732 1.7495577 0.12442386 -0.7969425
000080 c4 62 e0 be 16 0b d8 3d 85 7b a7 bd 92 5e 15 be
       -0.43825352 0.105489895 -0.08177856 -0.14586857
000090 8e 9e ab 3e 8f 40 5b be 5a da 0c bf bd 58 af be
       0.33519405 -0.21411346 -0.5502068 -0.3424739
0000a0 e6 76 83 3f 41 5d 98 3d 5a a6 65 be 14 1e 39 be
       1.027066 0.07439662 -0.2242674 -0.1807788
0000b0 d6 fb 23 3f 8b b7 18 3d 1f c4 40 bf 81 e7 03 3e
       0.64056146 0.037284415 -0.7529926 0.1288128
0000c0 f3 ad 73 3e bf 4a fc 3f 99 24 c7 be a2 30 19 bf
       0.23796825 1.9710311 -0.3889511 -0.5983983
0000d0 0d 6f 4b bf b5 26 10 bf 37 08 f8 be 20 97 bb bf
       -0.79466325 -0.5630906 -0.48443767 -1.4655495
0000e0 03 a4 2e 3f ec 93 14 be 65 b4 96 bf 40 f5 a3 bf
       0.6821901 -0.14509553 -1.1773802 -1.2809219
0000f0 2b 78 36 bf f9 ef 3b bf 75 b3 1a be e0 6c 87 bd
       -0.7127711 -0.73413044 -0.1510752 -0.06612563
000100 bb f2 b4 bd 1b 13 ca be e1 c9 42 3e 90 20 90 be
       -0.0883536 -0.394677 0.19022323 -0.28149843
000110 18 db f0 bd 81 27 2d be 62 ce 83 bf 71 b8 9b bf
       -0.11760539 -0.16909601 -1.0297358 -1.2165662
000120 66 85 00 3f bc 34 36 bf 1c ba 36 be 52 97 a4 3d
       0.5020355 -0.71174216 -0.17844433 0.080366746
000130 12 d2 81 3c 21 a8 94 bf f7 a6 c8 be 9e 1a 87 bf
       0.01584724 -1.1613809 -0.39189884 -1.0554998
000140 73 76 27 bf 77 cc 33 bf 3a d7 aa be a5 e6 05 3f
       -0.65415114 -0.70233864 -0.3336733 0.5230506
000150 e7 d5 c7 be 25 35 b9 3d 31 8d 1c bf 35 cd 0f be
       -0.39030382 0.0904334 -0.6115294 -0.14043124
000160 e9 38 44 bf 11 17 57 bd 17 23 44 be 70 3c 48 bf
       -0.7664934 -0.052512232 -0.1915401 -0.7821722
000170 d6 33 69 bf 03 33 87 bf ee 7f c4 3d 1a 07 5f be
       -0.9109472 -1.0562443 0.09594713 -0.21780053
000180 c4 84 a7 bf 33 64 32 bf 9d 65 ed bd ee 48 45 bf
       -1.3087392 -0.6968414 -0.11591647 -0.77064407
000190 0a db 22 be bf 88 3a 3f 25 ab 14 3f e8 c8 98 3e
       -0.1590387 0.7286491 0.58073646 0.2984078
0001a0 6b 2b f2 3e 5d 27 ba 3e 79 bd 9c 3e 40 e5 2b be
       0.4729875 0.36358157 0.30613306 -0.1678667
0001b0 a8 3b 5f 3f 95 dd 61 bf 85 6e 15 3f ba d4 23 3f
       0.87200403 -0.8822873 0.58371764 0.6399647
0001c0 51 cc cf bd 12 42 12 3e 83 74 84 3f 7f c1 fa bd
       -0.10146392 0.14283016 1.0348057 -0.12243938
0001d0 49 11 d7 3f f1 94 22 be 31 bb 8c bd dd 55 01 bf
       1.680215 -0.15877129 -0.068716414 -0.5052164
0001e0 1a b7 ae be 6a e6 4e 3f 20 9c 8e bf fc ea 88 3e
       -0.3412407 0.80820334 -1.1141396 0.2674178
0001f0 08 57 2e 3d 9b 57 6b 3e e7 b2 82 3e ef f6 21 bb
       0.04256347 0.22982638 0.25527117 -0.0024713834
000200 79 01 3f bf 8c 64 10 3f 8e 68 7f 3c 07 f9 91 3c
       -0.7461162 0.5640342 0.015588893 0.01781894
000210 ee ef eb 3b 94 02 f0 be c3 e7 77 3f 75 84 45 3f
       0.0072002327 -0.46876967 0.96838015 0.7715524
000220 cd e4 8e bb bd f6 3c 3f b0 c4 12 3f 99 5d d2 3e
       -0.0043607713 0.7381399 0.5733137 0.41087034
000230 bf 91 5f 3f 66 e2 8b 3f be 5c f1 3e a9 69 c9 be
       0.87331766 1.0928466 0.4714107 -0.39338425
000240 ae d6 dd 3d 3f 1e b3 3f fe b2 cd 3e db 8e 40 bf
       0.108319625 1.3993605 0.40175623 -0.7521798
000250 eb 73 04 be 4d 8d 76 3f 4e cb 86 3e 9b 9c b5 be
       -0.12934844 0.9630936 0.26326984 -0.35471043
000260 09 c3 77 3e 07 e4 2a be 64 92 4f bf 42 83 36 3e
       0.24195494 -0.16688548 -0.8108275 0.17823508
000270 8a 73 fa bd 86 84 f8 3e c6 ae 86 be 73 14 23 3e
       -0.122290686 0.48538607 -0.26305217 0.1592577
000280 4c ad 80 bf e7 b6 1c bf ec 9c 28 bf f8 72 9d be
       -1.0052886 -0.61216587 -0.65864444 -0.30751777
000290 95 11 36 bf e1 14 2f 3c bc 72 71 bc 20 74 e6 bd
       -0.7112058 0.01068613 -0.014736827 -0.11252618
0002a0 0c e1 2c be 5a cb a0 be e0 d0 73 3f 17 b0 f1 3e
       -0.16882724 -0.31405145 0.9524059 0.47204658
0002b0 92 4a 2a be ce 16 a5 3e bd 61 19 bf c8 47 06 be
       -0.16630009 0.3224396 -0.5991476 -0.1311332
0002c0 d0 cc 05 3e f3 6a af bf dc 88 a7 3f 90 8c a1 3f
       0.13066411 -1.3704513 1.3088641 1.2621021
0002d0 67 58 1d be cb 22 65 bf 38 00 dc 3e 0f c0 14 bf
       -0.15365754 -0.89506215 0.42968917 -0.5810556
0002e0 f9 9e 9d bc 1f c5 9b bf 0e 77 1f 3e 81 da a0 3e
       -0.019240843 -1.2169532 0.1557276 0.31416705
0002f0 be ca 6b be 6e 19 de 3e 2d 75 08 40 d8 e9 db 3e
       -0.23026559 0.43378776 2.1321518 0.42951846
000300 83 58 2e 3e 68 0b 0e 3f 03 46 68 be 52 e8 33 bf
       0.17025952 0.55486155 -0.22682957 -0.7027637
000310 d3 64 35 bf e4 08 6b bd ac e6 2a bf e9 da 2a 40
       -0.7085697 -0.057381526 -0.6675823 2.6696112

lstm.weight_ih_l1 f4 [200, 50]
000000 4f 2d 2c be 10 27 93 3e 86 f1 40 3e 35 df 52 bf
       -0.16814159 0.2874074 0.18842134 -0.82371837
000010 c3 00 83 be cc 07 55 bf 30 84 49 3d e7 12 01 3e
       -0.2558652 -0.8321502 0.04919833 0.12604867
000020 e1 e4 67 be 50 87 1b bf c5 e9 7c 3e 15 b8 6b 3e
       -0.22645904 -0.60753345 0.24698551 0.2301944
000030 2f c7 8e bf b1 15 87 be 22 41 4e bf 6b e2 8d be
       -1.1154536 -0.26383737 -0.80568135 -0.27711806
000040 3b 40 37 be 2a 4b a8 bd e0 34 26 3f 42 c5 d7 3d
       -0.17895596 -0.082174614 0.6492443 0.10535671
000050 dd 66 28 3f 09 87 28 be 30 f4 ee bb 33 23 21 be
       0.65781957 -0.16457762 -0.007292293 -0.15736084
000060 cd ec 95 bc 57 4b 1a 3e 8d 02 97 3e c4 43 b2 3e
       -0.018301392 0.15067802 0.29494134 0.34817326
000070 a3 10 98 be 63 d3 73 3e 51 e3 44 3f 3f 72 8d 3e
       -0.29700193 0.23811106 0.7690936 0.27626225
000080 13 d6 8d bf ae a4 0d be 9a 4b 98 3e 9e 31 8a bf
       -1.1080955 -0.13832352 0.2974518 -1.0796392
000090 40 2b e1 3c 87 bf 13 3e f6 45 77 3e bc 58 03 3f
       0.027486444 0.1442853 0.24147782 0.5130727
0000a0 79 e6 ac 3f 7c 3d a6 3e 92 34 34 be 7b ed ee be
       1.3507835 0.32468784 -0.17598179 -0.46665558
0000b0 6e 46 e3 3d 54 e1 48 be 58 fa 64 bf 36 14 89 be
       0.11097418 -0.19617206 -0.89444494 -0.26773232
0000c0 c0 0f a4 be 9a 54 98 3f 58 ed b7 3e 79 5d f0 be
       -0.32043266 1.1900818 0.35923266 -0.46946314
0000d0 85 6e 71 be 3a 80 b6 be 21 81 43 bf ad 75 60 be
       -0.23577316 -0.35644704 -0.7636891 -0.2191989
0000e0 12 85 66 be e1 0d 75 3e 77 95 c3 3e 85 f7 ea be
       -0.225117 0.23931076 0.3819997 -0.45891967
0000f0 65 38 2d bf 8c f1 f8 be bd 79 73 3e a2 3b cc 3e
       -0.67664176 -0.48621786 0.23776908 0.39889246
000100 b6 32 0f bf f6 5e bf 3d ca 7c 37 3e 51 d9 22 3f
       -0.55936754 0.09344284 0.17918697 0.6361285
000110 a4 40 1a 3e b9 bd 32 3e 8d 37 0d 3e b8 cb a9 3d
       0.15063721 0.17455186 0.13790722 0.082908094
000120 72 a3 05 3e 77 ec b6 be 31 24 19 3f 55 1e 54 be
       0.1305063 -0.35727283 0.5982085 -0.20714696
000130 c4 24 a2 3c 30 0b 42 bf c3 5b 5d bf 5f 17 05 3f
       0.019792922 -0.7579832 -0.8646814 0.51988786
000140 bd d3 cd 3e 0c 90 e7 bd 85 00 35 bf f4 ad ab 3e
       0.40200606 -0.11306772 -0.7070392 0.33531153
000150 f9 34 ec bd 53 f9 78 be 96 01 3c 3e ba 41 c4 bd
       -0.11533541 -0.2431386 0.1835998 -0.09582849
000160 db dd 96 be 01 63 7f be 01 4c 9b 3f 64 af 8d be
       -0.29466137 -0.2494011 1.213257 -0.27672875
000170 eb de 54 bd a9 e0 4b 3d 07 73 e1 3e c8 30 fc be
       -0.051970404 0.0497748 0.4403307 -0.49255967
000180 54 93 a7 bc ee 70 65 3e a1 b3 86 3e 60 5f c2 3f
       -0.020455994 0.2240636 0.2630892 1.5185356
000190 1f f1 78 be a5 5f 01 be 95 fa 97 be 8e 24 0b be
       -0.2431073 -0.12634142 -0.29683366 -0.13588163
0001a0 3e 5e 5c be f9 b6 cc 3d e8 fb 1c 3e d3 ea 23 3e
       -0.21520326 0.09995837 0.1533047 0.16007547
0001b0 ff ec 0b 3e 55 c1 a1 3e 84 84 4f 3e cf 8e 96 3e
       0.13664626 0.31592813 0.20265394 0.2940583
0001c0 50 d3 ad be 4f 75 78 be cc 4d 07 bf 85 63 ac be
       -0.3395028 -0.242635 -0.52853084 -0.33669677
0001d0 51 33 c7 3e 2b 3f cc be 3f dc 19 be 3b ff 9e 3e
       0.3890634 -0.39891943 -0.15025423 0.310541
0001e0 2e 56 0a 3e 79 dc aa bc 81 e1 35 3f 99 96 17 3e
       0.13509437 -0.020857083 0.71047217 0.14803542
0001f0 90 53 75 be f5 cd 05 3f 64 60 dc 3e ac 2f 53 3f
       -0.23957658 0.5226739 0.4304229 0.82494617
000200 27 36 d6 39 41 a4 b6 3c 25 99 e2 be 9c 6c 2f 3f
       0.00040857607 0.02229512 -0.44257465 0.685251
000210 c3 fb b8 be 3d 1a 92 be b7 b6 76 bf e4 c5 02 bf
       -0.3612958 -0.28535643 -0.9637255 -0.5108321
000220 9b a6 14 bf 46 3b e3 3e a1 d7 cf be 74 ea 62 3e
       -0.5806672 0.4438116 -0.405942 0.2215975
000230 6c 55 04 3d 4f d7 e8 3d 76 30 ef be 9e e7 b8 be
       0.032308027 0.11369192 -0.4671666 -0.3611421
000240 4d 88 04 bf e5 3c 5d 3e af 56 80 3e f8 2c 09 bf
       -0.5177048 0.2160526 0.25066134 -0.5358424
000250 5e 13 96 be 8b 60 e7 be 97 d1 01 bf 9a 3c 5a 3e
       -0.2931165 -0.45190844 -0.50710434 0.2131218
000260 1d 49 1f 3f b6 a5 a5 3d 84 2b 37 3e be 9f 7f 3f
       0.62220937 0.080882475 0.17887694 0.9985312
000270 be f6 f5 3d 05 41 c0 3e ff a2 dd 3e e1 fa fb 3d
       0.12009953 0.37549606 0.4328842 0.12303711
000280 a2 6c 65 bd 40 ce 41 be 43 36 76 3d 86 4d 30 3e
       -0.056011803 -0.18926334 0.06011034 0.17217073
000290 b7 37 23 3e 51 28 36 bd f1 e9 0e bf 94 db 19 3d
       0.15939222 -0.044472042 -0.55825716 0.03756292
0002a0 38 18 c3 3e c1 f0 25 3f 1f 83 2c be 00 7a bc bd
       0.38104415 0.64820486 -0.16846894 -0.09202957
0002b0 b6 91 1e 3e 10 6d 94 bf 1e 28 ab be a2 eb 91 be
       0.15485272 -1.1595783 -0.33429044 -0.28500086
0002c0 68 14 42 3e 0f 48 e3 3e 5f 38 4c be e8 b3 49 3f
       0.18953097 0.44390914 -0.19943379 0.7879014
0002d0 cb dc 6e be a9 4b 0f bf d2 be 19 3e c6 10 8c be
       -0.23326413 -0.55974823 0.15014198 -0.27356547
0002e0 b0 96 58 3e d4 61 09 3f b3 2c 33 3f c7 7a 03 be
       0.21151233 0.536649 0.6999008 -0.12839805
0002f0 0a 56 d5 3e 80 de 06 3f 5a 34 22 3f ec 9c 47 be
       0.41667205 0.5268326 0.6336113 -0.19493455
000300 87 ae 3d 3e 8e d7 a5 3e 5c 83 a4 bd 28 9c 8b 3c
       0.18523608 0.32391018 -0.08032867 0.017042235
000310 03 c4 c4 be cb 01 25 3d 4a 21 1d be b3 e0 2a 3f
       -0.38430795 0.040284913 -0.1534473 0.66749114
000320 54 e4 c4 be b1 5f ed bc 31 d6 4d 3e 8c 5d 2b bd
       -0.3845545 -0.028976293 0.20101239 -0.04183726
000330 db a0 b6 3e e7 ba b3 bc ce 31 fb 3c cf fe cd 3e
       0.35669598 -0.021939708 0.030663397 0.40233466
000340 45 49 ea be ad ad 67 3d 95 67 c8 3e 63 51 2f 3e
       -0.45759025 0.056562115 0.39141527 0.1712089
000350 3b eb 9c bc 33 09 1f 3f 68 50 c1 3e 78 d4 a2 be
       -0.019155135 0.6212341 0.37756658 -0.31802726
000360 97 79 ea 3d a4 f0 94 3b 23 f7 cb be 63 9f 9d 3b
       0.11448973 0.004545288 -0.39836988 0.00481026
000370 67 bb 56 3e fc a1 62 be 94 dc 52 bf f1 f7 25 3e
       0.20969926 -0.22132105 -0.82367826 0.16207863
000380 47 7d 89 be e4 67 16 3e ca 7d 46 3e d6 02 95 3e
       -0.26853392 0.14688069 0.19383922 0.29103726
000390 65 3e 84 3b 07 11 a9 3e 80 e5 51 bf 85 cc 23 bf
       0.0040357583 0.33020803 -0.81990814 -0.6398395
0003a0 33 22 14 bf e1 2b 01 3e 08 92 b2 3d 2c 60 20 3f
       -0.57864684 0.12614395 0.087192595 0.62646747
0003b0 82 41 a1 3e bc b1 9b bd 0a cb 8d 3e 88 da 4e bf
       0.3149529 -0.076022595 0.2769397 -0.808022
0003c0 bf 10 94 3d b4 35 31 bf 45 13 fb be d7 a3 07 be
       0.072297566 -0.6922257 -0.4903814 -0.13246094
0003d0 fa d1 00 3e fc e5 f5 3e 02 ff 85 bf 6f 27 a9 3e
       0.125801 0.48027027 -1.0468447 0.33037898
0003e0 62 9b a7 be 40 a6 2c bf ab 2f 0e 3f c2 c7 39 3f
       -0.32735735 -0.6744118 0.55541486 0.7257043
0003f0 a8 56 50 3f 20 97 b6 3c 01 8e 8a 3e bd 1c 25 bf
       0.81382227 0.022288859 0.27061465 -0.64496976

lstm.weight_hh_l1 f4 [200, 50]
000000 22 25 39 3f d5 7e 7f be 6f 3b 3e 3e d7 99 88 3b
       0.72322285 -0.24950726 0.1857736 0.0041687298
000010 18 a4 bd 3e 2e 79 f4 bd cf b5 21 bf 33 46 2c bf
       0.37039256 -0.11937176 -0.6316804 -0.67294616
000020 0e 34 69 bd 1b 67 b0 3e 64 e7 e8 3d 47 8c a8 3e
       -0.05693441 0.34453663 0.11372259 0.32919523
000030 65 9c dc 3e 3e c7 ce bd bb d2 0b be e9 e0 b5 3e
       0.4308807 -0.10096596 -0.13654606 0.35523155
000040 c4 78 1e bf dc ee 1d 3e 25 b1 08 3f 48 d4 1b be
       -0.61903024 0.15423149 0.533953 -0.15217698
000050 1f fc 3c 3e d7 bd 9c 3e ab bc 04 3f 5a d2 d8 be
       0.18455552 0.30613586 0.51850384 -0.42347986
000060 32 c2 e4 be 92 dd eb 3c 38 4e 8e be a7 3e 74 be
       -0.4467941 0.028792176 -0.2779405 -0.23852025
000070 be e1 fb 3e 67 b7 ff bd 34 82 a9 bd 49 17 33 3f
       0.49195665 -0.12486153 -0.082767874 0.69957405
000080 5a 11 32 3f ad e5 02 3f ff 04 d6 be 37 c2 68 3f
       0.69557726 0.5113171 -0.41800687 0.9092135
000090 11 a9 23 bd b4 fd 00 3f f0 0a c6 be cf 65 1f be
       -0.039956156 0.5038712 -0.3868022 -0.1556618
0000a0 f8 d7 c1 3d 68 5c 8e 3e 5d b0 4f bf 86 d0 05 3e
       0.09465021 0.27804875 -0.81128484 0.13067827
0000b0 c5 80 2a 3e cb c7 69 3d e5 d1 13 3f e8 f9 5c 3e
       0.16650684 0.057075303 0.5774215 0.21579707
0000c0 c5 53 03 3f 7f b2 b5 bd a6 47 49 bf f0 c5 a7 3e
       0.512997 -0.08871936 -0.7862495 0.32768202
0000d0 50 f6 25 bf aa 35 2a 3e 9d 1c af bd 1e 04 05 bf
       -0.6482897 0.16622034 -0.085503794 -0.5195941
0000e0 6c 02 c1 be 78 09 93 be 2a b0 58 be 77 76 f5 be
       -0.3769716 -0.28718162 -0.21160951 -0.47941944
0000f0 d2 5f ae be 09 06 86 be cb 2b 88 3d e3 6d f6 be
       -0.3405748 -0.2617648 0.06648978 -0.48130712
000100 07 d8 70 3f 5b 4a 88 bd ed bc 9f be 37 d1 16 3f
       0.9407963 -0.06654807 -0.31198826 0.58912987
000110 0e 0b 8c bf 3e e0 24 3f b3 8f a7 be 0f 17 85 3d
       -1.0940874 0.64404666 -0.3272682 0.06498539
000120 09 5a b0 3e c5 59 b6 be 3b 6b 13 3f 49 ae 75 be
       0.3444369 -0.35615364 0.57585496 -0.23992266
000130 aa 10 d1 3e 0f d3 a7 3f ee 49 1a 3e 46 c2 aa 3c
       0.40833026 1.3111285 0.15067264 0.02084459
000140 e3 1b 24 be 79 58 0a bf 2e d1 73 3e d5 a2 c8 3e
       -0.16026263 -0.5404125 0.23810264 0.3918673
000150 1a ec ce bd 23 00 20 be 82 85 2a 3c ee 04 34 be
       -0.101036265 -0.15625052 0.010407807 -0.17580006
000160 91 c9 bc be f2 be 3e 3f 37 ed 14 bf 84 e8 21 bf
       -0.36872533 0.7451011 -0.5817446 -0.63245416
000170 38 9e 3d 3e ac 1e 50 bf 1e c3 44 bf 18 1e 08 3f
       0.18517387 -0.812968 -0.76860225 0.5317092
000180 f9 4f 2e bf ca 6d 93 bf b7 7d 38 3f 56 2b c5 be
       -0.6809078 -1.151788 0.72066826 -0.38509625
000190 7d 0b 9d be e4 a7 3e be ba 6a 5b bd 63 11 94 3e
       -0.30672827 -0.18618733 -0.05356858 0.28919515
0001a0 e1 ad e5 be 7a 77 0e 3f 29 fe 44 3f f8 33 4b 3f
       -0.44859222 0.55651057 0.7695032 0.79376173
0001b0 04 1a da 3e 68 3f e5 bc a0 5b 1b bf 4f 78 75 bf
       0.42597973 -0.027984336 -0.60686684 -0.958867
0001c0 3c 4c 16 bf 63 c2 04 3e 37 a0 72 3e 10 a3 8c be
       -0.58710074 0.12964778 0.2369393 -0.27468157
0001d0 b9 39 b0 3f c1 f6 10 bf 67 a9 a6 3e fa fd 66 3c
       1.3767616 -0.56626517 0.3255112 0.014098639
0001e0 18 f5 0a bf ef e3 5c be 7c be a0 3d f4 8e 34 3f
       -0.54280233 -0.21571325 0.07848832 0.7053063
0001f0 02 30 36 bf b7 44 20 bf 8f 81 e4 be 56 4c dd be
       -0.71167004 -0.6260485 -0.44630095 -0.43222302
000200 d9 e6 16 3f 6f ae e0 3e e6 2c 76 3f 7b 37 a7 3e
       0.58945996 0.43883082 0.9616226 0.32659516
000210 e4 59 38 be 53 89 85 3d 56 f2 49 3e 02 d4 dc bf
       -0.1800304 0.06520333 0.1972135 -1.72522
000220 9b dd 84 be 60 62 91 bf 5b 2b ce 3e 2d 63 d0 3d
       -0.25950322 -1.1358147 0.40267453 0.10175166
000230 96 e0 10 be 82 48 0e bf 8a d4 b9 3f b0 24 81 3d
       -0.14148173 -0.5557939 1.4517987 0.06305826
000240 94 52 67 3d e0 d1 71 bf 6b d8 83 bd 18 08 a0 bd
       0.056475237 -0.9446087 -0.06437763 -0.07814044
000250 3e 0b 85 be 87 30 28 3e 4d 26 0d 3d ab a3 d0 3e
       -0.2598514 0.16424762 0.034460355 0.4074987
000260 04 3e e0 b9 2e d8 4e bf 03 cf 0a bf 11 a6 0a 3f
       -0.00042770815 -0.80798614 -0.54222125 0.5415965
000270 11 1d de be 58 ed 04 bd 16 db 28 be 3b 6e 16 3e
       -0.4338155 -0.03245291 -0.16489825 0.14690487
000280 ac 18 08 be e3 bf 3d 3f 68 fc 26 3f 3a 74 82 3f
       -0.13290662 0.7412092 0.6522889 1.019172
000290 12 5c 42 be f3 78 8f be fc 5c ad 3e f2 c7 a5 be
       -0.18980435 -0.28021964 0.33860004 -0.3237911
0002a0 59 b1 4c 3e f8 69 88 bf 15 7c 16 bf 40 6b a4 be
       0.19989528 -1.0657339 -0.58783084 -0.32113075
0002b0 56 20 c9 bd 4e d5 50 be 9c c5 23 be 63 e1 4e be
       -0.09820621 -0.2039387 -0.1599335 -0.20203166
0002c0 90 1c aa be b1 fa 65 bf a4 b3 2e bd cd 15 38 3d
       -0.33224916 -0.8983565 -0.042651787 0.044942666
0002d0 c8 f0 de be 26 8d 82 be b3 0c c7 be 23 a9 2e bf
       -0.43543077 -0.25498313 -0.38876876 -0.6822683
0002e0 74 bd 12 bf 82 7f de 3d 0d bb 43 be 07 a4 6c bc
       -0.5732033 0.10864164 -0.19114323 -0.014443404
0002f0 33 e6 fe bd 40 d0 83 be a4 35 02 be ca 93 35 3e
       -0.12446251 -0.2574482 -0.12715775 0.17732158
000300 02 18 1e 3f 2b 13 e6 3d 88 e6 16 bd a3 9d 6a 3e
       0.61755383 0.11234125 -0.036840945 0.22911696
000310 d6 1d 10 bf 8c 30 fe 3c 65 7a 8f 3e 1e 7f 3a 3e
       -0.56295526 0.031029008 0.28023067 0.18212554
000320 3f 77 90 3e 5f 4a b9 3f 9a a2 25 3e 69 c0 6d 3e
       0.28215978 1.4475821 0.16175309 0.2321793
000330 64 fe 40 3f 16 f0 73 bc cd 6b 0e 3f 58 69 2b 3d
       0.7538817 -0.014888784 0.5563324 0.04184851
000340 8a a4 23 3e 79 dd 10 3e 71 1a fe be e0 b0 97 3e
       0.15980735 0.14146985 -0.49629548 0.29627132
000350 8b 75 a3 be 10 46 0f bf 12 af ae 3e 0a f5 98 3e
       -0.31925616 -0.5596628 0.34117943 0.2987445
000360 a1 c5 92 3e 83 05 3d 3e ff 0e f8 3e 24 56 81 3e
       0.28666404 0.18459134 0.4844894 0.25261033
000370 be 8f 40 3e 9b 8c 96 bd 15 07 b5 3d dd 0e 17 3d
       0.18804833 -0.07351037 0.088392414 0.03687941
000380 8b d2 1e 3f 9c 79 a1 bd fb 05 aa be d5 9c 3a bf
       0.62040013 -0.07884523 -0.33207688 -0.72895557
000390 f0 44 d2 bd f1 42 3f be e0 bd 17 bd f7 d7 24 3f
       -0.10267055 -0.1867788 -0.037046313 0.64392036
0003a0 b0 56 f4 3e fe 21 da 3c 39 0b 12 be af b9 ec be
       0.47722387 0.026627537 -0.14262094 -0.46235415
0003b0 70 a6 b5 3d 39 c3 05 bd da 92 ba 3d 03 71 88 be
       0.08869636 -0.032656882 0.09110041 -0.2664872
0003c0 1f b0 37 bf e3 e2 d0 3d 38 e7 cb 3e 1d 62 29 3f
       -0.71753114 0.10199525 0.39824843 0.66165334
0003d0 0b ce 93 bd ed b4 1e 3d ab ea cf 3e bf 82 27 3f
       -0.07217034 0.038746763 0.40608725 0.6543388
0003e0 f8 eb 61 be 45 22 6d be 93 17 b5 3e d8 1d 60 be
       -0.22062671 -0.23157604 0.35369548 -0.21886384
0003f0 e6 ab 21 bf d0 50 0e 3f 68 be 99 3f d2 3f dd bd
       -0.6315292 0.5559206 1.2011232 -0.108031884

lstm.bias_ih_l1 f4 [200]
000000 3f 17 33 bf 07 67 78 be e5 2c d9 bd ea 2b e2 be
       -0.69957346 -0.24258052 -0.10604266 -0.4417413
000010 9f cc a7 be ad 3a f0 bc 2b f4 11 bf e8 81 17 bf
       -0.327733 -0.029324854 -0.57013196 -0.59182596
000020 ce ca 48 bf 63 41 d9 be 1b 31 d7 3e cd cf 61 be
       -0.78434455 -0.424327 0.42029652 -0.22051926
000030 ea 8c 98 be c7 11 ce be e0 dd 18 be fd c4 ab be
       -0.2979501 -0.40247938 -0.14928389 -0.33548728
000040 6b 39 3e bf 5d 89 b2 be 00 9a 16 bf f8 29 da be
       -0.7430636 -0.34870425 -0.58828735 -0.42610145
000050 32 54 95 be 15 98 cf be 8d bb 7f 3d 8d 1f 6f bf
       -0.29165798 -0.40545717 0.06243472 -0.9340752
000060 75 0f 38 bf 56 89 08 be 10 02 e2 be 3b bd 58 bf
       -0.71898586 -0.1333364 -0.441422 -0.8466374
000070 ba 37 96 be 79 7d e6 bd fd bb 90 3d c7 b9 76 bf
       -0.2933939 -0.11254401 0.07067106 -0.96377224
000080 39 dc 8b be ce bd 04 bf 8c b2 49 bf 27 0d d5 be
       -0.27316454 -0.5185212 -0.78788066 -0.41611597
000090 96 d5 0d bf 69 45 44 be a6 02 24 3d 70 cb 20 bf
       -0.5540403 -0.19167103 0.04004159 -0.6281042
0000a0 70 16 4e be ef 6c 5d 3d d6 59 4f bf 62 96 1a bf
       -0.20125747 0.054058965 -0.80996454 -0.60385716
0000b0 22 54 41 bf 49 5d 09 be 4c ec 4e be f5 27 ad be
       -0.75519 -0.13414492 -0.20207328 -0.33819547
0000c0 07 00 7e be ed 7e 11 be 77 58 54 3d c1 ec a5 3f
       -0.24804698 -0.14208575 0.05184218 1.2962877
0000d0 c9 d1 ab be e2 a2 e7 be 9d d9 b0 be 86 b2 7f be
       -0.3355849 -0.45241457 -0.34541026 -0.24970445
0000e0 7a 14 bb 3e 5f 83 03 be 90 a5 3d bf 62 49 f9 be
       0.3653906 -0.12843083 -0.74080753 -0.486888
0000f0 6a f7 4c 3f 72 20 6b 3f ec 8f dc 3e 4e 13 04 bf
       0.80065024 0.9184638 0.43078554 -0.51591957
000100 16 0d 1e be bb d6 5a bf 43 c0 50 bc 53 29 f1 bd
       -0.1543468 -0.854839 -0.012741151 -0.1177546
000110 b2 24 e3 bd 69 08 ff bd 44 7f 37 bf d4 33 33 bf
       -0.110909835 -0.12452776 -0.71678567 -0.7000096
000120 9a b9 bf be 68 70 66 3e 40 d5 d7 be e2 16 03 bf
       -0.3744629 0.22503817 -0.42154884 -0.5120679
000130 cc 83 2f bf 3c dc 2f 3e 62 6b 65 be 16 7f 88 be
       -0.6856048 0.17173856 -0.22404245 -0.2665946
000140 d9 c2 bb be 5e 9a 00 bd 08 2a f7 be cb 64 44 be
       -0.36672094 -0.031397216 -0.48274255 -0.19179074
000150 16 69 8b be c0 87 1f 3d b1 72 00 bf 0b 0d 55 3f
       -0.27228612 0.03894782 -0.50175005 0.83223027
000160 55 f6 3c be 81 ec 7c be cf 28 9d be f3 c7 90 bd
       -0.18453343 -0.24699594 -0.30695197 -0.07069387
000170 5b 18 ef 3d 8e 2e 0d 3f 06 d3 0f bf 7b 60 95 3f
       0.11674567 0.5514916 -0.5618137 1.1670069
000180 8a 5b 14 be 19 69 38 be 3d 2d ca bb de e4 27 3f
       -0.14488044 -0.18008842 -0.0061699436 0.655836
000190 62 9b 97 3d 62 fa 1f be 46 cf 43 3e 9f a8 98 be
       0.07402684 -0.15622857 0.19122037 -0.29816148
0001a0 e3 14 67 bc 40 85 89 3e 58 cd d0 3e f0 3a 1a 3e
       -0.014104101 0.26859474 0.40781665 0.15061545
0001b0 03 2f da 3d 10 e8 22 bc 73 1d 47 3f 7b e1 3a be
       0.10653498 -0.009943023 0.7777931 -0.18250076
0001c0 d4 28 1c be 6d 5b cc bd dc 3f 87 be 48 24 93 3e
       -0.1524995 -0.099783756 -0.26415908 0.28738618
0001d0 60 63 01 3e 46 e8 c1 bd eb e2 bd 3e d9 4e 0b bd
       0.12635565 -0.09468131 0.37087187 -0.03401074
0001e0 49 b6 ea 3e f1 02 f0 be eb 4d 25 bd 17 f4 56 3e
       0.45842198 -0.46877244 -0.04035751 0.2099155
0001f0 8e 29 ae be 94 bc 34 bd c5 61 b0 3d 82 65 89 3d
       -0.3401608 -0.044125155 0.08612398 0.06708814
000200 9a cf 44 be ff 21 56 bb d1 17 98 bd bd f5 0a be
       -0.19219819 -0.0032674072 -0.074264176 -0.13570304
000210 ca 59 5a be d4 0b 33 bd 23 bc 2f be 52 24 8f bb
       -0.21323314 -0.043712452 -0.17161612 -0.0043683434
000220 45 5e ad 3d a0 7d 2a be 4a 7f 8e be 93 db 67 3d
       0.08465246 -0.16649485 -0.2783149 0.056605887
000230 5e 01 ff 3d 16 3f 2d 3e 90 83 d1 be 22 19 07 bd
       0.12451433 0.16918597 -0.40920687 -0.032982953
000240 2c cf e8 bc 2f f6 1b bf 5b f2 d5 3d 4e 04 9d 3d
       -0.0284191 -0.6092252 0.10446616 0.07666837
000250 3b d5 24 be 3e c4 a7 3e 3e 72 a2 bd c4 a7 d9 3e
       -0.16096966 0.32766908 -0.07931946 0.42510808
000260 00 fe d8 be 8b 29 87 be 4c 35 21 be a9 67 82 be
       -0.42381287 -0.26398882 -0.15742987 -0.2546971
000270 07 55 2d 3e 7d 2b 0c 3d fc dc 17 bf bc d5 36 bf
       0.16926967 0.03422116 -0.5932157 -0.7141988
000280 01 a4 6e 3f aa 5e 00 3f 8d 8b 1c be 75 e8 a2 be
       0.93219 0.50144446 -0.1528761 -0.31817976
000290 7c 1b 1c 3f b6 06 19 bf 95 b3 81 bd 29 29 8e be
       0.6097944 -0.59775865 -0.06333081 -0.27765778
0002a0 92 2a 0e be 36 dd 5f bd 62 04 db be c3 a5 12 bf
       -0.13883427 -0.054654323 -0.4277678 -0.5728418
0002b0 0e d2 b6 bd cb cb d2 3e 5e 47 4e bf 86 b8 26 bf
       -0.089267835 0.41171107 -0.8057765 -0.6512531
0002c0 42 14 27 bf d2 82 62 be 17 60 6d be 09 fe ce 3e
       -0.65265286 -0.22120216 -0.23181187 0.40428188
0002d0 1f 42 63 3e bc 87 b1 be 55 40 70 be 14 d1 48 be
       0.22193192 -0.3467387 -0.2346204 -0.19611007
0002e0 25 5b 95 be f7 67 0d be b0 2f bb be 9e fd 72 3e
       -0.291711 -0.1380919 -0.3655982 0.2372956
0002f0 d5 ed ed bb 7f 22 00 bf c5 39 2e be 0f f5 a6 3e
       -0.007261018 -0.50052637 -0.17014225 0.3260884
000300 39 51 ab be 21 be dc 3e 60 fc 09 bf 2c bf 37 3f
       -0.33460405 0.43113807 -0.5390072 0.7177608
000310 3f e9 c9 be e3 ae 0b bd 69 33 09 bd 21 ab 08 3f
       -0.39435765 -0.03410233 -0.033496294 0.5338612

lstm.bias_hh_l1 f4 [200]
000000 3f 17 33 bf 07 67 78 be e5 2c d9 bd ea 2b e2 be
       -0.69957346 -0.24258052 -0.10604266 -0.4417413
000010 9f cc a7 be ad 3a f0 bc 2b f4 11 bf e8 81 17 bf
       -0.327733 -0.029324854 -0.57013196 -0.59182596
000020 ce ca 48 bf 63 41 d9 be 1b 31 d7 3e cd cf 61 be
       -0.78434455 -0.424327 0.42029652 -0.22051926
000030 ea 8c 98 be c7 11 ce be e0 dd 18 be fd c4 ab be
       -0.2979501 -0.40247938 -0.14928389 -0.33548728
000040 6b 39 3e bf 5d 89 b2 be 00 9a 16 bf f8 29 da be
       -0.7430636 -0.34870425 -0.58828735 -0.42610145
000050 32 54 95 be 15 98 cf be 8d bb 7f 3d 8d 1f 6f bf
       -0.29165798 -0.40545717 0.06243472 -0.9340752
000060 75 0f 38 bf 56 89 08 be 10 02 e2 be 3b bd 58 bf
       -0.71898586 -0.1333364 -0.441422 -0.8466374
000070 ba 37 96 be 79 7d e6 bd fd bb 90 3d c7 b9 76 bf
       -0.2933939 -0.11254401 0.07067106 -0.96377224
000080 39 dc 8b be ce bd 04 bf 8c b2 49 bf 27 0d d5 be
       -0.27316454 -0.5185212 -0.78788066 -0.41611597
000090 96 d5 0d bf 69 45 44 be a6 02 24 3d 70 cb 20 bf
       -0.5540403 -0.19167103 0.04004159 -0.6281042
0000a0 70 16 4e be ef 6c 5d 3d d6 59 4f bf 62 96 1a bf
       -0.20125747 0.054058965 -0.80996454 -0.60385716
0000b0 22 54 41 bf 49 5d 09 be 4c ec 4e be f5 27 ad be
       -0.75519 -0.13414492 -0.20207328 -0.33819547
0000c0 07 00 7e be ed 7e 11 be 77 58 54 3d c1 ec a5 3f
       -0.24804698 -0.14208575 0.05184218 1.2962877
0000d0 c9 d1 ab be e2 a2 e7 be 9d d9 b0 be 86 b2 7f be
       -0.3355849 -0.45241457 -0.34541026 -0.24970445
0000e0 7a 14 bb 3e 5f 83 03 be 90 a5 3d bf 62 49 f9 be
       0.3653906 -0.12843083 -0.74080753 -0.486888
0000f0 6a f7 4c 3f 72 20 6b 3f ec 8f dc 3e 4e 13 04 bf
       0.80065024 0.9184638 0.43078554 -0.51591957
000100 16 0d 1e be bb d6 5a bf 43 c0 50 bc 53 29 f1 bd
       -0.1543468 -0.854839 -0.012741151 -0.1177546
000110 b2 24 e3 bd 69 08 ff bd 44 7f 37 bf d4 33 33 bf
       -0.110909835 -0.12452776 -0.71678567 -0.7000096
000120 9a b9 bf be 68 70 66 3e 40 d5 d7 be e2 16 03 bf
       -0.3744629 0.22503817 -0.42154884 -0.5120679
000130 cc 83 2f bf 3c dc 2f 3e 62 6b 65 be 16 7f 88 be
       -0.6856048 0.17173856 -0.22404245 -0.2665946
000140 d9 c2 bb be 5e 9a 00 bd 08 2a f7 be cb 64 44 be
       -0.36672094 -0.031397216 -0.48274255 -0.19179074
000150 16 69 8b be c0 87 1f 3d b1 72 00 bf 0b 0d 55 3f
       -0.27228612 0.03894782 -0.50175005 0.83223027
000160 55 f6 3c be 81 ec 7c be cf 28 9d be f3 c7 90 bd
       -0.18453343 -0.24699594 -0.30695197 -0.07069387
000170 5b 18 ef 3d 8e 2e 0d 3f 06 d3 0f bf 7b 60 95 3f
       0.11674567 0.5514916 -0.5618137 1.1670069
000180 8a 5b 14 be 19 69 38 be 3d 2d ca bb de e4 27 3f
       -0.14488044 -0.18008842 -0.0061699436 0.655836
000190 62 9b 97 3d 62 fa 1f be 46 cf 43 3e 9f a8 98 be
       0.07402684 -0.15622857 0.19122037 -0.29816148
0001a0 e3 14 67 bc 40 85 89 3e 58 cd d0 3e f0 3a 1a 3e
       -0.014104101 0.26859474 0.40781665 0.15061545
0001b0 03 2f da 3d 10 e8 22 bc 73 1d 47 3f 7b e1 3a be
       0.10653498 -0.009943023 0.7777931 -0.18250076
0001c0 d4 28 1c be 6d 5b cc bd dc 3f 87 be 48 24 93 3e
       -0.1524995 -0.099783756 -0.26415908 0.28738618
0001d0 60 63 01 3e 46 e8 c1 bd eb e2 bd 3e d9 4e 0b bd
       0.12635565 -0.09468131 0.37087187 -0.03401074
0001e0 49 b6 ea 3e f1 02 f0 be eb 4d 25 bd 17 f4 56 3e
       0.45842198 -0.46877244 -0.04035751 0.2099155
0001f0 8e 29 ae be 94 bc 34 bd c5 61 b0 3d 82 65 89 3d
       -0.3401608 -0.044125155 0.08612398 0.06708814
000200 9a cf 44 be ff 21 56 bb d1 17 98 bd bd f5 0a be
       -0.19219819 -0.0032674072 -0.074264176 -0.13570304
000210 ca 59 5a be d4 0b 33 bd 23 bc 2f be 52 24 8f bb
       -0.21323314 -0.043712452 -0.17161612 -0.0043683434
000220 45 5e ad 3d a0 7d 2a be 4a 7f 8e be 93 db 67 3d
       0.08465246 -0.16649485 -0.2783149 0.056605887
000230 5e 01 ff 3d 16 3f 2d 3e 90 83 d1 be 22 19 07 bd
       0.12451433 0.16918597 -0.40920687 -0.032982953
000240 2c cf e8 bc 2f f6 1b bf 5b f2 d5 3d 4e 04 9d 3d
       -0.0284191 -0.6092252 0.10446616 0.07666837
000250 3b d5 24 be 3e c4 a7 3e 3e 72 a2 bd c4 a7 d9 3e
       -0.16096966 0.32766908 -0.07931946 0.42510808
000260 00 fe d8 be 8b 29 87 be 4c 35 21 be a9 67 82 be
       -0.42381287 -0.26398882 -0.15742987 -0.2546971
000270 07 55 2d 3e 7d 2b 0c 3d fc dc 17 bf bc d5 36 bf
       0.16926967 0.03422116 -0.5932157 -0.7141988
000280 01 a4 6e 3f aa 5e 00 3f 8d 8b 1c be 75 e8 a2 be
       0.93219 0.50144446 -0.1528761 -0.31817976
000290 7c 1b 1c 3f b6 06 19 bf 95 b3 81 bd 29 29 8e be
       0.6097944 -0.59775865 -0.06333081 -0.27765778
0002a0 92 2a 0e be 36 dd 5f bd 62 04 db be c3 a5 12 bf
       -0.13883427 -0.054654323 -0.4277678 -0.5728418
0002b0 0e d2 b6 bd cb cb d2 3e 5e 47 4e bf 86 b8 26 bf
       -0.089267835 0.41171107 -0.8057765 -0.6512531
0002c0 42 14 27 bf d2 82 62 be 17 60 6d be 09 fe ce 3e
       -0.65265286 -0.22120216 -0.23181187 0.40428188
0002d0 1f 42 63 3e bc 87 b1 be 55 40 70 be 14 d1 48 be
       0.22193192 -0.3467387 -0.2346204 -0.19611007
0002e0 25 5b 95 be f7 67 0d be b0 2f bb be 9e fd 72 3e
       -0.291711 -0.1380919 -0.3655982 0.2372956
0002f0 d5 ed ed bb 7f 22 00 bf c5 39 2e be 0f f5 a6 3e
       -0.007261018 -0.50052637 -0.17014225 0.3260884
000300 39 51 ab be 21 be dc 3e 60 fc 09 bf 2c bf 37 3f
       -0.33460405 0.43113807 -0.5390072 0.7177608
000310 3f e9 c9 be e3 ae 0b bd 69 33 09 bd 21 ab 08 3f
       -0.39435765 -0.03410233 -0.033496294 0.5338612
